osu_model.pth (torch, 438671 bytes, 28 tensors)

backbone.0.weight f4 [16, 3, 3, 3]
00000000: a881 b9bd 0ea6 053e 042c 6bbe 7fe1 f3bd
00000010: 90ed 44bd 0458 183e 418b b43c 4475 46be
00000020: 40f8 883d 1850 a8bd 0ade 8cbd ad0d d33d
00000030: 4248 b8bc 8176 c5bd 2abf 39bd 20ea d6bd
00000040: bee4 6fbe d1f5 9cbc 55dd 093e 9990 c4bc
00000050: ab96 47bd 14dd aabd 1ef5 e1bd 4478 99bc
00000060: 9eed 123d 4d94 173e 2aff 113d afc1 0dbd
00000070: 480f f33c 1196 663d 2b65 06be b662 793d
00000080: 6f6f 78be ca7f 013e 4cce 9bba 2f01 8dbc
00000090: 0f3e 9e3d 5a7f 5b3e 4087 863c 8862 0cbc
000000a0: e3e1 483d 3304 07be 77d1 b1bd 257e 32bd
000000b0: 3143 993d 1093 08be 7f7e c8bd 545b 613c
000000c0: d8c1 96bd 637e 46be bea0 00be 6b53 0b3d
000000d0: 15df 72be be66 9fbd 99ba 33bc bbf3 893a
000000e0: 0bc9 9abd eb7c 9f3e 937a 023e 91f4 8e3d
000000f0: 66ef 4f3e 9d54 1b3d 5860 93bd 1f82 48bc
00000100: c804 fb3d d9a0 a3bd b750 febd 13a8 56bd
00000110: 9b99 cb3d a8be 483d 2315 2ebe 45e2 39be
00000120: b06a c63d 86ae ad3c 12a4 9dbd 71c7 b33d
00000130: 2d6b 34be 2401 643d 3bdc 1f3c cf42 d6bc
00000140: a59e 47be 3b52 b6bc facf 0d3c 5d0d 06bc
00000150: 7332 80bc a485 2abe f001 1f3d a29c 7f3d
00000160: 75b5 cfbc a587 31be 262c ebbd a099 2abe
00000170: 8e81 a0bd 4963 4a3c f72f 28be d155 243d
00000180: b155 83bd 88e1 be3d be69 69bc ca41 503d
00000190: 8b26 1d3e 4d63 abbd 240b e5bc 1146 0abd
000001a0: e16d 93bc d949 1f3c e379 bfbc 158b a2bd
000001b0: 573b 0cbe 7496 0f3e 0852 203e c302 373e
000001c0: ddf3 883b c25a 743d 4fe5 98bd 24df a43d
000001d0: 92f2 89bd 1b40 823d 8bc4 053d 2be4 87bd
000001e0: 3524 d7bd a724 a63d 32c3 88bc cd90 18be
000001f0: b3ca eabb cc99 313d fae7 5a3e 5a5f febd
00000200: f488 933d 2af5 e0bc e8c2 68bd c476 babd
00000210: 3e1b 6dbe 11cd dabd cfaa 1b3e e1ee 03bb
00000220: 6b22 313e 0921 883e 3a90 45be 040c 7bbb
00000230: ce24 61be 8d1f 353c 146a ebbc 232d 2f3e
00000240: d572 bdbd 2171 acbb c548 87bd f435 8d3d
00000250: e1ce c33d 2309 9c3c e84d 9dbd bdc4 95bc
00000260: 5698 dc3d e623 73bd 4542 803d 9bde 58bc
00000270: 5656 23bc 18bd fcbd 3e61 12bc 1ea5 acbd
00000280: 90e0 3abc c8b8 593e 12c8 25bd 3793 28be
00000290: e7af f9bd 5039 cebd 6bef e93d cdd3 a2bd
000002a0: 2667 1b3d 949b 4e3a 5a13 833d 1eab a93e
000002b0: 42ca f33d e11b 61be 51e3 4fbe 1736 f73c
000002c0: 76df b1bd 5797 2b3d aec3 3d3e a9b1 113d
000002d0: 23a8 aebd bef6 15bc 10cd b9bc d36e 373e
000002e0: 1506 3b3d 68f9 0ebe dbd5 983d a4a7 85be
000002f0: 618f 993d bcdb 173e 6d23 94bd 3ab2 733d
00000300: e407 80bd a9e7 d1bc d961 a73d 0607 e0bc
00000310: 7742 6ebd ee30 acbc f719 7d3e daca 17be
00000320: ea8b f53d 666d 8f3c 481e d8ba 991f 73bd
00000330: 022f 033d abc0 d9bd 3613 b23d d977 65bd
00000340: b4aa 063e 1987 60bc 621b cfbc a099 3cbc
00000350: b2a5 123e 5ea2 bdbd 7ff4 9f3d 4ff5 d53d
00000360: 341c c13d f497 993c 52b3 f2bd 2096 883c
00000370: f9c3 143e f2b8 a2be 35d0 7a3e 6e9c fa3d
00000380: a430 1fbc 060c 443c 69ab 5abe f1a9 e7bd
00000390: 3a0f 033b bb20 e23d d806 333e 81d9 97bd
000003a0: 56c2 62bd 7522 87be 322a 803d 024d 84be
000003b0: a15a 36be 3b4e c93c 9780 463d 492d a0bc
000003c0: d158 acbc 98c4 c13c a3f4 6c3d 3b2b 1b3c
000003d0: 6ca1 99be 9267 323b 90ba 393d bee0 073e
000003e0: 5fa7 41be 3c4f 5f3d 1f56 d5bd aae4 04be
000003f0: b5d2 f43d b8cf 2e3e 66ff b83d daf6 2c3c
-0.09057933 0.13051626 -0.2296601 -0.11908244 -0.04807812 0.14877325 0.022039058 -0.19380671
0.06687975 -0.08218402 -0.06878288 0.10305343 -0.022495393 -0.096417435 -0.045348324 -0.104938745
-0.23427102 -0.019160183 0.13463338 -0.02399473 -0.048727673 -0.083429486 -0.110330805 -0.018734105
0.03587114 0.14802666 0.035643734 -0.03460854 0.029670373 0.05629546 -0.1312453 0.060885154
-0.24261259 0.12646404 -0.0011887043 -0.017212478 0.077266805 0.214353 0.016421914 -0.008568414
0.049043547 -0.13185196 -0.086825304 -0.043577332 0.07483519 -0.1333735 -0.09789752 0.0137546845
-0.073611915 -0.1938415 -0.12561318 0.0340151 -0.23717912 -0.077832684 -0.010969781 0.0010524908
-0.07557877 0.31149992 0.12742071 0.06980241 0.20306167 0.03792249 -0.071961105 -0.012238055
0.12256771 -0.07989664 -0.12417739 -0.05240638 0.09941407 0.04900995 -0.1700025 -0.18152721
0.09688318 0.021201383 -0.076973096 0.08778275 -0.1761901 0.05566515 0.009757097 -0.026154904
-0.19494112 -0.022256007 0.0086555425 -0.008181897 -0.015649056 -0.16652542 0.038820207 0.062405236
-0.02535508 -0.173369 -0.1148303 -0.16660166 -0.078372106 0.012352773 -0.16424547 0.040120903
-0.06412829 0.093203604 -0.014246402 0.05084399 0.15346734 -0.083685495 -0.027959414 -0.033758227
-0.01799673 0.0097221965 -0.02337355 -0.07936684 -0.13694511 0.14022237 0.15656292 0.17872147
0.0041794614 0.059656866 -0.07465612 0.08050373 -0.0673572 0.063598834 0.03265814 -0.066353165
-0.10504953 0.0811246 -0.016694639 -0.14898987 -0.007165277 0.043359563 0.21377555 -0.124205306
0.07203856 -0.027460653 -0.056826502 -0.09104684 -0.23154923 -0.106836446 0.15201877 -0.0020131397
0.17298286 0.26587704 -0.192933 -0.0038306722 -0.21986696 0.011054886 -0.028737105 0.17107062
-0.09250418 -0.0052625095 -0.066056766 0.06895056 0.095609434 0.019047325 -0.07680875 -0.018282289
0.10771243 -0.059360407 0.0626264 -0.013236667 -0.009969315 -0.12340754 -0.008934317 -0.08429931
-0.011406079 0.21261895 -0.040474005 -0.16462408 -0.12191754 -0.10069525 0.114226185 -0.07950554
0.037940167 0.00078814593 0.064001754 0.33138365 0.11903812 -0.21983291 -0.20301558 0.03017716
-0.086852 0.041892376 0.18531677 0.03556982 -0.08528163 -0.009153066 -0.02268079 0.1791337
0.045660097 -0.13962328 0.07462665 -0.26104462 0.074980505 0.14829916 -0.072333194 0.059496142
-0.06251505 -0.02562316 0.0817296 -0.027347099 -0.058168855 -0.021019425 0.24716936 -0.14823475
0.11989577 0.01750822 -0.0016488517 -0.059356306 0.032027252 -0.106324516 0.086950704 -0.0560225
0.13151056 -0.013704085 -0.025281612 -0.011511236 0.1432102 -0.09259485 0.07810306 0.104471795
0.094292074 0.018749215 -0.11850609 0.016673148 0.14527883 -0.31781727 0.24493487 0.12236868
-0.009716187 0.011965757 -0.2135445 -0.113117106 0.001999809 0.11041399 0.1748308 -0.074145325
-0.055361114 -0.26393476 0.06258048 -0.25840002 -0.1780801 0.024573436 0.048462477 -0.019552844
-0.021038445 0.023653314 0.05785049 0.009470756 -0.30005968 0.0027222377 0.045343935 0.13269326
-0.18911503 0.054518923 -0.10416817 -0.12977853 0.11954252 0.17071426 0.090330884 0.010556901

backbone.0.bias f4 [16]
00000000: de4d 8133 0891 6d35 85c5 0136 e612 9435
00000010: c49a 5936 1b0b 0bb5 d9d9 d7b6 cd90 f1b6
00000020: 9d3d 01b5 57a9 39b6 e595 acb7 2412 09b7
00000030: d2ee 4535 342c 3936 8c88 8f36 47e3 fab5
6.0211946e-08 8.850043e-07 1.933747e-06 1.103236e-06 3.2425605e-06 -5.1797696e-07 -6.43286e-06 -7.1992167e-06
-4.8145904e-07 -2.7665717e-06 -2.0573798e-05 -8.17006e-06 7.373575e-07 2.7592878e-06 4.2776282e-06 -1.8692598e-06

backbone.1.weight f4 [16]
00000000: 6046 823f 9d77 7f3f 6911 803f f43f 803f
00000010: 96fc 7e3f 99ff 7f3f 2d56 7e3f 812e 7f3f
00000020: 707d 803f 9d67 7d3f d3d1 7b3f 52c6 813f
00000030: 0e24 7e3f 580c 813f eea6 7d3f 1166 7d3f
1.0177727 0.9979189 1.0005313 1.0019517 0.99604166 0.99999386 0.99350244 0.99680334
1.003828 0.98986226 0.9836704 1.0138648 0.99273765 1.0081892 0.9908284 0.98983866

backbone.1.bias f4 [16]
00000000: e350 e03a 3c89 03bd ee09 343c 893c 083a
00000010: a579 263b 4f0e 1a3c afdd a93c 1a90 f43c
00000020: 45ae 213c eff4 af3c c57b 243c 9def ad3c
00000030: 8d27 043d 1df0 eebb e6bf 4c3a 5e7d 743c
0.001711395 -0.0321133 0.010988696 0.0005197009 0.0025402096 0.0094028255 0.02073559 0.02985387
0.009868209 0.021479098 0.010039275 0.02123242 0.03226428 -0.0072918073 0.00078105775 0.014922468

backbone.1.running_mean f4 [16]
00000000: b4ae 503f 0e91 253f 9c16 16be 91d5 473f
00000010: 655e c9bd e226 3cbe f34b 3d3e 5008 c1be
00000020: 72d0 bd3e 6ac9 eabe aae8 643e 11ac 833c
00000030: a648 8cbf 0f37 5dbb 538e 9fbd 22de ecbe
0.81516576 0.6467446 -0.14657062 0.7806025 -0.098324575 -0.18374208 0.18486004 -0.37701654
0.37073094 -0.45856792 0.2235438 0.016073259 -1.095967 -0.0033754741 -0.07790818 -0.46263224

backbone.1.running_var f4 [16]
00000000: 7c21 a63f f9d6 c13f caf0 fa3d 4981 a13f
00000010: 93e6 4b3d ffac 0b3e d6e2 0d3e 76ad da3e
00000020: 53cf 1a3f ef85 2a3f 6ba1 653e 8dd3 9b3e
00000030: ccb5 4a40 d7f0 9f3d 40ec 373e 99ea 903e
1.2978969 1.514373 0.12252958 1.261758 0.04978044 0.13640212 0.13856062 0.42710465
0.604726 0.66610616 0.22424857 0.30434838 3.167346 0.078096084 0.17961216 0.28303984

backbone.4.weight f4 [32, 16, 3, 3]
00000000: d5ee 8e3c 44aa 963d 06db b63c 3666 153e
00000010: 8c1c bdbd e74b 90bd b83a a53c a31d 1c3d
00000020: 951b f3bd 62ae 273d 4b03 c2bd 37f3 7dbc
00000030: d347 5ebd ed8a 043e bfe3 b53d 00e4 473d
00000040: 4c78 8e3d b658 943d 2cf6 0f3d 7b47 a1bd
00000050: 63ea bb3c 1e8c ca3a fbb3 bc3c 77aa 1cbd
00000060: 47c7 aa3d 0a0d e5bc ddf5 e6bc 2122 f9bd
00000070: 1a27 a9bb 89df d63d 1c4e 1abd 60c3 37bc
00000080: aff0 6ebd 7c69 023d 7267 a2bd 6ae6 b5bd
00000090: 826c 72bd d2b3 f9bd 144d 763d 5d8c 123e
000000a0: a08c d1bd 7bd9 4bbd 9fb1 96bd 273c cfbd
000000b0: 0afd dbbd 4a43 eb3d 47f7 e53d 5edb 423d
000000c0: a80e 113e c0ee 5dbd 5377 adbd 481e a8bc
000000d0: 01ef d63b 16a8 16bd 7b3e cc3d 24c4 10bb
000000e0: c3f6 d93d 2ee7 d73d 98e8 e03c 3ceb be3d
000000f0: 484a 323e 0c5a dcbd 3c24 c8bd 302f ecbd
00000100: 57f0 8bbb a940 b73d 5b1e 6b3d 5c60 b13d
00000110: da82 f7bc 5a70 163d 71c0 14bb 2ed8 183c
00000120: 0656 28be 92c0 5bbb aa60 20bd 7d25 043e
00000130: e619 033d 9106 b7bd 47ff b7bd 5a8d a93c
00000140: 22b5 acbb d848 a23c c15d 15bd 78f0 1a3d
00000150: 4062 9fbc 814d 8f3a 3c71 743d 0200 c1bd
00000160: 5102 76bc 5553 05be f0f1 3cbd 444b 293d
00000170: 3621 ab3d 2c46 ddbd 9f74 4dbe 930a 96bd
00000180: 1a75 14be a17b 5e3d 2f49 4d3d ae43 97bd
00000190: 7a38 7cbc 554d 893c 27a5 bfbd 4838 b7bd
000001a0: 6a14 c5bd 76b7 01bc 0201 043d cb6c efbd
000001b0: fe60 dbbb 328d 0ebe 5e27 a43d ec5a c4bd
000001c0: 5fb2 e33d 46e9 993d bb8e a03c 4880 ebbc
000001d0: 4565 9ebd 4341 b33d d6d5 79bc 70a6 16bd
000001e0: 6ec1 ff3d a5ef d63d 6cb8 a8bc f52c 14bc
000001f0: f625 173d 10bc acbd 6a15 38be def3 c8bd
00000200: e3d7 a1bc be2f 003d 8932 533d ee50 d93d
00000210: 8095 49bd 1346 14bd 4f16 723d ad3e 3f3e
00000220: 8086 a1bc 3d0e 71bd 858d 1cbd 4886 cbbd
00000230: ca18 b33c 5e80 9e39 2b5e c3bd fcab f03c
00000240: 8ee7 bdbd dcc5 14bd b03e 32be 76f6 a83d
00000250: c72e 7e3e 6411 d03b df01 9bba 0f59 debd
00000260: 5ce2 6abd f3d3 0e3d 8649 873c 5470 403d
00000270: fc37 08be ed36 7c3d 1e3c 603e e671 9cbd
00000280: 5e46 193e 844a 343e 6fc6 ebbc 7fdf 3cbb
00000290: 8eed 853d 96f1 1abe 5a4c 693d 3210 12bd
000002a0: 1d9e c53d e551 bf3d 9976 173d 58e7 03be
000002b0: 9a5a a83d 8deb 8db9 4366 0abd a96a 083d
000002c0: e167 0cbd 9405 983d 7237 ebbc 6329 02be
000002d0: 3b54 0abe d615 a0bd 72c6 95bd 9dc4 c43b
000002e0: 347d a4bd 9466 edbd 24f2 e9bd 9bee e1bd
000002f0: c674 983c 2fc0 3e3d ac94 9c3d 6c04 c23d
00000300: d3de 9c3d eed2 32bc de54 15bd a76a 57bc
00000310: 7236 f5bc a6ae 58bd d66a 84bd 558d fcbd
00000320: f66d 703d 5df0 4b3d 19b6 2dbd 1e0c 2abe
00000330: 5079 ad3d f1f0 2e3e f2f9 053d 9c08 693c
00000340: 0609 81bd fd74 68bd 469e fe3c 356b 233d
00000350: 9359 b5bd 725b 28bd 95f6 693d 7dc8 4ebc
00000360: 74ea cabc 8231 913c d99c a339 9a73 19bd
00000370: 78cb 803c ca68 ad3d d7a5 5ebd 2df0 f93c
00000380: 3372 d33d 5a13 a6bd b789 64bd b1ce dcbd
00000390: a095 fabd a7e0 973b e331 b53d e133 383d
000003a0: 99e2 3f3c 7e03 d83c c6d4 3abc 71dd 793d
000003b0: 1828 e13c 9e6e 943d 451f 45bd 7da2 9eb8
000003c0: 473c af3d ca17 433c 1fa8 af3d 7cce acbc
000003d0: c56b dfbd 3537 d0bd 1ee3 073e 0800 973d
000003e0: fccf b2bd ea76 963d 1c4e 993d ae22 0cbc
000003f0: ec27 d9bd ffe9 d13d 2775 0f3b 6f74 e6ba
0.017447868 0.07356694 0.022321235 0.14589772 -0.092339605 -0.07045727 0.0201696 0.0381142
-0.11870495 0.04093779 -0.09473284 -0.0154998815 -0.054267716 0.12943621 0.0888133 0.048801422
0.069565386 0.07243483 0.035146877 -0.07874962 0.022938913 0.0015453135 0.02303504 -0.038248505
0.083387904 -0.02796032 -0.028193409 -0.12164713 -0.005162132 0.10491855 -0.037672147 -0.011216015
-0.058335003 0.03183888 -0.07929887 -0.088818386 -0.059185512 -0.12192501 0.0601321 0.14311357
-0.102319 -0.049767952 -0.07358097 -0.10118895 -0.10741623 0.11487444 0.11228805 0.047572486
0.14165747 -0.054182768 -0.08470025 -0.020522252 0.006559253 -0.036781393 0.09972855 -0.0022089565
0.10642769 0.10542141 0.02745466 0.09322211 0.17411149 -0.107593626 -0.09772536 -0.11532438
-0.004270594 0.0894788 0.057401996 0.08660957 -0.030213762 0.03672824 -0.0022697712 0.009328885
-0.16439065 -0.003353153 -0.039154686 0.12904926 0.03200712 -0.08936799 -0.08984237 0.020697284
-0.005270616 0.019810125 -0.036466364 0.037826985 -0.019456029 0.0010933132 0.0596783 -0.094238296
-0.015015201 -0.1302007 -0.046129167 0.041331545 0.08355944 -0.108044 -0.20064019 -0.073262356
-0.14497796 0.05431712 0.05011862 -0.07385956 -0.015394324 0.016760508 -0.09357672 -0.08946282
-0.09623034 -0.007917276 0.032227524 -0.116906725 -0.006694912 -0.13921049 0.08015321 -0.095876545
0.11118006 0.075151965 0.01959931 -0.028747693 -0.077341594 0.08752682 -0.015248736 -0.03677982
0.12488066 0.10494927 -0.020595752 -0.009043922 0.036901437 -0.084343076 -0.17976919 -0.09812139
-0.019756263 0.03129553 0.051561866 0.10611139 -0.04921484 -0.03619964 0.059103306 0.18676253
-0.019717455 -0.05885147 -0.0382209 -0.099377215 0.021862406 0.0003023175 -0.095394455 0.029378884
-0.09272681 -0.036321506 -0.17406726 0.08250134 0.24822532 0.0063497294 -0.0011826119 -0.1085683
-0.05734478 0.0348701 0.01651455 0.046982124 -0.13302606 0.06157582 0.21897933 -0.07638912
0.14968249 0.1760655 -0.028781144 -0.0028819737 0.065394506 -0.1513122 0.05695758 -0.035659976
0.09649298 0.09341792 0.036978338 -0.1288122 0.08220406 -0.00027069115 -0.03378893 0.033304844
-0.034278754 0.07422939 -0.028712962 -0.127111 -0.13508694 -0.07816665 -0.07313241 0.0060048834
-0.08031693 -0.11591831 -0.11423138 -0.110318385 0.01861037 0.04657 0.076455444 0.094735
0.07659688 -0.010914547 -0.03645789 -0.0131479865 -0.029933188 -0.052900933 -0.0646569 -0.123316444
0.058698617 0.049789775 -0.04240999 -0.16606185 0.08470404 0.170841 0.03270907 0.014223244
-0.06300549 -0.056752194 0.03108133 0.039897162 -0.088549756 -0.041102834 0.057119925 -0.012621042
-0.02477 0.017723802 0.00031206643 -0.037463762 0.015722021 0.084672526 -0.054357376 0.030510033
0.10324516 -0.0810916 -0.055795398 -0.10781611 -0.1223557 0.004634935 0.08847406 0.04497135
0.01171174 0.026368853 -0.011403268 0.0610022 0.027484939 0.07247661 -0.048125524 -7.564293e-05
0.08556419 0.011907527 0.085769884 -0.021094553 -0.10909227 -0.1016678 0.13270232 0.07373053
-0.08731076 0.073469 0.07485601 -0.00855319 -0.106033176 0.10249709 0.0021889897 -0.0017582307

backbone.4.bias f4 [32]
00000000: 11e1 3836 0dba 85b6 9318 20b6 1142 0b36
00000010: f59f bbb5 ef88 5db5 f06b bbb3 c1c7 c5b5
00000020: 2a09 7b35 a909 8fb4 ea7e edb4 f7cc 7d34
00000030: b10e 0eb5 f6fc e6b5 639c 60b5 1351 c8b5
00000040: a635 0cb5 f075 73b3 58ab 5335 5317 6635
00000050: 4ecf 27b5 6a15 3eb5 be0a 1734 aa31 ffb5
00000060: 3446 8eb4 96c1 2ab5 c5f6 d0b5 db6c 90b5
00000070: 285d 0836 52ab 4ab5 4fbe 18b6 e811 8cb5
2.7549142e-06 -3.985368e-06 -2.3856162e-06 2.075107e-06 -1.3979139e-06 -8.252818e-07 -8.7275e-08 -1.473578e-06
9.351812e-07 -2.6642854e-07 -4.4237032e-07 2.3637027e-07 -5.29205e-07 -1.7209957e-06 -8.3674075e-07 -1.4924757e-06
-5.2232133e-07 -5.668511e-08 7.8852963e-07 8.571562e-07 -6.2514016e-07 -7.081168e-07 1.4066879e-07 -1.9013435e-06
-2.650064e-07 -6.361164e-07 -1.5569027e-06 -1.0760517e-06 2.0319803e-06 -7.550017e-07 -2.276054e-06 -1.0436024e-06

backbone.5.weight f4 [32]
00000000: 3307 823f 3d12 803f 7883 7c3f 5418 813f
00000010: fc81 7b3f a3a4 7a3f 8160 7e3f d6cb 7c3f
00000020: 5317 803f f5c8 7f3f dad0 7e3f 2921 7a3f
00000030: ca6d 7f3f 5344 7e3f 0e38 7d3f 2865 7f3f
00000040: cd08 7e3f 0ca9 7d3f 2ed0 803f 7254 7d3f
00000050: cb21 823f 0e0e 7c3f 297d 803f 5b65 813f
00000060: 0e4c 803f a431 803f c381 813f 225b 7d3f
00000070: 1421 7f3f 10ff 7c3f 38de 7d3f c69e 7d3f
1.0158447 1.0005566 0.98638105 1.0085549 0.98245215 0.97907466 0.99366003 0.9874853
1.0007118 0.9991601 0.9953743 0.9770685 0.997769 0.99323004 0.9891366 0.9976373
0.9923218 0.9908607 1.0063531 0.9895698 1.0166563 0.98458946 1.0038196 1.0109056
1.002321 1.0015149 1.0117725 0.9896718 0.9965985 0.98826694 0.99167204 0.99070394

backbone.5.bias f4 [32]
00000000: 96ad e13c 7f0e 04bc 4479 98bb 5117 9e3c
00000010: 0abb 4d3c bb41 883c 1117 75bc 85f5 48bc
00000020: 3aff 353b 1b43 39bc 42fb 59bc b11e b8ba
00000030: 8305 383a 3ccc 7d3c e549 203b 57be c4bb
00000040: 0a96 f13c 6264 81bc 0915 183c 9c59 0fbc
00000050: a750 273c cd41 4abc 7fc5 643b e618 f63b
00000060: 8585 4dbc 8b96 c63c 5c82 333d 6e6a af3a
00000070: def8 20bc 5b8b b23a 20dd 04bb 394a cf3b
0.027548593 -0.008060097 -0.004653128 0.019298228 0.012556801 0.016632905 -0.014959113 -0.012265568
0.0027770535 -0.011307503 -0.013304533 -0.0014047233 0.0007019864 0.015490588 0.0024458107 -0.0060041356
0.02949049 -0.015794937 0.009282359 -0.008749392 0.0102121 -0.01234479 0.0034907756 0.0075102923
-0.012544041 0.024241706 0.043825492 0.0013383159 -0.00982496 0.0013621853 -0.0020273402 0.0063259867

backbone.5.running_mean f4 [32]
00000000: 5642 99be adab 443d 28a0 6d3d 6fad 20bf
00000010: 6143 f33e 210a 573d 7a2f 49bf e34d f8bd
00000020: d0f7 8ebe 9449 adbd 4194 433e b7cc f23d
00000030: ea49 c6be 6b3e 5cbf d854 03bd 236a 24bd
00000040: 1d75 87be abda 133e 0195 6dbe 8155 753f
00000050: 6850 9cbd 7626 543e 11d2 903f 902d 09be
00000060: 4014 f73e 2932 45bf c027 00bf c2eb 5fbe
00000070: 5f23 82bf d908 51bf 833c 6b3e 3b7d 803f
-0.29933423 0.048015285 0.058014065 -0.6276464 0.47512344 0.052499894 -0.7858807 -0.12124231
-0.2792344 -0.084612995 0.19099523 0.118554525 -0.38728267 -0.8603274 -0.032063335 -0.040140282
-0.26456538 0.14438884 -0.23201372 0.95833594 -0.07632524 0.20717797 1.1314107 -0.13396287
0.48257637 -0.77029663 -0.50060654 -0.21867278 -1.0167044 -0.81654125 0.22972302 1.0038217

backbone.5.running_var f4 [32]
00000000: 5848 993e 0f93 bc3e 31c6 d03e bdfd 6c3e
00000010: 68f0 263f 1ffb 123e 1cab f83f 94e0 b03e
00000020: 5d11 f93e ce2e f43e 0311 a83e 4b76 d53e
00000030: 022d 653f 59e0 8f3e ce97 0f3f 957d 973f
00000040: d3ef 553e f40d e43e 2be9 fc3e 4f43 133f
00000050: 09b3 6f3e 0b69 da3e 87db fb3f 4f52 9b3e
00000060: dc55 df3e 0ec6 983e 3369 d23e e6a7 0540
00000070: 388b 593f f112 e03e f49a 3b3f 3188 373f
0.29938006 0.36830947 0.40776208 0.23143668 0.6521058 0.14353608 1.9427218 0.3454634
0.4864606 0.4769196 0.3282548 0.41691813 0.895218 0.2810085 0.5609101 1.18352
0.20892267 0.44541895 0.49396643 0.5752458 0.2340814 0.42658266 1.967637 0.30336234
0.43620193 0.29838604 0.41095886 2.0883727 0.84978056 0.4376445 0.73283315 0.71692187

backbone.8.weight f4 [64, 32, 3, 3]
00000000: d4f2 833d c659 453c d8f6 55bc fec3 c93d
00000010: 57d7 08bd 238e 2db8 f0fe 9dbc de81 19bb
00000020: f5e4 3a3d e44d f8bc 160f d83c 89b1 c13a
00000030: b41c 1ebc 98c4 15bd f455 193d 9030 a3bd
00000040: 65b5 223d 769f 403d b40e 863d aa81 0d3d
00000050: 589b f03c e614 5dbd 6027 603d 72bf 05be
00000060: 8f4f 92bd 35f9 abbc 09ad c7bd 5676 423d
00000070: 7943 3a3d 4a04 c13a ad88 48bd 0f1c dcbc
00000080: c9c0 b23c 3a9a abbc 31d2 61bd 3d35 993d
00000090: d8c7 b83c 8881 423a 447e 02bd 7f05 16bc
000000a0: d17f 8fbb 81b2 0e3b a2f3 e4bd 0f55 263d
000000b0: 5783 f1bc f31f 003e e382 a53d a5d4 583d
000000c0: f3b2 7e3d 0cc4 47bc e857 523d 1657 9cbb
000000d0: be93 50bc ac2f 0a3d fc29 053d ed6f bbbd
000000e0: e5df 84bd d142 19bd efa2 b0bd fd5a 363d
000000f0: f72b cbbd dd96 0abe fd78 29bd a8b0 00be
00000100: 4df7 8d3d 3b3f 0aba 7850 c33c 3ace 93bd
00000110: 090c f4bc e688 64bd 9130 973d 7c3c a83d
00000120: 6b46 ae3c 085e 943d 7803 993c 9256 48bd
00000130: 14a3 94bc 363d f13c d2b2 14bd 334c 4bbc
00000140: d78e a53b e8c7 53bc 10c5 4f3d 8e40 cf3d
00000150: 594e 403d b66f 07be a7ad f9bd e9ed ae3d
00000160: 2aa2 fdbd d525 893c d94a 1abd e07d 94bc
00000170: cbfb b13c f5b6 8fbc 01b4 5a3c 642e c53c
00000180: cf02 433d f884 543d 16cd b1bc 75e9 21bd
00000190: a27e f2bc dc29 56bd 180a 19be 3175 553d
000001a0: 5a80 843d 8176 8dbc 1937 5abd 8a96 b53b
000001b0: 74db b4bd 867a cb3c 394c bc3c aede 5a3d
000001c0: aa78 49bd 6a6e edbd b1d5 2e3d 3c3b 2e3d
000001d0: c8d1 b6bb 0764 053e 3698 453c e0a4 1fbc
000001e0: 5f27 953c 0d84 5ebd 4f51 67bd d742 0bbd
000001f0: cebe a73d 0859 68bd d774 bd3d dca9 433d
00000200: 984c f8bc 7ffc 7f3d ca0e 8a3d 9746 6b3d
00000210: d78a 973d 0082 193d 5035 a33d 0c15 79bb
00000220: 7935 103d e6b3 f53b c462 a63d be84 dabc
00000230: 0f1b cabc 37b7 e03d 865d ec3b cdc8 23bd
00000240: 1acf ce3c 3b05 31bd dda4 cd3c 711b 91bd
00000250: 821c 833c 9ff0 843c 7e2f 9dbd e3ec 263c
00000260: 5252 4fbb 4f39 2b3d e992 10bd 0cb0 c33d
00000270: 7ab4 68bc a3bc 80bd 1879 b1bb 45ca 403d
00000280: 8359 8cbc 70c7 ce3a 17a7 3cbd 5523 c5bb
00000290: 53fa 43bd 9cea 8cbd f48e aa3d 404b b9bc
000002a0: 1122 813d 44d4 f03c 6082 5bbd 105d 003d
000002b0: 4d26 cd3d a4ce 913c 50e7 46bd ba1c 4c3d
000002c0: 9031 5d3d f3e6 6a3b 87b1 b83d 87cc 82bd
000002d0: 382f a93d 33ca 8ebd 3986 8dbd 0e9d e33c
000002e0: bba2 ae3d 50c0 f0bd 9721 53bc 4abb c8bd
000002f0: 7fce e53c 603d 033c 70c6 3fbd ccb3 c03b
00000300: ed6a e93d 4ea5 a63d eb18 ecbd c5b2 34bc
00000310: 2611 273d 92c2 803c 71fb 90bd 59a1 93bd
00000320: 0b7f cabc 7bc4 34bd 5773 4ebd fdeb ac3c
00000330: 0dae 03bd 61f2 123d a131 45bb b76d 5abc
00000340: fd03 f8bc 0ad3 f2bb d63a 73bd b793 743d
00000350: 1c74 fdbc da3a f43c a9c9 83bd 0c8f 87bd
00000360: 3168 dcbb 0d0d 57bd 04e1 a23d bff3 94bd
00000370: afe3 153d d3e3 6d3d 0a24 bdbc 48b3 923c
00000380: 426e ddbb 2e6c 083d a48f 4fbc ed11 8fbd
00000390: 912d edbd d840 bc3c 307c 91bd e251 8fbd
000003a0: 34a5 a5bd 4cae 81bd 98aa 773d fb95 5cbd
000003b0: a54e c1bb 73b3 8abd b140 34bd dad9 adbd
000003c0: e817 d33b 1b6e d63c 19fe 8a3d bc51 4a3d
000003d0: 18c2 7cbc 0c27 16bd 3259 1dbd 40ba 2abd
000003e0: b98e cbbc 5fb3 efbc 1bd4 983c 8d5e 77bd
000003f0: 7442 70bb dcc4 6fbd a2d5 1fbd 9b84 73bc
0.064428 0.012045329 -0.01305934 0.09851836 -0.03340849 -4.137879e-05 -0.019286603 -0.0023423354
0.045628507 -0.030310579 0.026374381 0.0014777641 -0.009650398 -0.03656444 0.037435487 -0.07968247
0.039723773 0.047027074 0.06545773 0.034547485 0.029370949 -0.05397501 0.05472505 -0.13061312
-0.07144081 -0.020992855 -0.09749801 0.047476135 0.045474503 0.001472601 -0.04895847 -0.026868848
0.021820443 -0.020947564 -0.055132095 0.074808575 0.02255623 0.00074198144 -0.031858698 -0.009156584
-0.0043792506 0.0021773877 -0.11179282 0.040608462 -0.029481573 0.12512188 0.08081605 0.05293717
0.062182378 -0.012192737 0.051353365 -0.0047711236 -0.012730537 0.03373687 0.032510743 -0.091522075
-0.06488017 -0.037417237 -0.08624827 0.044520367 -0.09920495 -0.13534112 -0.04137515 -0.12567389
0.069319345 -0.00052737043 0.023842081 -0.07217069 -0.029790895 -0.05579462 0.0738231 0.082146615
0.021273812 0.072444975 0.018678412 -0.048910685 -0.018144168 0.029448133 -0.03630335 -0.012408304
0.005052428 -0.012926079 0.050725043 0.10119735 0.04694972 -0.13226208 -0.12191325 0.085414715
-0.12384446 0.016741673 -0.037669037 -0.018126428 0.02172651 -0.017543295 0.01334858 0.024069972
0.0476101 0.05188462 -0.021704238 -0.039529283 -0.029601399 -0.052286014 -0.14945257 0.052113716
0.064697936 -0.017268421 -0.0532752 0.0055416273 -0.0883092 0.024838697 0.022985565 0.05343502
-0.04918734 -0.115933254 0.04268426 0.04253696 -0.005579207 0.13026439 0.012060216 -0.009743899
0.01820725 -0.054325152 -0.056474026 -0.03399929 0.0819069 -0.05672553 0.09250801 0.047769412
-0.03030996 0.06249666 0.06741102 0.057440367 0.073995285 0.037477493 0.07969153 -0.003800693
0.035207245 0.007498252 0.08124307 -0.026674625 -0.024671106 0.109724455 0.0072132973 -0.03998642
0.025245238 -0.04321788 0.025103027 -0.07085312 0.016004805 0.016228018 -0.07675074 0.010188314
-0.003163476 0.0418027 -0.035296354 0.09555063 -0.014203185 -0.062859796 -0.005416047 0.0470679
-0.017132526 0.001577599 -0.046057787 -0.006016175 -0.04784615 -0.06880686 0.083280474 -0.02261889
0.06305326 0.029398091 -0.053591132 0.03133875 0.10017071 0.01779873 -0.04856044 0.049832083
0.054002345 0.0035843223 0.09018236 -0.06386667 0.082609594 -0.0697216 -0.069103666 0.02778485
0.08527132 -0.11755431 -0.012886426 -0.098013476 0.028052567 0.008010238 -0.046820104 0.0058808085
0.113973476 0.08136998 -0.1152819 -0.01102895 0.04078784 0.015717778 -0.07079209 -0.07208509
-0.024718782 -0.04413269 -0.050402965 0.021108622 -0.03214841 0.03587568 -0.0030089396 -0.013331822
-0.03027534 -0.0074104117 -0.059382282 0.059711184 -0.030939154 0.029813219 -0.06434948 -0.06619081
-0.006726288 -0.05250268 0.079530746 -0.072730534 0.03659409 0.0580786 -0.023088474 0.017907754
-0.0067575285 0.033306293 -0.012668524 -0.06985841 -0.11580957 0.022980139 -0.07103765 -0.0699804
-0.080881506 -0.063320726 0.060465425 -0.05385397 -0.0058992677 -0.067725085 -0.044007007 -0.084888175
0.006442059 0.02617555 0.067867465 0.049394354 -0.015427135 -0.03665833 -0.03841514 -0.041681528
-0.024848329 -0.029260335 0.018655827 -0.060392905 -0.0036660703 -0.05853735 -0.039022096 -0.014863159

backbone.8.bias f4 [64]
00000000: 7683 7334 0808 0634 e164 88b4 9fe9 5f34
00000010: 7651 ac32 cc1f be34 cbd6 ac33 e729 2c33
00000020: a8bc 4b35 0f85 58b5 11e6 a233 4b82 a2b4
00000030: b478 bc34 b5ff 0bb5 4347 ab34 50a2 d534
00000040: 8830 e233 c118 38b5 aced bf34 281a 8234
00000050: 8525 88b4 4ba3 cf33 ddb8 6db4 5fb4 a6b1
00000060: a811 dd33 f7bd 0534 bb35 a834 1b7a 07b4
00000070: 924a f334 8ba6 adb3 e1e6 4a33 2364 84b3
00000080: 67d9 97b3 e6d1 a7b4 8762 0cb5 cc8f 0a34
00000090: bb61 d033 cc31 1034 7f93 1fb5 ed69 e834
000000a0: bc09 8db4 2acf 9334 4011 43b2 88d8 c9b5
000000b0: b87a 1034 3b71 ad33 1281 8035 bf83 0334
000000c0: 81fa 4e34 5cc0 37b5 9bed 6133 c924 cc31
000000d0: e89c 9132 3350 b534 a2d9 9eb2 c32b 4633
000000e0: a458 4b34 08f3 cfb3 4164 f532 c7de 05b3
000000f0: c0dd 1c34 82e4 e434 cbab 0ab4 b274 0e34
2.2678964e-07 1.2482644e-07 -2.5405373e-07 2.0853484e-07 2.006048e-08 3.5413393e-07 8.048445e-08 4.008498e-08
7.5897924e-07 -8.0659896e-07 7.585562e-08 -3.0269652e-07 3.5105552e-07 -5.215364e-07 3.1903082e-07 3.979244e-07
1.0532773e-07 -6.8581363e-07 3.574945e-07 2.4233418e-07 -2.5359273e-07 9.6688915e-08 -2.2139598e-07 -4.8517417e-09
1.0294326e-07 1.2455699e-07 3.1331533e-07 -1.2617276e-07 4.5316534e-07 -8.086234e-08 4.7241773e-08 -6.164944e-08
-7.071031e-08 -3.1258895e-07 -5.229744e-07 1.2904565e-07 9.703532e-08 1.3429161e-07 -5.944675e-07 4.329044e-07
-2.627038e-07 2.7531615e-07 -1.1354416e-08 -1.5038686e-06 1.345569e-07 8.076537e-08 9.574308e-07 1.2248255e-07
1.9276378e-07 -6.845273e-07 5.2602996e-08 5.9413634e-09 1.6951574e-08 3.377223e-07 -1.8492589e-08 4.614027e-08
1.8938096e-07 -9.683396e-08 2.8567344e-08 -3.116909e-08 1.4609304e-07 4.263457e-07 -1.291475e-07 1.3267234e-07

backbone.9.weight f4 [64]
00000000: 3b64 7d3f 6618 7f3f 4c70 773f ff53 7d3f
00000010: 4795 793f 8d20 7a3f 1e0c 7a3f b8ff 7f3f
00000020: 2742 853f a5ea 7a3f 072c 7b3f f906 803f
00000030: 1d35 813f dad4 823f 8846 813f 2480 7f3f
00000040: f818 7a3f 2824 803f ec45 803f d6f8 7a3f
00000050: 576e 763f b784 753f e595 803f 0b7f 783f
00000060: 8a9e 7b3f 9fc7 743f 6119 7a3f a21f 803f
00000070: 2407 7f3f 80fa 7d3f e45c 7f3f f260 803f
00000080: 8cf8 763f 18d9 803f ed85 7b3f a7f8 7c3f
00000090: acfe 773f 66e6 783f 02b9 843f 6e34 7c3f
000000a0: 9fa7 7e3f cc32 823f 43f0 803f 90a8 823f
000000b0: b8b7 813f a549 803f 479d 833f 3098 813f
000000c0: 9001 783f bab5 813f cb27 763f 9f0f 7e3f
000000d0: 4ab0 7b3f dec1 7d3f 09fc 753f 8749 843f
000000e0: 9af8 7b3f f5a1 7b3f 7495 7f3f 22ac 803f
000000f0: ab63 7f3f 9ed9 783f 8b2d 813f b94d 7c3f
0.98981065 0.99646604 0.96655726 0.9895629 0.97493404 0.9770592 0.9767474 0.9999957
1.0410813 0.9801429 0.98114055 1.0002128 1.0094334 1.0221207 1.009965 0.998049
0.9769435 1.0011034 1.0021338 0.98035944 0.96262115 0.9590563 1.0045744 0.9706885
0.98288786 0.956171 0.97694975 1.0009654 0.9962027 0.9921036 0.99751115 1.0029585
0.96473 1.0066252 0.9825123 0.98816913 0.96872973 0.9722656 1.036896 0.985175
0.9947452 1.0171752 1.0073322 1.0207691 1.0134192 1.0022475 1.0282372 1.0124569
0.96877384 1.0133584 0.9615447 0.99242586 0.9831587 0.9912394 0.960877 1.0334939
0.9842621 0.98294 0.9983742 1.0052531 0.99761456 0.9720706 1.0092024 0.98556095

backbone.9.bias f4 [64]
00000000: 446a cbbb 528d ac3b 8658 d3bc 520b ae3b
00000010: 18c1 63bc 82b9 4fbc 68d3 60bb 4c1f 4bbc
00000020: 96a4 03bc 9b33 efbc 3540 3f3c d969 4c3b
00000030: b230 feba 7eaa 17bb 7778 933c 2993 6bbc
00000040: 2e20 283c 83ca 59bc a110 d33a 183a fcbb
00000050: 375f e3bc 62d6 9a3a 11ad 99bc 1236 c1bc
00000060: 190d b0bc 4089 4ebc 9dd3 babb 897e 08bd
00000070: e8d3 6fbc 8ec2 513b 598f 8abc b96f 8c3c
00000080: f638 8ebc 1f1a 1abb 41b1 c2bc fbb2 b1bb
00000090: 3f36 d6bc f63c aebc 29ed df3b c38a 48bc
000000a0: 48b1 0ebc 7847 36bd 0362 773b 3fbb 36bc
000000b0: f1cc 0dbc 5015 bf3b 8c4a c3bc 2606 babb
000000c0: c829 4bbc f14b 623c e651 c8bb 58e8 5ebc
000000d0: 7f4d ddbc 4da4 82bc 2f86 d9bc ea7c d33c
000000e0: 5a63 44bb 5c47 9ebb 290f c7bc ad32 d5ba
000000f0: 1490 43bb 9611 ec3b 845f cfba 0047 8d39
-0.006207736 0.00526587 -0.025799047 0.005311408 -0.013901018 -0.012678506 -0.0034305695 -0.0123975985
-0.008034846 -0.029199412 0.011673023 0.003119102 -0.0019393174 -0.0023142393 0.018001778 -0.014378347
0.0102615785 -0.013292911 0.0016102978 -0.007697355 -0.027755363 0.0011813159 -0.018759282 -0.023585353
-0.02149062 -0.012605965 -0.005701496 -0.0333238 -0.014637925 0.0032006833 -0.016914057 0.017143117
-0.017361145 -0.0023514105 -0.023766162 -0.0054229475 -0.026148913 -0.021269303 0.0068336916 -0.012240115
-0.008709259 -0.04450175 0.0037747629 -0.011153041 -0.008654819 0.005831398 -0.023839258 -0.0056770025
-0.012400098 0.013812051 -0.0061132787 -0.0136052 -0.027014492 -0.015947485 -0.026553242 0.0258164
-0.0029966445 -0.004830284 -0.024299221 -0.0016265713 -0.0029840516 0.007204245 -0.0015821313 0.00026946515

backbone.9.running_mean f4 [64]
00000000: b8b4 53bf 1d0b 18bf a3ff b73d d180 46bf
00000010: 92d9 bfbe a889 5fbf 5cdc 0fbf 800f 9fbf
00000020: eb9f 86bf 5bb3 3e3e 844b 4b3e 7435 dcbe
00000030: 491d 63bf 4a22 3ebf 4a8e 1abf 01df 31bf
00000040: 9610 96bf e110 67be e1ce e6bd 6e83 1abf
00000050: afe3 33bf dd12 a2bf 56ce 79be 6581 1dbf
00000060: 6c4c 1abf 1107 a43d 3660 a4bd 4389 d1be
00000070: ab3c 95be b165 77bf 0009 a8bf 49f3 a5be
00000080: 9a72 753e cf58 f9be abd9 a4be bf36 bfbd
00000090: 867b d43e 38fd b3be 92bf 823d cf6a 82be
000000a0: 7bd5 ae3e 09f6 19be bc88 d1be f2e4 973c
000000b0: 8183 ab3d 5414 8cbe 9086 63bf c70d b2be
000000c0: 3c19 02bf 7f53 6cbe de02 6fbf 1297 86bf
000000d0: 2f9a 833e 7417 77bf 69f5 96be a78c 573e
000000e0: a57e 1e3f 9b48 513f a855 3b3d be78 57be
000000f0: 4e80 92bf 2440 5f3e 8883 4bbf 765d 96bf
-0.8269763 -0.5939196 0.08984306 -0.7754031 -0.3747068 -0.8731942 -0.56195617 -1.2426605
-1.0517553 0.18623106 0.19853026 -0.43009531 -0.8871656 -0.7427107 -0.60373366 -0.694809
-1.1723812 -0.22565033 -0.11269928 -0.60356796 -0.7026929 -1.2662007 -0.24395117 -0.61525565
-0.6027286 0.0800916 -0.08026163 -0.40925035 -0.29147848 -0.96639544 -1.3127747 -0.32412174
0.23969498 -0.48700568 -0.32197317 -0.09336614 0.4150049 -0.35154128 0.063841954 -0.25472113
0.34147248 -0.15035261 -0.40924633 0.018541787 0.08374692 -0.2735926 -0.888772 -0.34776136
-0.50819755 -0.23078726 -0.9336375 -1.0514853 0.2570357 -0.9652016 -0.29484108 0.21049748
0.61911994 0.8175141 0.045735985 -0.21042153 -1.1445405 0.21801811 -0.79497576 -1.1747272

backbone.9.running_var f4 [64]
00000000: e03a 113f 5def 8c3f 1bc5 233f 495e bc3e
00000010: b6e5 5c3f 38fd 7e3f 6fef 213f 2630 4a3f
00000020: fb59 f13e b872 0a3f 097f 093f 44b7 e93e
00000030: b054 1c3f 49c9 df3e eda0 393f 15bc 3c3f
00000040: a358 083f 42e3 b03e 6020 b43e 43a3 0d3f
00000050: 8b4d f03e 2487 3e3f 3fd8 b63e 7f86 253f
00000060: 708b 003f 9697 7c3f 8274 aa3e 8012 903e
00000070: ebeb 0a3f 624d 203f a556 2a3f 6ff1 e73e
00000080: 49df 633f 3e31 fd3e bb79 323f 942b cb3f
00000090: a892 bb3f 03e8 643f 73fa e13e 1d0d b23e
000000a0: 34c5 9a3f f531 013f a65e 373f d4f9 cb3e
000000b0: d4b5 d33e fbb2 ae3e 9b44 d73e a981 dd3e
000000c0: 9cd9 1b3f 3d94 f43e 1753 423f e95b c73e
000000d0: d013 d23e 895f 8e3e 2b9f 7d3f af64 003f
000000e0: d0ba 353f 0dcf 8e3f 1e17 243f 3368 fb3e
000000f0: f6d4 873f aee2 dc3e d644 b23f 3715 b93f
0.5673046 1.1010548 0.63972634 0.36790684 0.8628801 0.9960513 0.6325597 0.7897972
0.47138962 0.54081297 0.53709465 0.45647633 0.6106672 0.43708256 0.7251118 0.7372449
0.5326025 0.34548384 0.3518095 0.5532724 0.4693416 0.7442496 0.35711858 0.6465835
0.50212765 0.986688 0.33292013 0.28139114 0.5426623 0.62618077 0.6653846 0.45301387
0.8901258 0.4945163 0.69716996 1.5872674 1.4654131 0.8941652 0.4413639 0.3477563
1.2091432 0.50466853 0.716288 0.3983904 0.4134966 0.34120926 0.4204453 0.43262985
0.6087892 0.47769347 0.75908035 0.3893731 0.4103074 0.27807263 0.99070996 0.5015363
0.7098818 1.1156937 0.64097774 0.49102935 1.0611866 0.43141693 1.3927257 1.4459599

backbone.12.weight f4 [128, 64, 3, 3]
00000000: b24a 75bb c16d 013d 4b2d a53b 3c1e 2d3d
00000010: 2c57 9c3c b74e f13b f117 453b 10be a9bd
00000020: 4d71 c7bc ffbe e3bb 6dfc f13d d4e6 9c3c
00000030: 1663 48bd 24b5 20bc d128 f8ba 4802 eabb
00000040: b2da 32bc 463f 873c 1188 47bc 9498 3dbd
00000050: 73f8 8c3d 0d8d 09bd 8c22 e43c 93c4 29bc
00000060: e039 c8bc 2b6e 753d a295 9cb9 90c3 363c
00000070: 451d 603b 8e3f 1dbd debb 413c a198 01bd
00000080: 7fb7 bb3d 6bf8 89bd 75d9 0d3c 1559 0cbc
00000090: e721 91bc 6653 c63a 700f 2a3c cb43 c2bc
000000a0: 781d 62bd 86da 51bd bf8e 7cbc 21ed 1ebc
000000b0: 149a d8bc cf3c e53c 8c76 9a3c ee7a a53d
000000c0: cc5b a4bd 2202 68bd 0578 6abc fad2 c6bd
000000d0: 691c 8bbd 6b1d 59bd 5170 41bd 2414 b23c
000000e0: a3df 5a3d 7311 b83c 5658 a23b 30fe 45bd
000000f0: 4361 2f3d b85e 893a e60b 09bd 034a 86bd
00000100: d202 0bbd 63d1 603d 35ec e33c fe32 19bd
00000110: 8c80 d8bc 4d91 5fbd dc4d 813d 274a 193c
00000120: 7dcc e53d 86ef 973d d92f 9a3c 3c9c 55bc
00000130: 6ab6 b6bd c0c1 e2bd 503d c0bb e498 87bd
00000140: 324f 91bc 8914 903c 4056 02bd e108 65bc
00000150: 2647 85ba 8aef 3c3c c5d4 92bb 48c7 153d
00000160: 183e 7ebd 943b b53c 4fdb 7cbb 5095 a03d
00000170: 4d3a 0c3c 6d2b 843c a15c 11bd 2476 36bd
00000180: b567 67bc b05f 44bc 58a6 6e3d 8dfa 12bc
00000190: 1801 603d f1ff 0abd f2d0 0f3d 6941 4a3d
000001a0: 2e67 6c3d 388b 36bd 90ec 2b3c f999 e03d
000001b0: 2b65 95bc c76e 4b3c 27dd e2bc cb00 3c3c
000001c0: 0202 2cbd 8c65 f43c cb14 3ebd b17d 9e3c
000001d0: c8fa 463d 95b0 303c c585 72bd 056a e0bb
000001e0: 4310 853b 9f30 253b 8651 0bbc f3b5 da3b
000001f0: 3c71 8bbc f9b4 0ebe 1cdf d1bb 3e31 debc
00000200: addb 033d 7734 663d d679 43bd 3d97 27bd
00000210: 2f8b 35bd 8b12 4dbd 6921 953c 3961 dd3a
00000220: a377 45bd 143f 54bd 3cfa 54bd d2c5 bcbc
00000230: 42ab 173d d7f1 75bd 1f1a 503d 10af b3bb
00000240: b8ad fabb 36c9 5e3d 7ea6 413d e554 eabc
00000250: 856c 89bd f330 f13c c05f b73d 30e7 56bd
00000260: 788a 223d 76dd 3fbd 1efd fe3b 49ca 453d
00000270: ff85 15bd bc9c 9dbd e6d7 a4bc 5fd0 ffbb
00000280: c6b2 b5bd 0e0f e9bc a485 e6bc be8b 11bc
00000290: 9ced 9a3b 7f49 a8bd 21d5 e2bb a41a a8bd
000002a0: 0dc2 c9bd 33a9 a63b 157b 3f3c 31ef d93c
000002b0: 9b83 90bc 1e6f 01bd a724 093d 8666 c9ba
000002c0: b22f 0d3c 17fa 953d 6bb0 233c 2ece 2b3d
000002d0: b946 c939 cb9d 213d 92cc bdbc 40a8 b9bc
000002e0: f62b 853c c2eb 2e3d 366f 493d 0bfc d5bb
000002f0: d572 5e3a 6ce8 92bc 1189 d4bc 392b 9e3c
00000300: ff29 87bd 9718 3fbd 2d96 bd3d 792a 7d3c
00000310: 2d63 c1ba 1296 70bd 718e fdbc d55a 383d
00000320: 3a45 d63b 015a c0bd cc40 9abc 8d63 bc3b
00000330: b214 2f3c d397 aa3c 6246 183d e506 47bd
00000340: f25c 73bc a0fc 273d f0ce 4b3d 4766 6fbc
00000350: 2eb2 0cbd 28c4 08bb 38c6 33ba b452 5ebd
00000360: 7278 3f3c c7d4 80bc 68a4 e6bc 768a cdbd
00000370: 8e56 c2bc e7be 993c 463c 153d 902f 1dbd
00000380: 9b4d e9bc ed9b f1bc bc92 c43b 7ac6 a43b
00000390: e459 613d 5d72 c73c b558 e7bb a5cd 133d
000003a0: 2191 45bd 0f48 62bb 2a68 ac3d 34ec 2f3d
000003b0: b974 2c3d df51 3fbc 4f0b 8c3c 7c8a 05bd
000003c0: a9d5 8bbc d5b9 65bd ab7a c23c a00d ce3c
000003d0: 1cf6 103d 7ac5 d03b 8642 2ab9 44c2 c5bb
000003e0: f8ce 0e3c 4482 0d3c c9e3 053d 0dc2 943c
000003f0: 1218 4f3b 077c 88bd ce2f c4bd 2775 d0bb
-0.0037428555 0.03159881 0.0050407997 0.042265162 0.019084536 0.00736412 0.0030074085 -0.08288205
-0.024346018 -0.0069502587 0.118157245 0.019153036 -0.04892262 -0.009808812 -0.0018933063 -0.007141385
-0.010916399 0.016509663 -0.012178437 -0.046288088 0.068833254 -0.033581782 0.027848504 -0.010361808
-0.02444166 0.059919517 -0.00029866124 0.011155024 0.0034197134 -0.03839069 0.011824576 -0.0316397
0.091658585 -0.06736835 0.008657803 -0.008566161 -0.017716361 0.0015131056 0.010379657 -0.023713967
-0.055203885 -0.05123379 -0.015414893 -0.009700091 -0.026440658 0.027983097 0.018855356 0.080800876
-0.08025321 -0.05664266 -0.014310841 -0.09708209 -0.06792528 -0.05300657 -0.047226254 0.02173812
0.053435933 0.022469258 0.004954378 -0.048338115 0.042817365 0.0010480499 -0.033458613 -0.06557085
-0.033938237 0.054887187 0.027822593 -0.037402146 -0.026428483 -0.05458193 0.063136786 0.009356058
0.11220644 0.07418732 0.018821644 -0.013037737 -0.089215115 -0.11072111 -0.005866684 -0.066209584
-0.017737959 0.017587917 -0.031820536 -0.013979168 -0.0010168299 0.01153172 -0.0044809305 0.036567003
-0.062070936 0.022123136 -0.0038582867 0.07840979 0.008558822 0.016133988 -0.03548873 -0.04454626
-0.014123847 -0.011985704 0.058264107 -0.008970869 0.054688543 -0.03393549 0.035111375 0.049378786
0.057715587 -0.044566363 0.010493413 0.10966868 -0.018236717 0.012416548 -0.027693344 0.011474798
-0.041994102 0.029833578 -0.04640655 0.019347044 0.048579007 0.010784288 -0.059209604 -0.006848576
0.0040607764 0.0025205982 -0.008503323 0.006674522 -0.017021768 -0.13936223 -0.0064047705 -0.02712309
0.03219192 0.056202378 -0.047723614 -0.040915716 -0.04432219 -0.050066512 0.018204408 0.0016889937
-0.048209798 -0.05181797 -0.051996455 -0.023043547 0.03702856 -0.06004509 0.05080616 -0.0054835156
-0.0076501034 0.05439111 0.04727792 -0.028604934 -0.067101516 0.029442286 0.0895381 -0.05246657
0.039682835 -0.04684206 0.0077816388 0.048288617 -0.03650474 -0.0769591 -0.02012248 -0.007806822
-0.08871989 -0.028449561 -0.028139897 -0.008883415 0.0047280323 -0.08217143 -0.0069223796 -0.08208206
-0.098514654 0.005086088 0.01168706 0.026603313 -0.01764088 -0.03160011 0.03348222 -0.0015365637
0.0086173285 0.073230915 0.009990792 0.041944675 0.000383904 0.039457124 -0.023168836 -0.022663236
0.016256314 0.042705305 0.049178325 -0.00653029 0.0008485739 -0.017933093 -0.025944265 0.01930772
-0.06599807 -0.04665431 0.092571594 0.015452021 -0.0014754288 -0.05873687 -0.03095171 0.0450085
0.006539014 -0.09392167 -0.018829726 0.005749172 0.0106860865 0.020824349 0.037176497 -0.04859056
-0.014853703 0.041012406 0.049757898 -0.014611787 -0.034349613 -0.0020868871 -0.0006857845 -0.05427809
0.011686431 -0.01572646 -0.028154567 -0.10036175 -0.023722913 0.018767787 0.036434434 -0.038375437
-0.028479388 -0.029493297 0.0059989374 0.005028543 0.055017367 0.024346525 -0.0070601352 0.03608479
-0.04823411 -0.0034527814 0.08418305 0.04294987 0.042103503 -0.011677234 0.017095236 -0.032602772
-0.017069655 -0.056085426 0.023740133 0.025152981 0.03539096 0.0063711973 -0.00016237245 -0.006035121
0.008716337 0.008637015 0.032687936 0.018158937 0.003160004 -0.06664281 -0.095794305 -0.006361622

backbone.12.bias f4 [128]
00000000: 6930 6db4 2e7e 85b1 51e3 0f33 4014 4eb2
00000010: 59be c0b2 47b5 61b4 9f02 62ae f50d a8b2
00000020: a320 aab4 412c 3e33 e7f6 2133 e57b 43b3
00000030: 4cd8 f231 8346 3634 e875 6ab0 1194 3b34
00000040: fc74 b3b3 845e 8731 98a6 0234 cb55 15b4
00000050: ae1a a4b3 67a4 8533 b37b 22b3 c1b0 4fb3
00000060: df27 6634 4b34 2734 5a7a 69b3 e79f c233
00000070: f91e efb2 27df 30b3 c46b 5ab2 397b b634
00000080: 6783 feb4 e025 eab1 2bab da32 b4c9 aa34
00000090: b936 aeb3 c020 5cb3 115f a433 8582 2d34
000000a0: 51c8 9133 399c 86b3 0c4a 54b2 83f9 17b3
000000b0: 6fc7 67b3 5154 e633 be8f ddb3 6965 bbb0
000000c0: db08 25b4 d2e5 92b2 c3a4 01b3 3e2e 88b4
000000d0: 4c55 1fb4 c242 a733 5591 6834 bc88 3533
000000e0: dde5 57b3 422f ca33 6d4f d8b2 9fb7 26b2
000000f0: 4ca2 bbb3 acb3 f732 c3a0 cab3 bcbc 10b3
00000100: a4b6 93b4 88d3 0d33 ac6e 7f33 8d1e 9ab2
00000110: 303b 47b2 8d05 40b3 b3b5 6233 a7d2 20b4
00000120: b3ab 57b3 4336 4534 1257 51b4 c823 6534
00000130: d6cc 4db2 f7df 2cb3 0af6 4632 6fb6 d3b2
00000140: 05ee c533 843b 5534 81ee e734 fadf d6b3
00000150: 0d04 ce32 7c14 96b2 63fb 1630 fed8 02b4
00000160: accd 41b4 2403 3bb3 3a95 9633 5925 85b2
00000170: 4ba7 8bb1 a57a afb3 8aa2 84b4 d12c aeb3
00000180: 4412 49b4 b3b7 9ab3 2a56 c9b2 0541 d932
00000190: e01e 6ab2 9029 9434 20d9 dab2 f037 0934
000001a0: fd57 94b3 374a 87b3 f186 7a34 ae86 84b1
000001b0: 89e0 84b3 57ee 3eb4 a486 0db3 d622 9ab3
000001c0: 0947 c5b4 8ed7 4db3 8aac f730 7517 fcb3
000001d0: 20d3 11b4 0f5e 0cb1 b570 c833 9bfa 9b34
000001e0: dad1 f833 3771 1ab4 15f9 9db2 ce64 ceb4
000001f0: a535 82b4 c7b9 3cb4 f834 5234 167a 6734
-2.2089957e-07 -3.8851544e-09 3.3501525e-08 -1.19953825e-08 -2.2438302e-08 -2.1020706e-07 -5.138878e-11 -1.9564121e-08
-3.1688714e-07 4.427807e-08 3.771029e-08 -4.5514657e-08 7.067717e-09 1.6975723e-07 -8.529626e-10 1.7469598e-07
-8.3566164e-08 3.9397623e-09 1.21678e-07 -1.3907918e-07 -7.641698e-08 6.2232e-08 -3.7831068e-08 -4.83567e-08
2.1434924e-07 1.5572111e-07 -5.4360818e-08 9.062915e-08 -2.7837347e-08 -4.118115e-08 -1.2713773e-08 3.3989798e-07
-4.7406795e-07 -6.814602e-09 2.5456378e-08 3.1811726e-07 -8.1124604e-08 -5.1252528e-08 7.6541376e-08 1.6159363e-07
6.788526e-08 -6.268278e-08 -1.235686e-08 -3.5384357e-08 -5.3965262e-08 1.0725547e-07 -1.0317261e-07 -1.3634863e-09
-1.5370044e-07 -1.7101147e-08 -3.0185003e-08 -2.536562e-07 -1.483906e-07 7.788687e-08 2.1659555e-07 4.2266706e-08
-5.0267648e-08 9.414954e-08 -2.5181828e-08 -9.704222e-09 -8.737388e-08 2.883629e-08 -9.4356004e-08 -3.3699266e-08
-2.7513772e-07 3.3021507e-08 5.947247e-08 -1.7941852e-08 -1.1596782e-08 -4.4708532e-08 5.278498e-08 -1.4977796e-07
-5.0214748e-08 1.8366795e-07 -1.9496318e-07 2.1340304e-07 -1.1979145e-08 -4.0250566e-08 1.158106e-08 -2.4646594e-08
9.216823e-08 1.9858822e-07 4.3200637e-07 -1.0005893e-07 2.3983398e-08 -1.7471613e-08 5.4926924e-10 -1.2186135e-07
-1.8049349e-07 -4.3542187e-08 7.0120635e-08 -1.5500222e-08 -4.0644514e-09 -8.1713814e-08 -2.470518e-07 -8.1106585e-08
-1.8726229e-07 -7.2045985e-08 -2.3438663e-08 2.5291692e-08 -1.3627613e-08 2.759739e-07 -2.5477277e-08 1.2779469e-07
-6.907792e-08 -6.299927e-08 2.3332156e-07 -3.857017e-09 -6.187572e-08 -1.7781836e-07 -3.2951576e-08 -7.1775204e-08
-3.6745794e-07 -4.7926328e-08 1.8020654e-09 -1.1738931e-07 -1.3580984e-07 -2.0426147e-09 9.333727e-08 2.905334e-07
1.1586572e-07 -1.4383555e-07 -1.8390475e-08 -3.8443835e-07 -2.4253418e-07 -1.757645e-07 1.9577044e-07 2.1557966e-07

backbone.13.weight f4 [128]
00000000: da35 823f c382 7f3f ab1d 823f cf50 823f
00000010: eb84 823f 66c2 823f 0f44 863f 16e0 803f
00000020: 919c 813f aa6c 813f 4f33 7e3f 7e1d 833f
00000030: a738 803f 53eb 823f 2575 823f fc6d 803f
00000040: 0b72 803f 9c46 813f 4a41 823f 19e1 843f
00000050: 2283 833f 5676 803f 02a4 843f fa6e 7f3f
00000060: 9104 833f 839d 823f 4fe1 813f 14f9 833f
00000070: 282b 833f 7b72 7f3f 03f2 843f 05ea 823f
00000080: fe5f 863f e770 813f f3b6 833f 92d3 813f
00000090: b9e3 823f c47e 813f 126f 813f c8dc 803f
000000a0: 3ff5 823f 6111 813f 0132 823f 9834 833f
000000b0: ec37 843f 374d 823f ca53 853f 6061 823f
000000c0: 2698 843f ea7a 803f e07c 853f c37c 813f
000000d0: 58cb 833f 9ba0 813f 6112 873f d6f5 813f
000000e0: 08ea 823f 02bc 813f 8fbf 803f 0c03 813f
000000f0: 51b9 813f db3f 803f 5fa2 813f ac5b 813f
00000100: 0b5b 813f 038f 813f 75f2 7f3f 9c61 7f3f
00000110: 4f21 803f 5922 843f 8581 813f 12a7 813f
00000120: 90dd 813f 531c 833f cc04 813f 3393 833f
00000130: 76f6 823f 4957 813f 31ea 793f f539 803f
00000140: 3dc9 823f bc27 813f a01d 823f 6f29 803f
00000150: d0b0 7e3f 0ebf 813f 824d 803f 6e91 833f
00000160: d20d 843f be55 813f 2e24 813f e973 813f
00000170: 94cf 823f 90ef 803f 5f86 803f 3106 823f
00000180: e7cb 833f 264b 833f 92f3 7f3f 789b 833f
00000190: 3b5f 813f 6f40 833f 48e8 813f be20 823f
000001a0: f147 813f 7658 813f 0a8e 843f 9acf 7d3f
000001b0: 5b41 813f e4dd 813f e2a8 813f 9c33 803f
000001c0: 944c 823f 2df4 7f3f 80de 803f 330d 843f
000001d0: 251c 823f a34e 7f3f d90a 833f 8929 8a3f
000001e0: e4fb 813f 47c9 803f ef47 7e3f c4cc 823f
000001f0: 7b87 843f 6b4d 823f f879 833f 1945 813f
1.0172684 0.998089 1.0165304 1.0180911 1.0196813 1.0215576 1.048952 1.0068386
1.0125905 1.0111287 0.9929704 1.0243375 1.0017289 1.0228065 1.0192 1.0033565
1.0034803 1.0099673 1.0176175 1.0381194 1.0274394 1.0036113 1.0362551 0.9977871
1.0235769 1.0204319 1.0146884 1.0310388 1.0247545 0.9978406 1.0386356 1.0227667
1.0498044 1.011258 1.0290207 1.0142691 1.0225745 1.0116811 1.0112021 1.0067377
1.0231093 1.0083429 1.017151 1.0250425 1.0329566 1.0179814 1.0416195 1.0185966
1.0358932 1.003751 1.0428734 1.0116199 1.029643 1.0127138 1.0552484 1.0153148
1.0227671 1.01355 1.0058459 1.0079055 1.0134679 1.0019487 1.0127677 1.0106101
1.0105909 1.0121769 0.99979335 0.99758315 1.0010165 1.0322982 1.0117651 1.0129111
1.014574 1.0243019 1.0079589 1.0279297 1.0231464 1.0104762 0.9762297 1.0017687
1.0217663 1.0090251 1.0165291 1.0012645 0.99488544 1.013643 1.0023654 1.0278757
1.0316718 1.0104291 1.0089166 1.0113498 1.0219598 1.0073109 1.0041007 1.015814
1.0296601 1.0257308 0.99981034 1.028182 1.0107187 1.0254039 1.0149012 1.0166242
1.010008 1.0105121 1.0355847 0.991449 1.009807 1.0145841 1.0129664 1.001575
1.017962 0.9998196 1.0067902 1.0316528 1.0164839 0.99729365 1.0237685 1.0793926
1.0154996 1.0061425 0.9932851 1.021874 1.0353845 1.0179876 1.0271597 1.0099212

backbone.13.bias f4 [128]
00000000: 5d0d 423c 7293 1abb bbae b53b 125f 323b
00000010: a33e 383b 58eb 813c 9e55 123c 62d6 07ba
00000020: 9f1a 143c d8c0 383c 8188 fabb 980a 0b3b
00000030: 11b8 38bb 26f8 aa3b 69da 3c3c 887d 62ba
00000040: 1243 d33b cb31 7f3b 673e 093b abd4 163c
00000050: ae27 933c f83a 233c 999b 023d d6c7 2bbb
00000060: 6148 af3b db45 963a 5731 dd3b 7f8c 833c
00000070: a937 c13c ac3c 303c 171a 753c ef56 5fba
00000080: 8ecf 023d b06f 48ba 8c0c 0e3c c507 b73b
00000090: f6e3 173c d121 1b3c 8f77 853b d839 173a
000000a0: 4263 1e3c af99 193c 926c ff3b 505b 353b
000000b0: e0f4 743c b3bc a7bb 773c 053d e719 9139
000000c0: 41e4 8d3c 4ec1 123b 7de2 6f3b b891 253c
000000d0: cf34 c83c e108 1739 50c2 41bc ca6c 0abb
000000e0: e96c 463c 85de 0f3b 8bf5 ae3b d70c b73b
000000f0: a042 213c a0f6 1d37 ca0f 2c3c e9b8 f239
00000100: 83f4 a13b c678 723b 0413 45bc 19eb 0bbb
00000110: 3b51 933b 38b1 e63c 028f d7bb 8df9 0b3c
00000120: 7cae 1f3c 8ac1 30bc e0e7 3f3b a294 de3b
00000130: 0307 c03c d24f 853c 4a30 09bb 16b2 06ba
00000140: 6d69 013c 487c fc3a 7a74 7aba 72d3 c93b
00000150: cee5 4dbc 4b37 a33c f62e a3bb 8443 a33c
00000160: e28a 093c 592a 3a3c 8a1a d73a fff8 f33a
00000170: 0b8a 463c da79 fa3b 5297 02bb 169b 0a3c
00000180: 9d6b b33c 23b0 a83c a27f d1bb 0d39 603c
00000190: 7919 fa3b 9e1e 233b df58 293c eb13 393c
000001a0: 758f 1d3c 2264 2c3c b553 af3a 1a0f 1a3b
000001b0: 142e 383b 7c8e 88bb c418 ba3b 57ac ea3b
000001c0: 37cd 3f3c 9d59 49bb dd95 073a 076c 67bc
000001d0: de2c 8f3c b282 8ebc 895a d23b af39 4abb
000001e0: 2db4 173c 5531 923b ca89 123a e073 cc3b
000001f0: 2f06 a03c 54c8 9f3c 304b ffbb 434c 65ba
0.011844006 -0.002358642 0.005544511 0.002721731 0.0028113506 0.015859291 0.008931546 -0.0005181787
0.00903955 0.011276446 -0.007645667 0.002121603 -0.0028185884 0.00521757 0.011526682 -0.00086399214
0.0064472044 0.003893959 0.0020941736 0.009205977 0.017963257 0.00996279 0.03188667 -0.002621164
0.0053492044 0.001146491 0.0067502665 0.016058205 0.023586111 0.010756653 0.014959834 -0.0008519729
0.03193622 -0.0007646037 0.008669984 0.005585643 0.009270659 0.009468512 0.0040730904 0.0005768812
0.00966722 0.00937502 0.007794925 0.0027672835 0.014950961 -0.0051189302 0.032528367 0.00027675854
0.017320754 0.002239305 0.0036603503 0.010105543 0.024439244 0.0001440379 -0.011826113 -0.0021121972
0.012110927 0.00219527 0.0053393296 0.0055862474 0.009842545 9.415351e-06 0.010501811 0.00046295606
0.004942478 0.0036998256 -0.012028459 -0.0021349846 0.0044957674 0.028160676 -0.006578327 0.008543384
0.00974619 -0.010788331 0.0029282495 0.0067926208 0.023440843 0.016273413 -0.0020933324 -0.0005138231
0.007898671 0.0019263113 -0.00095540995 0.0061592394 -0.012566997 0.019923827 -0.0049799634 0.019929655
0.008394929 0.0113626355 0.0016411107 0.0018613635 0.012117873 0.0076439204 -0.001992662 0.008459827
0.0219019 0.020591801 -0.006393389 0.013685477 0.007632431 0.0024890075 0.01033613 0.011296253
0.009616722 0.01052192 0.0013376387 0.0023507536 0.0028103637 -0.004167376 0.005679222 0.007161658
0.011706642 -0.003072358 0.00051721727 -0.014124877 0.017477449 -0.017396305 0.006419484 -0.0030857136
0.009259266 0.0044614472 0.000558999 0.0062393993 0.019534199 0.019504704 -0.0077909455 -0.00087470206
