models/osu_model_temp.pth (torch, 438861 bytes, 28 tensors)

backbone.0.weight f4 [16, 3, 3, 3]
0	0xbdb98815	-0.09059159
1	0x3e05a06a	0.13049474
2	0xbe6b384d	-0.22970696
3	0xbdf3e169	-0.11908228
4	0xbd4500eb	-0.04809658
5	0x3e184e02	0.14873508
6	0x3cb49bbc	0.022046916
7	0xbe467a68	-0.19382632
8	0x3d88e946	0.066851184
9	0xbda8567e	-0.08219622
10	0xbd8cef8e	-0.06881629
11	0x3dd2faf4	0.10301772
12	0xbcb83e76	-0.022490721
13	0xbdc5839a	-0.09644242
14	0xbd39ed6e	-0.045392446
15	0xbdd6e93d	-0.104937054
16	0xbe6feab6	-0.23429379
17	0xbc9d352c	-0.019190393
18	0x3e09dbf8	0.13462818
19	0xbcc4cfb1	-0.024024816
20	0xbd47bfdc	-0.048766956
21	0xbdaadb9b	-0.08342668
22	0xbde20200	-0.11035538
23	0xbc99d063	-0.018776124
24	0x3d12f798	0.035880655
25	0x3e1795f6	0.148033
26	0x3d11e1d3	0.035615753
27	0xbd0dc91e	-0.03461563
28	0x3cf2f9db	0.029660156
29	0x3d66809d	0.056275
30	0xbe06667a	-0.13125029
31	0x3d797a8c	0.060907885
32	0xbe787c95	-0.24266274
33	0x3e017f21	0.12646152
34	0xba9a5e54	-0.001177738
35	0xbc8d3787	-0.017238392
36	0x3d9e3ba4	0.07726219
37	0x3e5b7df7	0.2143477
38	0x3c8659f6	0.016400319
39	0xbc0c65cf	-0.008569195
40	0x3d48f7ac	0.049064323
41	0xbe070eea	-0.13189283
42	0xbdb1d597	-0.08683317
43	0xbd3276e1	-0.043570403
44	0x3d993857	0.07481449
45	0xbe08951c	-0.1333813
46	0xbdc88547	-0.09791046
47	0x3c61028a	0.0137335155
48	0xbd96c2dc	-0.07361385
49	0xbe467f0c	-0.19384402
50	0xbe00aaf7	-0.12565218
51	0x3d0b4f5b	0.034011226
52	0xbe72e14a	-0.23718753
53	0xbd9f756b	-0.077860676
54	0xbc337c12	-0.010954874
55	0x3a8bb487	0.001065866
56	0xbd9ac0d8	-0.07556313
57	0x3e9f7e72	0.31151158
58	0x3e027d26	0.12743053
59	0x3d8efc26	0.06981687
60	0x3e4ff1aa	0.20307031
61	0x3d1b5bf0	0.037929475
62	0xbd935a2a	-0.07194932
63	0xbc484458	-0.012223326
64	0x3dfb0bdc	0.12258121
65	0xbda398a4	-0.07988098
66	0xbdfe4ae8	-0.12416631
67	0xbd569df0	-0.052396715
68	0x3dcba13a	0.09942861
69	0x3d48c768	0.049018294
70	0xbe2e1357	-0.16999565
71	0xbe39df2f	-0.18151544
72	0x3dc67248	0.09689766
73	0x3cadca92	0.021214757
74	0xbd9d9bd2	-0.07695736
75	0x3db3cd31	0.087793715
76	0xbe3468ae	-0.17618057
77	0x3d641072	0.055679746
78	0x3c1ffde9	0.009765127
79	0xbcd63435	-0.026147941
80	0xbe479b88	-0.19492924
81	0xbcb64597	-0.02224998
82	0x3c0d9645	0.008641784
83	0xbc0610e8	-0.008182742
84	0xbc801b36	-0.015637975
85	0xbe2a8a85	-0.16654404
86	0x3d1f0fcf	0.038833436
87	0x3d7fa13b	0.06240962
88	0xbccfc479	-0.02536224
89	0xbe318a77	-0.17337976
90	0xbdeb2aa6	-0.11482744
91	0xbe2aa1ed	-0.16663332
92	0xbda083c9	-0.07837636
93	0x3c4a9858	0.012365423
94	0xbe2834d9	-0.1642641
95	0x3d24638f	0.04013401
96	0xbd835576	-0.06412785
97	0x3dbee11d	0.09320281
98	0xbc697bf1	-0.014250741
99	0x3d504cb3	0.050854396
100	0x3e1d2706	0.15346918
101	0xbdab654f	-0.083689325
102	0xbce4f1de	-0.027947363
103	0xbd0a46a6	-0.03375878
104	0xbc93577e	-0.017986055
105	0x3c1f59bc	0.009725984
106	0xbcbf881b	-0.02338033
107	0xbda28e6e	-0.079373226
108	0xbe0c3af0	-0.13694358
109	0x3e0f96f8	0.14022434
110	0x3e205329	0.15656723
111	0x3e3703f3	0.178726
112	0x3b891952	0.0041839266
113	0x3d746051	0.059662167
114	0xbd98e352	-0.07465233
115	0x3da4e1d5	0.080508865
116	0xbd89eeef	-0.06735026
117	0x3d824126	0.06360082
118	0x3d05c6b7	0.032660212
119	0xbd87e1e3	-0.06634881
120	0xbdd721d8	-0.10504502
121	0x3da62708	0.08112913
122	0xbc88b81e	-0.016689356
123	0xbe188fc4	-0.14898592
124	0xbbea9fc3	-0.0071601584
125	0x3d31a137	0.043366637
126	0x3e5ae89c	0.21377796
127	0xbdfe5e33	-0.12420311
128	0x3d938b6b	0.07204326
129	0xbce0eb51	-0.027455958
130	0xbd68be45	-0.05682208
131	0xbdba7406	-0.09104161
132	0xbe6d1a2e	-0.23154518
133	0xbddaca6b	-0.106831394
134	0x3e1bacb2	0.15202597
135	0xbb02b669	-0.001994515
136	0x3e312833	0.17300491
137	0x3e882417	0.26590034
138	0xbe458bbc	-0.19291586
139	0xbb79ce67	-0.003811741
140	0xbe612082	-0.21985057
141	0x3c356cb8	0.011073284
142	0xbceb42ae	-0.028718319
143	0x3e2f313e	0.17108628
144	0xbdbd6948	-0.092485964
145	0xbbabbddd	-0.0052411393
146	0xbd873d23	-0.06603458
147	0x3d8d3f2b	0.06896814
148	0x3dc3d8e4	0.09562853
149	0x3c9c2d16	0.019064467
150	0xbd9d4465	-0.07679061
151	0xbc959d5b	-0.01826351
152	0x3ddca078	0.107727945
153	0xbd7310d7	-0.05934223
154	0x3d804d85	0.06264786
155	0xbc588137	-0.013214401
156	0xbc230cf7	-0.0099518215
157	0xbdfcb34e	-0.12338887
158	0xbc12190a	-0.008917103
159	0xbdac9b90	-0.08428109
160	0xbc3a911c	-0.011387136
161	0x3e59bcfe	0.21263501
162	0xbd25d928	-0.0404903
163	0xbe2897c1	-0.1646414
164	0xbdf9b8ac	-0.121934265
165	0xbdce41a3	-0.10071113
166	0x3de9e47f	0.11420535
167	0xbda2e0c2	-0.079530254
168	0x3d1b57b0	0.037925422
169	0x3a490aa7	0.0007669129
170	0x3d830657	0.063976936
171	0x3ea9a90b	0.33136782
172	0x3df3c167	0.11902123
173	0xbe61204f	-0.21984981
174	0xbe4fe785	-0.20303161
175	0x3cf70a25	0.030156204
176	0xbdb1ec69	-0.0868767
177	0x3d2b87d8	0.041877598
178	0x3e3dbe31	0.18529584
179	0x3d119796	0.035544954
180	0xbdaeb0dd	-0.08529828
181	0xbc163eb1	-0.00917022
182	0xbcb9efa2	-0.022697274
183	0x3e376ab9	0.17911805
184	0x3d3af016	0.04563912
185	0xbe0effe7	-0.13964806
186	0x3d98ce06	0.07461171
187	0xbe85aa7e	-0.26106638
188	0x3d998251	0.07495559
189	0x3e17de7f	0.1483097
190	0xbd9414b4	-0.07230511
191	0x3d73c234	0.05951138
192	0xbd7ff579	-0.06248996
193	0xbcd18b45	-0.025579104
194	0x3da77834	0.08177224
195	0xbcdfcde6	-0.02731986
196	0xbd6e1ab9	-0.058130953
197	0xbcabf01a	-0.020988513
198	0x3e7d1ce9	0.2471806
199	0xbe17c38d	-0.1482069
200	0x3df5949e	0.11991237
201	0x3c8fa26c	0.017533503
202	0xbad2506e	-0.0016045698
203	0xbd72f532	-0.059315868
204	0x3d034ba7	0.03205457
205	0xbdd9ad02	-0.10628702
206	0x3db22422	0.08698298
207	0xbd656eae	-0.056013756
208	0x3e06b2e0	0.13154173
209	0xbc60449e	-0.013688235
210	0xbccee865	-0.025257299
211	0xbc3be007	-0.0114669865
212	0x3e12b122	0.14325383
213	0xbdbd94b8	-0.092568815
214	0x3da00902	0.07814218
215	0x3dd60696	0.10450475
216	0x3dc118d9	0.094285674
217	0x3c9982e5	0.018739173
218	0xbdf2b74e	-0.11851369
219	0x3c888dbb	0.016669145
220	0x3e14c115	0.1452678
221	0xbea2ba57	-0.3178279
222	0x3e7ad177	0.24493967
223	0x3dfa9aa3	0.12236526
224	0xbc1f29f1	-0.009714589
225	0x3c43eef6	0.011958828
226	0xbe5aaec3	-0.21355729
227	0xbde7add5	-0.11312453
228	0x3b02cc57	0.0019958222
229	0x3de21ac2	0.1104026
230	0x3e33061a	0.17482796
231	0xbd97d80d	-0.07414255
232	0xbd62c7a3	-0.05536617
233	0xbe8722a1	-0.26393607
234	0x3d8026c5	0.06257395
235	0xbe844ec1	-0.25841334
236	0xbe365ce6	-0.17808875
237	0x3cc9465b	0.02456968
238	0x3d4673f7	0.048450436
239	0xbca03999	-0.019558715
240	0xbcac5218	-0.02103524
241	0x3cc1bb1f	0.023648797
242	0x3d6cf6ef	0.05785268
243	0x3c1b20a6	0.009468233
244	0xbe99a1a9	-0.3000615
245	0x3b31d132	0.0027132747
246	0x3d39d984	0.045373455
247	0x3e07e439	0.13270654
248	0xbe41a82a	-0.18911806
249	0x3d5f7447	0.05455425
250	0xbdd54b32	-0.10414733
251	0xbe04e2b1	-0.12977101
252	0x3df4d32d	0.11954341
253	0x3e2ed129	0.17071976
254	0x3db8fb43	0.09032299
255	0x3c2d727f	0.01058638

backbone.0.bias f4 [16]
0	0xb73c3369	-1.1217643e-05
1	0xb58972e0	-1.0240728e-06
2	0x36c0fc4c	5.751417e-06
3	0xb328d04e	-3.9305e-08
4	0x36856022	3.9749e-06
5	0x362911fd	2.5193433e-06
6	0xb6f496b6	-7.2893117e-06
7	0xb6ed8dd9	-7.0796636e-06
8	0xb72d6510	-1.0335134e-05
9	0x36944491	4.418726e-06
10	0xb7b20877	-2.1223195e-05
11	0xb6e66146	-6.8658583e-06
12	0xb4974ab7	-2.8180304e-07
13	0xb547260a	-7.418863e-07
14	0xb58bb32b	-1.0408452e-06
15	0xb53a1fb1	-6.9336517e-07

backbone.1.weight f4 [16]
0	0x3f82474d	1.0178009
1	0x3f7f7932	0.99794304
2	0x3f801039	1.0004951
3	0x3f804107	1.0019845
4	0x3f7efccb	0.9960448
5	0x3f800062	1.0000117
6	0x3f7e5606	0.9935001
7	0x3f7f2ee6	0.99680936
8	0x3f807e39	1.003852
9	0x3f7d67e7	0.9898667
10	0x3f7bd237	0.9836764
11	0x3f81c698	1.0138731
12	0x3f7e23fa	0.99273646
13	0x3f810be3	1.0081753
14	0x3f7da738	0.9908328
15	0x3f7d6725	0.9898551

backbone.1.bias f4 [16]
0	0x3ae2fca6	0.0017317727
1	0xbd037205	-0.03209116
2	0x3c33ed56	0.010981878
3	0x3a0e019c	0.000541711
4	0x3b2746a9	0.0025524294
5	0x3c1a1c96	0.0094062295
6	0x3ca9c4ce	0.020723727
7	0x3cf4896c	0.029850684
8	0x3c21ea1b	0.009882475
9	0x3cafedab	0.021475634
10	0x3c2484eb	0.010041456
11	0x3cadf1dd	0.021233493
12	0x3d0425b8	0.032262534
13	0xbbeebb0a	-0.0072854804
14	0x3a4c6d4f	0.00077982707
15	0x3c74b78a	0.014936337

backbone.1.running_mean f4 [16]
0	0x3f4f70c1	0.81031424
1	0x3f2426a7	0.6412148
2	0xbe16ee21	-0.14739276
3	0x3f46650d	0.7749794
4	0xbdca581e	-0.09880088
5	0xbe3c456d	-0.18385859
6	0x3e3cd55e	0.18440768
7	0xbec04b59	-0.37557486
8	0x3ebbd67a	0.3668707
9	0xbee90868	-0.45514226
10	0x3e642be9	0.22282375
11	0x3c81405d	0.015777761
12	0xbf8b2cf4	-1.0873094
13	0xbb5f4147	-0.0034066008
14	0xbd9d21fe	-0.07672499
15	0xbeeb9283	-0.46010217

backbone.1.running_var f4 [16]
0	0x3fa9277f	1.3215178
1	0x3fc53d0b	1.5409254
2	0x3dffc62b	0.124889694
3	0x3fa40d90	1.2816639
4	0x3d50f308	0.051013023
5	0x3e0f1081	0.1397114
6	0x3e116026	0.14196834
7	0x3ee0232b	0.4377683
8	0x3f1d2413	0.6138317
9	0x3f2daef1	0.67845064
10	0x3e6bde5d	0.23034044
11	0x3e9ecbd9	0.31014898
12	0x404dff45	3.2187054
13	0x3da52cc8	0.08065182
14	0x3e3bfad8	0.18357408
15	0x3e937eaf	0.2880759

backbone.4.weight f4 [32, 16, 3, 3]
0	0x3c8ed87c	0.017437212
1	0x3d96a4cf	0.073556535
2	0x3cb6c60d	0.022311235
3	0x3e156487	0.1458913
4	0xbdbd21af	-0.0923494
5	0xbd90523b	-0.07046934
6	0x3ca5221f	0.020157872
7	0x3d1c125c	0.038103446
8	0xbdf321f9	-0.11871714
9	0x3d27a42c	0.04092805
10	0xbdc209a7	-0.09474497
11	0xbc7e1f28	-0.015510358
12	0xbd5e4f2e	-0.05427473
13	0x3e048924	0.1294294
14	0x3db5df19	0.08880443
15	0x3d47d976	0.04879137
16	0x3d8e731d	0.0695555
17	0x3d9453c7	0.07242542
18	0x3d0fead2	0.03513605
19	0xbda14bb8	-0.0787577
20	0x3cbbe4bc	0.022936217
21	0x3ac903c5	0.0015336206
22	0x3cbc9573	0.023020482
23	0xbd1ca569	-0.038243685
24	0x3daabf3b	0.083372556
25	0xbce5395d	-0.027981455
26	0xbce6e8c4	-0.028187163
27	0xbdf92878	-0.12165922
28	0xbba98324	-0.005173104
29	0x3dd6dc0c	0.10491189
30	0xbd1a565e	-0.037680022
31	0xbc37ea76	-0.011225333
32	0xbd6efcc3	-0.05834652
33	0x3d025f4c	0.031829163
34	0xbda26d8c	-0.07931051
35	0xbdb5ec85	-0.08883003
36	0xbd726d67	-0.059186365
37	0xbdf9bb78	-0.1219396
38	0x3d763817	0.060112085
39	0x3e12901b	0.14312784
40	0xbdd18b9e	-0.10231708
41	0xbd4bdea4	-0.049772874
42	0xbd96a9bc	-0.07356593
43	0xbdcf3b08	-0.10118681
44	0xbddc04e1	-0.10743118
45	0x3deb44ee	0.11487757
46	0x3de5f521	0.11228395
47	0x3d42c945	0.047555227
48	0x3e111173	0.14166813
49	0xbd5decb8	-0.05418083
50	0xbdad7b55	-0.08470789
51	0xbca8085e	-0.020511802
52	0x3bd71660	0.0065639466
53	0xbd16aa66	-0.0367836
54	0x3dcc2b82	0.09969236
55	0xbb11990d	-0.002221647
56	0x3dd9f2da	0.106420234
57	0x3dd7d7a0	0.10539174
58	0x3ce0bc57	0.027433557
59	0x3dbeea93	0.09322085
60	0x3e3244b1	0.17409016
61	0xbddc65c6	-0.10761599
62	0xbdc82512	-0.097726956
63	0xbdec2801	-0.11531068
64	0xbb8b92fa	-0.0042594643
65	0x3db740ab	0.08947881
66	0x3d6b2bcc	0.057414815
67	0x3db167a3	0.08662345
68	0xbcf771be	-0.030205604
69	0x3d167d15	0.03674038
70	0xbb13dc40	-0.00225617
71	0x3c1906ed	0.00934003
72	0xbe285f00	-0.1644249
73	0xbb5cd16d	-0.0033694163
74	0xbd20657d	-0.039159287
75	0x3e041fb8	0.12902725
76	0x3d03075c	0.03198944
77	0xbdb708af	-0.08937203
78	0xbdb80be1	-0.08986641
79	0x3ca96a82	0.02068067
80	0xbbad009b	-0.005279613
81	0x3ca25fc0	0.019821048
82	0xbd155160	-0.03645456
83	0x3d1af682	0.037832744
84	0xbc9f521a	-0.019448329
85	0x3a90b2a5	0.0011039568
86	0x3d747e0a	0.059690513
87	0xbdc0fd4a	-0.09423311
88	0xbc75d0d9	-0.015003406
89	0xbe05503b	-0.13018887
90	0xbd3d0c6c	-0.046154425
91	0x3d292c70	0.041302145
92	0x3dab1197	0.08352964
93	0xbddd4e70	-0.108059764
94	0xbe4d7944	-0.2006579
95	0xbd9613e7	-0.07328015
96	0xbe147aa6	-0.14499912
97	0x3d5e6d7e	0.05430364
98	0x3d4d39e4	0.050104037
99	0xbd974a2e	-0.073871955
100	0xbc7c9d32	-0.015418338
101	0x3c8910c5	0.01673163
102	0xbdbfa31b	-0.09357282
103	0xbdb73fe3	-0.08947732
104	0xbdc51e54	-0.09624925
105	0xbc018484	-0.007905129
106	0x3d03fb11	0.032221857
107	0xbdef7774	-0.11692706
108	0xbbdaf8b6	-0.0066824807
109	0xbe0e8a4c	-0.13919944
110	0x3da42ab9	0.08015961
111	0xbdc455cb	-0.09586676
112	0x3de3b9a4	0.111193925
113	0x3d99efee	0.07516466
114	0x3ca0a60a	0.019610424
115	0xbceb6347	-0.028733863
116	0xbd9e5ef5	-0.07732955
117	0x3db343c9	0.08753163
118	0xbc79b9a7	-0.015242017
119	0xbd16aeea	-0.036787905
120	0x3dffc1bc	0.12488124
121	0x3dd6f32d	0.10495601
122	0xbca8ac85	-0.020590076
123	0xbc144b54	-0.009051163
124	0x3d172aa4	0.0369059
125	0xbdacb7fc	-0.0843353
126	0xbe381624	-0.17977196
127	0xbdc8edd8	-0.0981099
128	0xbca1c6f2	-0.019748185
129	0x3d002e62	0.031294234
130	0x3d533d72	0.05157227
131	0x3dd958e8	0.10612661
132	0xbd4998f6	-0.04921814
133	0xbd143b52	-0.036189385
134	0x3d72283f	0.059120413
135	0x3e3f3f60	0.1867652
136	0xbca17d43	-0.01971305
137	0xbd71058e	-0.058843188
138	0xbd1c8b95	-0.038219053
139	0xbdcb81fa	-0.099369004
140	0x3cb3357d	0.021876091
141	0x399c9492	0.00029865332
142	0xbdc35777	-0.09538167
143	0x3cf0c637	0.029391391
144	0xbdbde9d7	-0.09273117
145	0xbd14cc59	-0.036327694
146	0xbe324030	-0.17407298
147	0x3da8f6ff	0.08250236
148	0x3e7e2e8c	0.24822444
149	0x3bcff06c	0.006345799
150	0xba9aa1d6	-0.0011797498
151	0xbdde59e5	-0.1085699
152	0xbd6ae7d8	-0.05735001
153	0x3d0eceaf	0.034865078
154	0x3c874042	0.016510133
155	0x3d406cb7	0.04697868
156	0xbe08386c	-0.13302773
157	0x3d7c3433	0.06157322
158	0x3e603b0e	0.21897528
159	0xbd9c712b	-0.076387726
160	0x3e194657	0.14968239
161	0x3e344942	0.1760607
162	0xbcebd7b9	-0.028789388
163	0xbb3c7714	-0.00287575
164	0x3d85eac7	0.06538921
165	0xbe1af43e	-0.15132234
166	0x3d694aef	0.056956228
167	0xbd12182d	-0.035667587
168	0x3dc59a25	0.09648541
169	0x3dbf4ece	0.09341203
170	0x3d176cf7	0.03696915
171	0xbe03e959	-0.12881984
172	0x3da85874	0.08219996
173	0xb99055e8	-0.00027529825
174	0xbd0a6826	-0.03379073
175	0x3d086787	0.033301856
176	0xbd0c6e39	-0.034284804
177	0x3d9806c2	0.07423164
178	0xbceb3b1c	-0.028714709
179	0xbe022b7a	-0.12711897
180	0xbe0a5107	-0.13507472
181	0xbda011f8	-0.07815927
182	0xbd95c993	-0.07313838
183	0x3bc53570	0.006018333
184	0xbda4773f	-0.08030557
185	0xbded6a69	-0.11592562
186	0xbde9ef6d	-0.1142262
187	0xbde1e73d	-0.11030433
188	0x3c986d4e	0.018606808
189	0x3d3ec1fd	0.04657172
190	0x3d9c94d4	0.07645574
191	0x3dc201ed	0.094730236
192	0x3d9ce129	0.076601334
193	0xbc32cba3	-0.010912809
194	0xbd15596f	-0.036462244
195	0xbc575fb4	-0.013145376
196	0xbcf52259	-0.029923605
197	0xbd58aaaa	-0.052897133
198	0xbd847215	-0.06467072
199	0xbdfc8ded	-0.12331758
200	0x3d70686f	0.058693346
201	0x3d4be78d	0.04978137
202	0xbd2db731	-0.042411033
203	0xbe2a0f63	-0.16607432
204	0x3dad7696	0.08469884
205	0x3e2ef08c	0.17083949
206	0x3d05eaee	0.03269475
207	0x3c690d7e	0.014224408
208	0xbd810a1d	-0.06300757
209	0xbd687722	-0.05675424
210	0x3cfe9c9b	0.031080535
211	0x3d236a08	0.03989604
212	0xbdb55aa9	-0.08855183
213	0xbd2861f4	-0.04110904
214	0x3d69f406	0.057117485
215	0xbc4ec01d	-0.012619046
216	0xbccb015c	-0.024780922
217	0x3c9131da	0.017723966
218	0x39a057a6	0.0003058288
219	0xbd197cb2	-0.037472434
220	0x3c80c8a1	0.015720667
221	0x3dad63bd	0.08466289
222	0xbd5eaa25	-0.05436148
223	0x3cf9eabd	0.03050744
224	0x3dd36b3b	0.10323187
225	0xbda615e8	-0.08109647
226	0xbd6489dd	-0.05579554
227	0xbddcd0ec	-0.10782036
228	0xbdfa9a41	-0.12236453
229	0x3b97d504	0.0046335477
230	0x3db52fcc	0.08847007
231	0x3d3827aa	0.0449597
232	0x3c3fd0bf	0.011707484
233	0x3cd7fb53	0.026364958
234	0xbc3aeb51	-0.011408643
235	0x3d79d931	0.060998145
236	0x3ce11326	0.027474951
237	0x3d94722d	0.0724834
238	0xbd4527e3	-0.048133742
239	0xb8b6e33a	-8.7207605e-05
240	0x3daf44b0	0.08558023
241	0x3c4324a5	0.011910592
242	0x3dafa6c3	0.08576729
243	0xbcacc3f7	-0.021089537
244	0xbddf6a68	-0.10908967
245	0xbdd03f07	-0.101682715
246	0x3e07e605	0.13271339
247	0x3d9704e7	0.07373982
248	0xbdb2d6d1	-0.08732379
249	0x3d967b30	0.07347715
250	0x3d99578a	0.074874
251	0xbc0c2fe7	-0.008556343
252	0xbdd929ea	-0.106036976
253	0x3dd1e97d	0.102496125
254	0x3b0f243e	0.002184167
255	0xbae767b4	-0.0017654807

backbone.4.bias f4 [32]
0	0x369e0ad2	4.7100266e-06
1	0xb72aa696	-1.0171576e-05
2	0xb74410a9	-1.1686389e-05
3	0xb684ec1c	-3.9613933e-06
4	0xb64ec7eb	-3.081276e-06
5	0xb6993170	-4.5655106e-06
6	0x348ad322	2.5858122e-07
7	0xb6f5295f	-7.306385e-06
8	0x35c111f0	1.4384841e-06
9	0x35284b9b	6.26949e-07
10	0xb5f5db1f	-1.8317695e-06
11	0x35725dcb	9.028851e-07
12	0xb5e9a9de	-1.7409291e-06
13	0xb621bc3b	-2.4100434e-06
14	0xb66f4989	-3.5656578e-06
15	0xb3e52536	-1.0670412e-07
16	0x36873b54	4.03022e-06
17	0xb466bc59	-2.148894e-07
18	0x35f38ceb	1.8145923e-06
19	0xb5d7a38a	-1.6066344e-06
20	0x36891b57	4.086101e-06
21	0xb5b25fd5	-1.3289924e-06
22	0x354ad5f3	7.55622e-07
23	0xb64fbc00	-3.0954834e-06
24	0x357026ff	8.9463714e-07
25	0xb60cacb6	-2.0962157e-06
26	0xb62f62e3	-2.6134592e-06
27	0x34e2af03	4.2223118e-07
28	0x36cac7be	6.043322e-06
29	0xb60328b8	-1.9544223e-06
30	0x3527e2b4	6.2542244e-07
31	0xb606a99e	-2.0066286e-06

backbone.5.weight f4 [32]
0	0x3f820718	1.0158415
1	0x3f8011dc	1.000545
2	0x3f7c83a2	0.98638356
3	0x3f8118f4	1.008574
4	0x3f7b81ac	0.9824474
5	0x3f7aa5da	0.9790932
6	0x3f7e60c8	0.99366426
7	0x3f7ccd96	0.987512
8	0x3f80180c	1.0007339
9	0x3f7fc968	0.99916697
10	0x3f7ed176	0.9953836
11	0x3f7a20f9	0.9770656
12	0x3f7f6f2d	0.99779016
13	0x3f7e456a	0.9932467
14	0x3f7d376a	0.9891268
15	0x3f7f651d	0.9976366
16	0x3f7e0840	0.9923134
17	0x3f7da8e6	0.99085844
18	0x3f80cfd0	1.0063419
19	0x3f7d5377	0.9895548
20	0x3f8221c0	1.016655
21	0x3f7c0e2d	0.9845913
22	0x3f807d7c	1.0038295
23	0x3f816582	1.0109103
24	0x3f804c3b	1.0023264
25	0x3f80324e	1.0015352
26	0x3f818205	1.0117804
27	0x3f7d5e1a	0.9897171
28	0x3f7f20f4	0.9965966
29	0x3f7cffe4	0.9882796
30	0x3f7ddf52	0.99168885
31	0x3f7d9e23	0.9906942

backbone.5.bias f4 [32]
0	0x3ce1b15f	0.027550397
1	0xbc045eb5	-0.008079221
2	0xbb989b95	-0.0046572187
3	0x3c9e2205	0.019303331
4	0x3c4da587	0.012551672
5	0x3c885b2d	0.016645039
6	0xbc752662	-0.014962764
7	0xbc48a532	-0.012246417
8	0x3b3642aa	0.002781073
9	0xbc395210	-0.011311069
10	0xbc59e4d9	-0.01329919
11	0xbab8bd42	-0.0014094489
12	0x3a350e24	0.0006906709
13	0x3c7de54c	0.015496563
14	0x3b1ff635	0.0024408225
15	0xbbc521f5	-0.006016011
16	0x3cf17470	0.029474467
17	0xbc817f00	-0.015807629
18	0x3c17b004	0.009258274
19	0xbc0fad30	-0.008769318
20	0x3c26ffcf	0.010192825
21	0xbc4a6a92	-0.01235451
22	0x3b64e1b5	0.003492457
23	0x3bf5c772	0.0075005824
24	0xbc4d63af	-0.012535973
25	0x3cc6ae39	0.024252998
26	0x3d338c37	0.04383489
27	0x3ab27d3f	0.0013617649
28	0xbc20edf8	-0.009822361
29	0x3ab00b16	0.0013431038
30	0xbb045ec1	-0.002019808
31	0x3bd00416	0.0063481433

backbone.5.running_mean f4 [32]
0	0xbe9a76ab	-0.3016866
1	0x3d463ac4	0.048395887
2	0x3d6b2cf4	0.057415918
3	0xbf212958	-0.6295371
4	0x3ef4258f	0.47684905
5	0x3d58e0d1	0.052948777
6	0xbf49d7dd	-0.78845006
7	0xbdf984bc	-0.1218352
8	0xbe8f96ec	-0.28044832
9	0xbdaae66c	-0.08344731
10	0x3e42dee8	0.19030344
11	0x3df38366	0.11890297
12	0xbec62f2e	-0.3870787
13	0xbf5cbdaa	-0.86226904
14	0xbd0a67a5	-0.03379025
15	0xbd225f70	-0.039641798
16	0xbe88a45a	-0.2668789
17	0x3e13aaaa	0.14420572
18	0xbe6d801f	-0.23193406
19	0x3f7631f9	0.9617
20	0xbd993ce4	-0.07482317
21	0x3e5426d6	0.2071794
22	0x3f9148b1	1.1350309
23	0xbe07c757	-0.13259636
24	0x3ef79148	0.48353028
25	0xbf459615	-0.7718213
26	0xbf0068e0	-0.50160027
27	0xbe609540	-0.21931934
28	0xbf829850	-1.0202732
29	0xbf51fb1e	-0.820238
30	0x3e6bc62e	0.23024818
31	0x3f80e3e3	1.0069546

backbone.5.running_var f4 [32]
0	0x3e9ae8c9	0.30255726
1	0x3ebd2df1	0.36949113
2	0x3ed238eb	0.4105905
3	0x3e6e7890	0.23288178
4	0x3f26c83c	0.65149283
5	0x3e15789c	0.1459679
6	0x3ff89128	1.9419298
7	0x3eb3b03f	0.35095403
8	0x3ef8258c	0.48466146
9	0x3ef35199	0.47523192
10	0x3ea82586	0.32841128
11	0x3ed76103	0.42066202
12	0x3f640c0f	0.890809
13	0x3e914842	0.2837544
14	0x3f10f0b0	0.5661726
15	0x3f97a85c	1.1848254
16	0x3e570396	0.20997462
17	0x3ee66473	0.44998512
18	0x3efc4f40	0.49279213
19	0x3f13b20d	0.5769356
20	0x3e7287f3	0.23684673
21	0x3eda7a89	0.42671612
22	0x3ffc38c4	1.9704823
23	0x3e9bf87a	0.3046301
24	0x3ee1cce1	0.44101623
25	0x3e9985de	0.29984945
26	0x3ed40af5	0.4141461
27	0x4005b17d	2.088958
28	0x3f5b198b	0.8558585
29	0x3ee4e139	0.4470308
30	0x3f3caf57	0.7370505
31	0x3f385814	0.72009397

backbone.8.weight f4 [64, 32, 3, 3]
0	0x3d83f333	0.06442871
1	0x3c454806	0.0120410975
2	0xbc55d550	-0.013051346
3	0x3dc9c0c0	0.09851217
4	0xbd08e7fb	-0.03342436
5	0xb7ec38ae	-2.8159786e-05
6	0xbc9e003b	-0.01928722
7	0xbb1a5f8d	-0.0023555488
8	0x3d3b0135	0.045655448
9	0xbcf83982	-0.03030086
10	0x3cd830b4	0.026390411
11	0x3ac47290	0.0014987756
12	0xbc1e0a25	-0.009645973
13	0xbd15ab74	-0.036540464
14	0x3d196df8	0.03745839
15	0xbda32f8d	-0.07968054
16	0x3d22cd4e	0.039746575
17	0x3d40b2a2	0.047045358
18	0x3d861602	0.065471664
19	0x3d0d804a	0.034546174
20	0x3cf0a748	0.02937664
21	0xbd5d0879	-0.05396316
22	0x3d602419	0.054721925
23	0xbe05bde9	-0.13060726
24	0xbd924dc4	-0.07143739
25	0xbcac111c	-0.021004252
26	0xbdc7a817	-0.097488575
27	0x3d426c3d	0.047466505
28	0x3d3a36e0	0.04546249
29	0x3abee5a8	0.0014564293
30	0xbd4885da	-0.048955776
31	0xbcdc30bf	-0.026878713
32	0x3cb2aeaf	0.021811811
33	0xbcab8505	-0.020937452
34	0xbd61d4fc	-0.05513476
35	0x3d9932d5	0.074803986
36	0x3cb8c362	0.022554103
37	0x3a40dd21	0.00073571695
38	0xbd027be1	-0.03185642
39	0xbc1602b3	-0.009155917
40	0xbb8f94b6	-0.0043817414
41	0x3b0ed7fa	0.0021796213
42	0xbde4f1dd	-0.11178944
43	0x3d265c52	0.040615387
44	0xbcf17367	-0.029473973
45	0x3e002099	0.12512435
46	0x3da57e63	0.08080747
47	0x3d58d212	0.052934714
48	0x3d7ebb80	0.062190533
49	0xbc47e36e	-0.01220022
50	0x3d52550a	0.05135063
51	0xbb9c2de0	-0.004766211
52	0xbc50a038	-0.012733512
53	0x3d0a2be9	0.033733282
54	0x3d05328b	0.032518905
55	0xbdbb6c10	-0.09151471
56	0xbd84dc1a	-0.064872935
57	0xbd193f9a	-0.03741417
58	0xbdb0a2c7	-0.08624797
59	0x3d36641f	0.044529077
60	0xbdcb2cae	-0.09920631
61	0xbe0a97c1	-0.13534452
62	0xbd2971d1	-0.04136831
63	0xbe00b5b2	-0.12569311
64	0x3d8dec00	0.06929779
65	0xba0dd125	-0.0005409888
66	0x3cc3314e	0.023827221
67	0xbd93d600	-0.07218552
68	0xbcf412a4	-0.029794045
69	0xbd649dd9	-0.055814598
70	0x3d972e1c	0.073818415
71	0x3da83e1f	0.08214974
72	0x3cae35e7	0.021265937
73	0x3d945fba	0.07244821
74	0x3c98f6cf	0.018672375
75	0xbd4858e0	-0.048912883
76	0xbc94a53b	-0.018145194
77	0x3cf12e6c	0.029441081
78	0xbd14af1c	-0.03629981
79	0xbc4b5aed	-0.012411815
80	0x3ba559be	0.0050460985
81	0xbc53b5e7	-0.012921787
82	0x3d4fd3d8	0.05073914
83	0x3dcf44a5	0.10120515
84	0x3d4055d7	0.046956863
85	0xbe076d92	-0.13225392
86	0xbdf9aa69	-0.12190706
87	0x3daef0d4	0.08542028
88	0xbdfda259	-0.12384481
89	0x3c89381d	0.01675039
90	0xbd1a5479	-0.037678216
91	0xbc949c10	-0.018140823
92	0x3cb1f66b	0.021723947
93	0xbc8fc11d	-0.017548138
94	0x3c5aa334	0.013344575
95	0x3cc53193	0.02407149
96	0x3d4301c0	0.04760909
97	0x3d5488a3	0.05188812
98	0xbcb1c47b	-0.021700135
99	0xbd21eb65	-0.03953113
100	0xbcf293c8	-0.029611483
101	0xbd563127	-0.05229297
102	0xbe19099a	-0.14945069
103	0x3d5568d6	0.052101932
104	0x3d847be8	0.06468946
105	0xbc8d66c3	-0.017260915
106	0xbd5a4002	-0.0532837
107	0x3bb55998	0.005534362
108	0xbdb4db4a	-0.088308886
109	0x3ccb6781	0.024829628
110	0x3cbc501c	0.022987418
111	0x3d5ae9fd	0.053445805
112	0xbd498359	-0.04919753
113	0xbded6f0f	-0.11593448
114	0x3d2ee26f	0.042696413
115	0x3d2e34dd	0.042530883
116	0xbbb6c29e	-0.0055773994
117	0x3e05605f	0.13025044
118	0x3c4560ca	0.012047002
119	0xbc1fd7a5	-0.0097560035
120	0x3c95077e	0.01819205
121	0xbd5e9171	-0.054337922
122	0xbd675a5b	-0.056482654
123	0xbd0b4f2e	-0.03401106
124	0x3da7bacd	0.08189926
125	0xbd6862b9	-0.056734774
126	0x3dbd7477	0.092507295
127	0x3d43a07e	0.04776048
128	0xbcf847af	-0.030307619
129	0x3d7ffe82	0.062498577
130	0x3d8a0b7a	0.0674047
131	0x3d6b4d07	0.057446506
132	0x3d978ef0	0.0740031
133	0x3d1982f5	0.037478406
134	0x3da33a3e	0.07970093
135	0xbb781193	-0.0037852272
136	0x3d103d2a	0.03521458
137	0x3bf5f94b	0.0075065247
138	0x3da66b14	0.08125892
139	0xbcda7041	-0.026664855
140	0xbcca0561	-0.024660768
141	0x3de0bb8f	0.10973274
142	0x3beca162	0.007221387
143	0xbd23bec2	-0.039976843
144	0x3cced5c5	0.025248418
145	0xbd3110b2	-0.043228813
146	0x3ccdb4e7	0.025110675
147	0xbd911210	-0.07083523
148	0x3c831ab7	0.01600395
149	0x3c850125	0.016235897
150	0xbd9d2cfd	-0.076745965
151	0x3c26f3b3	0.010189938
152	0xbb4e8597	-0.0031512731
153	0x3d2b43cf	0.041812714
154	0xbd10909a	-0.035294153
155	0x3dc3ae5d	0.095547415
156	0xbc687467	-0.014187909
157	0xbd80bb12	-0.06285681
158	0xbbb1516d	-0.005411318
159	0x3d40d092	0.04707391
160	0xbc8c5bcb	-0.017133614
161	0x3ad00b60	0.0015872531
162	0xbd3caa18	-0.04606065
163	0xbbc57c6f	-0.0060267965
164	0xbd440339	-0.047854636
165	0xbd8ce96e	-0.06880461
166	0x3daa89d7	0.08327072
167	0xbcb96006	-0.022628795
168	0x3d812876	0.063065454
169	0x3cf0bf86	0.0293882
170	0xbd5b8ca6	-0.05360093
171	0x3d0065cc	0.03134708
172	0x3dcd2b92	0.10018076
173	0x3c91e35c	0.017808609
174	0xbd46dbca	-0.04854945
175	0x3d4c3311	0.04985339
176	0x3d5d3aae	0.05401104
177	0x3b6ba3a5	0.0035955694
178	0x3db8ba6a	0.09019931
179	0xbd82ca77	-0.06386273
180	0x3da92be6	0.08260326
181	0xbd8ed05a	-0.06973334
182	0xbd8d8bd7	-0.06911438
183	0x3ce3a5cd	0.02778902
184	0x3dae9dc2	0.08526184
185	0xbdf0c664	-0.1175659
186	0xbc52f7c3	-0.012876454
187	0xbdc8bea9	-0.098019905
188	0x3ce5bafc	0.028043263
189	0x3c032b83	0.0080059795
190	0xbd3fd086	-0.046829723
191	0x3bc0dad3	0.005885461
192	0x3de96c1b	0.113975726
193	0x3da6a27a	0.08136459
194	0xbdec157e	-0.11527537
195	0xbc34a80f	-0.011026396
196	0x3d270e75	0.04078527
197	0x3c80c99c	0.015721135
198	0xbd90ff8d	-0.070799924
199	0xbd93a48d	-0.0720912
200	0xbcca9008	-0.024726883
201	0xbd34c35f	-0.044131633
202	0xbd4e768e	-0.05040603
203	0x3cacdc64	0.021101184
204	0xbd03a811	-0.032142702
205	0x3d12f32f	0.03587645
206	0xbb459f40	-0.0030154735
207	0xbc5a8cfa	-0.0133392755
208	0xbcf8108a	-0.030281324
209	0xbbf2a9e4	-0.0074055064
210	0xbd733eca	-0.059386052
211	0x3d749596	0.05971297
212	0xbcfd7245	-0.030938277
213	0x3cf4408f	0.02981594
214	0xbd83c5ad	-0.06434188
215	0xbd87908d	-0.06619368
216	0xbbdbcc5f	-0.0067077125
217	0xbd570519	-0.052495096
218	0x3da2e828	0.079544365
219	0xbd94eec9	-0.07272107
220	0x3d15ec46	0.03660228
221	0x3d6df0c5	0.058090944
222	0xbcbd1a27	-0.02308376
223	0x3c92be7f	0.017913101
224	0xbbdcf57b	-0.0067431307
225	0x3d08623d	0.033296812
226	0xbc4fce64	-0.012683485
227	0xbd8f166f	-0.06986701
228	0xbded32c8	-0.115819514
229	0x3cbc2d27	0.022970749
230	0xbd91816e	-0.07104765
231	0xbd8f4f15	-0.069975056
232	0xbda5a7aa	-0.0808862
233	0xbd81b22f	-0.06332814
234	0x3d77ab23	0.060465943
235	0xbd5c9d3b	-0.053860884
236	0xbbc1a5b9	-0.0059096483
237	0xbd8aaf1c	-0.06771681
238	0xbd3449c0	-0.044015646
239	0xbdaddf1d	-0.08489821
240	0x3bd399ce	0.006457544
241	0x3cd65a98	0.026166245
242	0x3d8afcb4	0.067864805
243	0x3d4a5bcd	0.049403954
244	0xbc7c8834	-0.015413333
245	0xbd161b19	-0.036646936
246	0xbd1d51b3	-0.038407993
247	0xbd2ab175	-0.041673142
248	0xbccb7aa5	-0.024838755
249	0xbcefaaa6	-0.029256176
250	0x3c98d804	0.018657692
251	0xbd775544	-0.06038405
252	0xbb71891f	-0.0036855412
253	0xbd6fcf21	-0.058547143
254	0xbd1fda9c	-0.03902684
255	0xbc73df39	-0.014884763

backbone.8.bias f4 [64]
0	0x35c3e73e	1.4595932e-06
1	0xb5415f72	-7.2036994e-07
2	0x349a2749	2.871332e-07
3	0x34b2067b	3.31598e-07
4	0x341c3480	1.4547732e-07
5	0x35a4d3fc	1.2280648e-06
6	0xb4ca1158	-3.763805e-07
7	0x3587d27b	1.0119542e-06
8	0x360355cc	1.9570462e-06
9	0xb56972af	-8.696615e-07
10	0x343d62aa	1.763789e-07
11	0xb5918e96	-1.084484e-06
12	0x35989284	1.1367524e-06
13	0x3657afcd	3.2139826e-06
14	0x35da1529	1.6248424e-06
15	0x34f26470	4.514909e-07
16	0x3585e6de	9.976463e-07
17	0xb5797d1f	-9.2941804e-07
18	0x36893487	4.089033e-06
19	0xb4d53f2a	-3.97203e-07
20	0xb50babcc	-5.203153e-07
21	0x351fcb3c	5.952786e-07
22	0x339bd5bf	7.25663e-08
23	0xb566ec2b	-8.6025346e-07
24	0xb51ac48b	-5.765548e-07
25	0x320e5d2f	8.286675e-09
26	0xb4b92800	-3.448804e-07
27	0xb40d1639	-1.3139733e-07
28	0xb60c85c2	-2.0939483e-06
29	0xb510e1ee	-5.397295e-07
30	0x33ba98c9	8.6890914e-08
31	0x365120ba	3.1162476e-06
32	0x344e94bb	1.9239353e-07
33	0x349eb8eb	2.956434e-07
34	0xb5399ad5	-6.914318e-07
35	0x349d6458	2.9316539e-07
36	0x319f8362	4.6424455e-09
37	0x34940d49	2.7576814e-07
38	0x352a89d2	6.353049e-07
39	0x36284a4b	2.5077195e-06
40	0x357bae7d	9.37587e-07
41	0xb5e9adb7	-1.741041e-06
42	0x350a124d	5.143564e-07
43	0xb5cd3d5b	-1.5291547e-06
44	0x3490a9e8	2.6945713e-07
45	0x353ee85e	7.1118654e-07
46	0xb68fe387	-4.2882198e-06
47	0x35574f56	8.020919e-07
48	0x35a50629	1.2295251e-06
49	0x35ec0c7f	1.7587007e-06
50	0x33b3f520	8.379925e-08
51	0xb5978aa8	-1.1290731e-06
52	0xb5a2806d	-1.2107317e-06
53	0xb3061ff6	-3.1228375e-08
54	0xb521d210	-6.0282855e-07
55	0xb582bbf8	-9.740461e-07
56	0xb68253fe	-3.88408e-06
57	0x352d025e	6.4450967e-07
58	0xb4adc9ff	-3.2370733e-07
59	0x363751a0	2.7316637e-06
60	0x35a4f5de	1.2290509e-06
61	0x342d3ba1	1.6133573e-07
62	0xb466616b	-2.145586e-07
63	0xb44e58b8	-1.9217521e-07

backbone.9.weight f4 [64]
0	0x3f7d6560	0.9898281
1	0x3f7f198f	0.99648374
2	0x3f77721d	0.966585
3	0x3f7d54df	0.9895763
4	0x3f799691	0.9749537
5	0x3f7a21ba	0.9770771
6	0x3f7a0dc7	0.9767727
7	0x3f8000ce	1.0000246
8	0x3f8542ef	1.0411052
9	0x3f7aeadc	0.98014617
10	0x3f7b2ce8	0.98115396
11	0x3f8007f4	1.0002427
12	0x3f813620	1.0094643
13	0x3f82d561	1.0221368
14	0x3f81466a	1.0099614
15	0x3f7f7fd9	0.99804455
16	0x3f7a19d3	0.97695655
17	0x3f80248b	1.0011152
18	0x3f8046a9	1.0021564
19	0x3f7afb76	0.9803995
20	0x3f766f4d	0.9626358
21	0x3f7585dc	0.9590738
22	0x3f80952e	1.0045526
23	0x3f788110	0.97071934
24	0x3f7b9ffd	0.98291
25	0x3f74c941	0.9561959
26	0x3f7a1ae2	0.9769727
27	0x3f801f4f	1.0009555
28	0x3f7f0859	0.9962211
29	0x3f7dfb12	0.9921123
30	0x3f7f5f7c	0.9975507
31	0x3f806198	1.0029783
32	0x3f76fa70	0.9647589
33	0x3f80d9bd	1.0066448
34	0x3f7b8668	0.9825196
35	0x3f7cfa35	0.98819286
36	0x3f780051	0.9687548
37	0x3f78e7bc	0.972286
38	0x3f84b8ec	1.0368934
39	0x3f7c34fe	0.9851836
40	0x3f7ea8f9	0.9947658
41	0x3f82336a	1.017194
42	0x3f80f085	1.0073401
43	0x3f82a899	1.0207702
44	0x3f81b892	1.0134451
45	0x3f804a3f	1.0022658
46	0x3f839dff	1.0282592
47	0x3f81983b	1.0124582
48	0x3f7803a0	0.9688053
49	0x3f81b5a8	1.0133562
50	0x3f762a9e	0.9615878
51	0x3f7e10d5	0.99244434
52	0x3f7bb153	0.9831745
53	0x3f7dc2da	0.99125445
54	0x3f75fde7	0.9609055
55	0x3f844913	1.03348
56	0x3f7bf993	0.98427695
57	0x3f7ba267	0.9829468
58	0x3f7f9767	0.99840397
59	0x3f80ac97	1.005267
60	0x3f7f652e	0.9976376
61	0x3f78dae1	0.9720898
62	0x3f812def	1.0092143
63	0x3f7c4ee9	0.9855791

backbone.9.bias f4 [64]
0	0xbbcaea19	-0.0061924574
1	0x3bac61cb	0.0052606813
2	0xbcd33610	-0.025782615
3	0x3bae4a26	0.005318898
4	0xbc63c0d6	-0.013900956
5	0xbc4fe791	-0.012689487
6	0xbb5f8da1	-0.0034111517
7	0xbc4a70a3	-0.012355956
8	0xbc0315eb	-0.008000831
9	0xbcef403c	-0.029205434
10	0x3c3f2878	0.011667363
11	0x3b4c68ed	0.003119047
12	0xbafe9c5d	-0.0019425262
13	0xbb1583a4	-0.002281406
14	0x3c937982	0.018002275
15	0xbc6b5aa0	-0.014364868
16	0x3c284463	0.010270211
17	0xbc594cbe	-0.013262926
18	0x3ad5e2b8	0.0016318178
19	0xbbfbe430	-0.007687114
20	0xbce345cc	-0.027743243
21	0x3a96acc6	0.0011495582
22	0xbc9998b6	-0.018749576
23	0xbcc13781	-0.023586037
24	0xbcafe445	-0.021471152
25	0xbc4e9592	-0.0126089025
26	0xbbb9ddc4	-0.0056721885
27	0xbd0883ef	-0.033328947
28	0xbc6f54c6	-0.014607614
29	0x3b530bd4	0.0032203095
30	0xbc8a52a1	-0.016885104
31	0x3c8ca82e	0.017170038
32	0xbc8e2830	-0.017353147
33	0xbb18a941	-0.0023294243
34	0xbcc2c33d	-0.023774737
35	0xbbb16722	-0.0054139057
36	0xbcd62175	-0.026139
37	0xbcae416a	-0.021271426
38	0x3bdfa342	0.006824882
39	0xbc489f5c	-0.0122450255
40	0xbc0ecbe0	-0.0087156
41	0xbd364320	-0.04449761
42	0x3b7610fa	0.003754674
43	0xbc36dc3d	-0.011160907
44	0xbc0dfd76	-0.008666387
45	0x3bbf2182	0.005832852
46	0xbcc2f465	-0.023798177
47	0xbbba0f6b	-0.0056781075
48	0xbc4aced8	-0.012378417
49	0x3c62070c	0.013795625
50	0xbbc7d7ce	-0.006098724
51	0xbc5ea286	-0.013588553
52	0xbcdd6b34	-0.027028657
53	0xbc829987	-0.015942348
54	0xbcd97a82	-0.026547674
55	0x3cd37795	0.025813857
56	0xbb450d3a	-0.0030067698
57	0xbb9e1638	-0.004824426
58	0xbcc6f3fc	-0.024286263
59	0xbad3afa1	-0.0016150364
60	0xbb43208b	-0.0029774036
61	0x3bec16a0	0.0072048455
62	0xbad01ddc	-0.0015878039
63	0x39916fc0	0.00027739815

backbone.9.running_mean f4 [64]
0	0xbf53fed6	-0.82810724
1	0xbf184880	-0.59485626
2	0x3db76249	0.08954293
3	0xbf470aab	-0.77750653
4	0xbebe2012	-0.37133843
5	0xbf5f5367	-0.87236637
6	0xbf107f60	-0.5644436
7	0xbf9f18d1	-1.2429448
8	0xbf86ff24	-1.0546613
9	0x3e3e8d15	0.18608506
10	0x3e515057	0.20440803
11	0xbedaa3a1	-0.42702964
12	0xbf62ceae	-0.8859662
13	0xbf3e46bc	-0.7432668
14	0xbf1b539d	-0.6067446
15	0xbf32c2d9	-0.69828564
16	0xbf962b13	-1.1731895
17	0xbe67cd6f	-0.2263696
18	0xbde7fc71	-0.11327446
19	0xbf1aefad	-0.60521966
20	0xbf33fd2c	-0.70308185
21	0xbfa2038d	-1.2657334
22	0xbe7c092f	-0.24612878
23	0xbf1d696a	-0.61488974
24	0xbf1a602e	-0.6030301
25	0x3da8f737	0.082502775
26	0xbda60add	-0.08107541
27	0xbed31d9e	-0.41233534
28	0xbe95f659	-0.2928951
29	0xbf77fc1e	-0.96869075
30	0xbfa887b9	-1.3166419
31	0xbea66630	-0.32499838
32	0x3e7815e7	0.24227105
33	0xbefa94cc	-0.48941648
34	0xbea5c7be	-0.32378954
35	0xbdbcd723	-0.092207216
36	0x3ed50765	0.41607204
37	0xbeb2bc52	-0.34909302
38	0x3d8321a7	0.06402903
39	0xbe821e07	-0.25413534
40	0x3eaf1a0e	0.34199566
41	0xbe1ba768	-0.15200579
42	0xbed1cddd	-0.40977374
43	0x3ca2ec4a	0.019888062
44	0x3daf4daa	0.08559735
45	0xbe8bb313	-0.2728506
46	0xbf63c117	-0.88966507
47	0xbeb383dd	-0.3506154
48	0xbf0274aa	-0.50959265
49	0xbe6d62a7	-0.23182164
50	0xbf6ee52d	-0.93318444
51	0xbf869ae9	-1.0516025
52	0x3e865583	0.26237115
53	0xbf77326c	-0.9656131
54	0xbe95d191	-0.2926145
55	0x3e57dd6f	0.21080564
56	0x3f1fe165	0.624533
57	0x3f50ef9a	0.816156
58	0x3d375b97	0.04476508
59	0xbe57f9a1	-0.2109132
60	0xbf9300ca	-1.1484616
61	0x3e645450	0.22297788
62	0xbf4bf26f	-0.796668
63	0xbf9696b1	-1.1764737

backbone.9.running_var f4 [64]
0	0x3f12b802	0.57312024
1	0x3f8fc9da	1.1233475
2	0x3f22b257	0.63553375
3	0x3ebe2a07	0.3714144
4	0x3f5c055b	0.8594567
5	0x3f7fb98f	0.99892515
6	0x3f235336	0.63798845
7	0x3f4cc3e0	0.7998638
8	0x3ef7778f	0.48333403
9	0x3f0b8658	0.5450187
10	0x3f09aa8a	0.53775847
11	0x3ee78b7f	0.45223615
12	0x3f1a79ad	0.6034191
13	0x3ee4b67e	0.4467048
14	0x3f3deea9	0.7419229
15	0x3f3ef46b	0.745917
16	0x3f09db25	0.53850013
17	0x3eb33bc7	0.35006544
18	0x3eb7d783	0.3590661
19	0x3f0ff7e8	0.5623765
20	0x3ef1999f	0.47187516
21	0x3f40b9ed	0.752837
22	0x3ebcdebd	0.36888686
23	0x3f23dccf	0.640088
24	0x3f01e47c	0.50739264
25	0x3f7d096d	0.9884251
26	0x3eac16cc	0.33611143
27	0x3e90ee13	0.28306636
28	0x3f0bc149	0.54591805
29	0x3f24064c	0.6407211
30	0x3f2ded34	0.6794007
31	0x3eea27b7	0.45733425
32	0x3f636d67	0.8883881
33	0x3f00cfcb	0.50317067
34	0x3f32a319	0.6978012
35	0x3fcc370a	1.5954297
36	0x3fbbc75e	1.4670217
37	0x3f62c5b4	0.8858292
38	0x3ee3fd1a	0.4452904
39	0x3eb33428	0.3500073
40	0x3f9a1c53	1.2039894
41	0x3effb65b	0.49943814
42	0x3f3880fb	0.7207181
43	0x3eca236a	0.39480144
44	0x3ed48b97	0.4151275
45	0x3eaeae3b	0.34117302
46	0x3eda28b4	0.4260918
47	0x3ee173d8	0.44033694
48	0x3f1be7dc	0.60900664
49	0x3ef8bde5	0.48582378
50	0x3f429ec7	0.76023525
51	0x3ec9a885	0.39386383
52	0x3ecf93c0	0.40542412
53	0x3e902de0	0.2816
54	0x3f7d3c30	0.98919964
55	0x3f01da79	0.5072399
56	0x3f370ed4	0.71507
57	0x3f8fe253	1.1240944
58	0x3f24e275	0.64408046
59	0x3efec79e	0.4976167
60	0x3f894dc1	1.0726854
61	0x3ee3c8cb	0.4448913
62	0x3fb51067	1.4145631
63	0x3fb9a81d	1.4504429

backbone.12.weight f4 [128, 64, 3, 3]
0	0xbb7656d5	-0.0037588377
1	0x3d015e8d	0.03158431
2	0x3ba4d032	0.0050297016
3	0x3d2d157f	0.04225683
4	0x3c9c3ede	0.019072946
5	0x3bf0e20e	0.0073511666
6	0x3b44ceee	0.0030030566
7	0xbda9c455	-0.082894005
8	0xbcc780a8	-0.02435334
9	0xbbe3b9c6	-0.006949636
10	0x3df1ff3f	0.118162625
11	0x3c9cec4d	0.019155646
12	0xbd485c8a	-0.048916377
13	0xbc20af52	-0.009807425
14	0xbaf80c5e	-0.0018924584
15	0xbbe9e115	-0.0071374276
16	0xbc32cd55	-0.010913213
17	0x3c873e88	0.01650931
18	0xbc47bdc3	-0.012191239
19	0xbd3da90a	-0.046303786
20	0x3d8cf30f	0.06882297
21	0xbd0989ee	-0.033578806
22	0x3ce40bf8	0.027837738
23	0xbc29ec3d	-0.010371265
24	0xbcc842cd	-0.024445916
25	0x3d7568e6	0.059914492
26	0xb9a15d76	-0.00030777947
27	0x3c369f61	0.011146397
28	0x3b5f49c6	0.0034071072
29	0xbd1d45fd	-0.038396824
30	0x3c419639	0.011815601
31	0xbd01a757	-0.03165373
32	0x3dbbb434	0.091652304
33	0xbd89f825	-0.06736783
34	0x3c0de771	0.008661137
35	0xbc0c6bb0	-0.008570597
36	0xbc9106b7	-0.017703397
37	0x3ac871cd	0.0015292704
38	0x3c2a30b9	0.010387593
39	0xbcc22dc0	-0.023703456
40	0xbd620f52	-0.05519039
41	0xbd51d4ff	-0.05122852
42	0xbc7c757a	-0.015408868
43	0xbc1ec607	-0.009690768
44	0xbcd89765	-0.026439378
45	0x3ce52163	0.027970022
46	0x3c9a46ad	0.018832529
47	0x3da56eba	0.0807776
48	0xbda45f32	-0.080259696
49	0xbd681013	-0.056655955
50	0xbc6acfb3	-0.014331746
51	0xbdc6d8fd	-0.09709356
52	0xbd8b2371	-0.06793869
53	0xbd5939a9	-0.053033505
54	0xbd416363	-0.047213923
55	0x3cb22609	0.021746652
56	0x3d5ae6d5	0.053442795
57	0x3cb826f2	0.022479508
58	0x3ba284b4	0.004959667
59	0xbd45f9bf	-0.04833388
60	0x3d2f6e4f	0.042829808
61	0x3a89d838	0.0010516709
62	0xbd0908c4	-0.033455625
63	0xbd864c97	-0.06557577
64	0xbd0b0682	-0.033941753
65	0x3d60c793	0.05487783
66	0x3ce3f249	0.027825492
67	0xbd1934c2	-0.03740383
68	0xbcd88ab7	-0.026433332
69	0xbd5f8e52	-0.054579087
70	0x3d814f3a	0.063139394
71	0x3c19249e	0.009347109
72	0x3de5c892	0.112198964
73	0x3d97eed6	0.07418601
74	0x3c9a125c	0.018807583
75	0xbc55d0cc	-0.013050269
76	0xbdb6be3a	-0.089230016
77	0xbde2cb8a	-0.11073978
78	0xbbc0203c	-0.0058632176
79	0xbd879690	-0.066205144
80	0xbc9156ea	-0.01774164
81	0x3c901808	0.017589584
82	0xbd0249a1	-0.0318085
83	0xbc6502b3	-0.013977694
84	0xba842e1c	-0.0010084542
85	0x3c3d147e	0.01154053
86	0xbb929c0b	-0.004474168
87	0x3d15cd63	0.036572825
88	0xbd7e3e1e	-0.06207096
89	0x3cb5459a	0.022127915
90	0xbb7d3d4e	-0.0038641277
91	0x3da09a34	0.07841912
92	0x3c0c500c	0.008564007
93	0x3c841e13	0.016127622
94	0xbd1161cc	-0.035493657
95	0xbd36717d	-0.044541825
96	0xbc6770b7	-0.014125994
97	0xbc4474a0	-0.011990696
98	0x3d6ea4c2	0.058262594
99	0xbc12e80e	-0.008966459
100	0x3d600236	0.05468961
101	0xbd0b111a	-0.033951856
102	0x3d0fdaaf	0.035120662
103	0x3d4a491b	0.049386125
104	0x3d6c6627	0.057714608
105	0xbd368e51	-0.044569317
106	0x3c2bf5d9	0.010495626
107	0x3de099e9	0.10966856
108	0xbc95600c	-0.018234275
109	0x3c4b827d	0.012421248
110	0xbce2ec05	-0.027700434
111	0x3c3c3b2d	0.011488718
112	0xbd2bf517	-0.041981783
113	0x3cf48214	0.029847182
114	0xbd3e0f06	-0.046401046
115	0x3c9e9b58	0.019361183
116	0x3d47083c	0.048591837
117	0x3c307de1	0.010772199
118	0xbd729527	-0.059224274
119	0xbbe0a7c6	-0.0068559377
120	0x3b8499c0	0.0040466487
121	0x3b249f0c	0.0025119213
122	0xbc0b7e91	-0.0085140625
123	0x3bdac008	0.006675724
124	0xbc8b6a85	-0.017018566
125	0xbe0eb895	-0.139376
126	0xbbd18239	-0.0063936976
127	0xbcde1eac	-0.027114235
128	0x3d03e373	0.032199334
129	0x3d66417d	0.0562148
130	0xbd436f33	-0.04771347
131	0xbd279752	-0.040915795
132	0xbd3581e0	-0.04431331
133	0xbd4d0d24	-0.05006136
134	0x3c953162	0.018212024
135	0x3add293f	0.0016873254
136	0xbd457a0e	-0.048212104
137	0xbd5441e8	-0.051820666
138	0xbd54f790	-0.051993906
139	0xbcbcb406	-0.02303506
140	0x3d17bfff	0.037048336
141	0xbd75e8df	-0.060036536
142	0x3d502a13	0.050821375
143	0xbbb32a3c	-0.005467681
144	0xbbfa561b	-0.007639659
145	0x3d5edaef	0.05440801
146	0x3d41b043	0.047287237
147	0xbcea4031	-0.028595062
148	0xbd8965d0	-0.06708872
149	0x3cf14d20	0.029455721
150	0x3db76544	0.08954862
151	0xbd56dd72	-0.05245728
152	0x3d229640	0.03969407
153	0xbd3fe136	-0.046845637
154	0x3bff96a3	0.0077999397
155	0x3d45c553	0.048283886
156	0xbd158417	-0.036502924
157	0xbd9d9a6f	-0.076954715
158	0xbca4edde	-0.020132955
159	0xbbff84d5	-0.0077978172
160	0xbdb5b1db	-0.08871814
161	0xbce92447	-0.028459681
162	0xbce68edb	-0.02814429
163	0xbc11ced0	-0.008899406
164	0x3b9b5376	0.004740174
165	0xbda84fa1	-0.08218313
166	0xbbe38861	-0.006943748
167	0xbda82368	-0.08209878
168	0xbdc9c304	-0.098516494
169	0x3ba62750	0.0050706044
170	0x3c3f3495	0.011670251
171	0x3cda003f	0.026611445
172	0xbc90a77f	-0.017657993
173	0xbd017d9f	-0.031613942
174	0x3d092518	0.03348264
175	0xbacb9f2a	-0.0015535105
176	0x3c0cd4f3	0.008595693
177	0x3d95fff7	0.07324212
178	0x3c23996e	0.009985311
179	0x3d2bc290	0.041933596
180	0x39cba991	0.00038845514
181	0x3d219e26	0.039457463
182	0xbcbdd824	-0.023174353
183	0xbcb9a14f	-0.022659926
184	0x3c852ed0	0.016257674
185	0x3d2eec7a	0.04270599
186	0x3d49782c	0.04918687
187	0xbbd5e5bd	-0.006527631
188	0x3a5df309	0.0008466696
189	0xbc93031d	-0.01794582
190	0xbcd4b223	-0.025963848
191	0x3c9e056e	0.019289698
192	0xbd872afc	-0.065999955
193	0xbd3f211b	-0.04666243
194	0x3dbd90c7	0.0925613
195	0x3c7d3800	0.015455246
196	0xbac12ef1	-0.0014738721
197	0xbd70b170	-0.058762968
198	0xbcfd6c79	-0.030935513
199	0x3d3874c1	0.04503322
200	0x3bd742c2	0.0065692374
201	0xbdc05302	-0.093908325
202	0xbc9a2551	-0.018816622
203	0x3bbcebab	0.0057653985
204	0x3c2f7854	0.010709841
205	0x3caabe2d	0.020842636
206	0x3d1851f6	0.03718754
207	0xbd470ef7	-0.048598256
208	0xbc73b32f	-0.014874264
209	0x3d27eb31	0.04099578
210	0x3d4bcb96	0.0497547
211	0xbc6fa238	-0.014626078
212	0xbd0cc738	-0.034369677
213	0xbb0986d8	-0.0020984914
214	0xba36953f	-0.00069649884
215	0xbd5e5fd3	-0.054290604
216	0x3c3f7cf9	0.011687511
217	0xbc80eb41	-0.015737178
218	0xbce6aefa	-0.028159607
219	0xbdcd91bf	-0.100375645
220	0xbcc275bc	-0.02373778
221	0x3c99a4ad	0.018755281
222	0x3d15392a	0.03643147
223	0xbd1d34f6	-0.038380586
224	0xbce97133	-0.02849636
225	0xbcf196d3	-0.029490864
226	0x3bc5077b	0.0060128546
227	0x3ba4ebdb	0.005032999
228	0x3d6164f0	0.055027902
229	0x3cc78f85	0.024360428
230	0xbbe71ba1	-0.007052854
231	0x3d13d0e3	0.03608788
232	0xbd45887e	-0.048225872
233	0xbb61dd59	-0.003446421
234	0x3dac6d91	0.08419336
235	0x3d2fdf0f	0.042937335
236	0x3d2c68d4	0.04209216
237	0xbc3f4381	-0.011673809
238	0x3c8be3af	0.017076341
239	0xbd059404	-0.03261186
240	0xbc8bdacb	-0.017072102
241	0xbd65c9e2	-0.056100734
242	0x3cc26beb	0.0237331
243	0x3cce30fa	0.025169838
244	0x3d110f18	0.035414785
245	0x3bd18143	0.006393583
246	0xb916249e	-0.00014318756
247	0xbbc51685	-0.0060146474
248	0x3c0f222a	0.008736173
249	0x3c0dccd0	0.008654788
250	0x3d05fa44	0.032709375
251	0x3c94edbc	0.018179767
252	0x3b4f9721	0.0031675773
253	0xbd887bef	-0.066642635
254	0xbdc4355a	-0.095804885
255	0xbbd09b39	-0.00636616

backbone.12.bias f4 [128]
0	0xb4c30e36	-3.633192e-07
1	0xb38947ae	-6.392598e-08
2	0xb4806821	-2.3917622e-07
3	0xb3bfa9df	-8.92503e-08
4	0x348cf03b	2.6251823e-07
5	0xb44c12a0	-1.9005756e-07
6	0x33cef455	9.637066e-08
7	0x3468f0ac	2.169424e-07
8	0xb5813da9	-9.629194e-07
9	0xb528a98d	-6.2831606e-07
10	0xb3b3e4bf	-8.376946e-08
11	0x344cdac0	1.9078561e-07
12	0x348d2b4b	2.6294796e-07
13	0x35087814	5.0838685e-07
14	0xb2d4cd82	-2.4773502e-08
15	0x3405fa50	1.2477653e-07
16	0xb49040e0	-2.6869293e-07
17	0x3202be9f	7.610338e-09
18	0xb4e28db9	-4.2198897e-07
19	0x32bdae3a	2.2081725e-08
20	0x33ec7e15	1.10125406e-07
21	0x33be4c0b	8.8613966e-08
22	0xb54e15ce	-7.677271e-07
23	0x33b02374	8.2020875e-08
24	0x3588e17a	1.0198412e-06
25	0x3451ab64	1.9526993e-07
26	0x34a89515	3.140091e-07
27	0x34e224c3	4.2122528e-07
28	0x330779ec	3.1543024e-08
29	0x341030c3	1.3428784e-07
30	0xb48d4a97	-2.6317568e-07
31	0x34c8e724	3.742108e-07
32	0xb464c875	-2.130708e-07
33	0xb405c33d	-1.2457618e-07
34	0x34b58e96	3.3817622e-07
35	0x357cadad	9.4130047e-07
36	0x338130eb	6.015929e-08
37	0xb2b15259	-2.064296e-08
38	0x34cf3152	3.859264e-07
39	0x35abe101	1.2805978e-06
40	0x339f818d	7.4275796e-08
41	0xb508e275	-5.0993486e-07
42	0xb3fa9380	-1.1668362e-07
43	0x343e011e	1.7695535e-07
44	0x347746e2	2.3029455e-07
45	0xb3982088	-7.083969e-08
46	0xb43255b7	-1.6608725e-07
47	0xb32e67d1	-4.0606952e-08
48	0xb4a8a29e	-3.1410758e-07
49	0x33ecf4bb	1.10341226e-07
50	0x3195cb98	4.3596167e-09
51	0xb593c2a0	-1.1008997e-06
52	0xb3e87ed3	-1.0826411e-07
53	0xb2d227ea	-2.4465368e-08
54	0x35884a46	1.0154406e-06
55	0x339651bc	6.999787e-08
56	0xb43b3a01	-1.7436834e-07
57	0x3506fd8b	5.0287844e-07
58	0xb382f04b	-6.097306e-08
59	0xb28327da	-1.526853e-08
60	0xb50587d1	-4.9744e-07
61	0x343f6d02	1.7827918e-07
62	0xb3e8650c	-1.0821722e-07
63	0x3351bd23	4.8833623e-08
64	0xb5998d46	-1.1440504e-06
65	0x33292216	3.937938e-08
66	0x3467a9dc	2.1575346e-07
67	0xb30196a7	-3.017217e-08
68	0x33172112	3.5187504e-08
69	0xb5704a81	-8.9515385e-07
70	0x33ebf258	1.0987122e-07
71	0xb4a6fe5e	-3.1104986e-07
72	0xb44d6e20	-1.9132176e-07
73	0x338b3866	6.482951e-08
74	0xb562590b	-8.4321135e-07
75	0x35d15059	1.5595098e-06
76	0x31444122	2.8558778e-09
77	0xb48df71c	-2.6443092e-07
78	0x3360add8	5.2312174e-08
79	0x34d1b3bc	3.9060058e-07
80	0x348ec5fc	2.6593614e-07
81	0xb4a3d228	-3.0514025e-07
82	0x352c1dc5	6.4118314e-07
83	0xb5028cfa	-4.863392e-07
84	0x30a40f16	1.1936858e-09
85	0xb3de556d	-1.03532194e-07
86	0xb3e4d31a	-1.06554765e-07
87	0x33552162	4.962329e-08
88	0xb44bfcfd	-1.8997885e-07
89	0xb416b5c7	-1.4035969e-07
90	0x33e3934e	1.0597306e-07
91	0x33b5bd64	8.462919e-08
92	0xb49c66f9	-2.9132187e-07
93	0xb4cfb74f	-3.869013e-07
94	0x350aa51c	5.164927e-07
95	0xb15ef97f	-3.2447074e-09
96	0xb1884418	-3.9658623e-09
97	0x3337011b	4.2609013e-08
98	0x338b3c65	6.4836776e-08
99	0xb4558ef3	-1.9889175e-07
100	0x33451e26	4.5895057e-08
101	0xb43df24a	-1.7690141e-07
102	0xb466891d	-2.1470301e-07
103	0x33cb16ef	9.457096e-08
104	0xb3d4e56b	-9.91375e-08
105	0xb4a91795	-3.149586e-07
106	0x34d76edc	4.0127532e-07
107	0x3489da7a	2.56772e-07
108	0xb49f66cd	-2.9690855e-07
109	0x342f755d	1.6340842e-07
110	0xb2c6e66a	-2.3155014e-08
111	0xb426bc51	-1.5528464e-07
112	0xb55cb634	-8.2221527e-07
113	0xb4360897	-1.6953196e-07
114	0xb44271f7	-1.8109118e-07
115	0x35588edb	8.067415e-07
116	0xb2cc760d	-2.3802409e-08
117	0x32970ab2	1.7583577e-08
118	0x34a0eb5e	2.9973575e-07
119	0x3476398d	2.2931472e-07
120	0xb41a09e4	-1.4345966e-07
121	0xb4c9897a	-3.7539195e-07
122	0x336a5182	5.45565e-08
123	0x343fe766	1.7872443e-07
124	0xb3acd95f	-8.048914e-08
125	0x3532ff02	6.668125e-07
126	0xb3ea935a	-1.0923277e-07
127	0xb493a27b	-2.7499104e-07

backbone.13.weight f4 [128]
0	0x3f8235ec	1.0172706
1	0x3f7f837d	0.9981001
2	0x3f821d7a	1.0165246
3	0x3f8250e2	1.0180933
4	0x3f82851c	1.0196872
5	0x3f82c242	1.0215533
6	0x3f864401	1.0489503
7	0x3f80e02e	1.0068414
8	0x3f819c49	1.012582
9	0x3f816c88	1.0111246
10	0x3f7e3477	0.99298805
11	0x3f831d91	1.0243398
12	0x3f80392b	1.0017446
13	0x3f82eba1	1.0228158
14	0x3f8274dd	1.0191914
15	0x3f806e15	1.0033594
16	0x3f807242	1.0034869
17	0x3f814705	1.0099798
18	0x3f824167	1.0176209
19	0x3f84e12c	1.0381217
20	0x3f8382fd	1.027435
21	0x3f80773b	1.0036386
22	0x3f84a3d3	1.0362495
23	0x3f7f7012	0.9978038
24	0x3f8304af	1.0235804
25	0x3f829ddb	1.0204424
26	0x3f81e114	1.0146813
27	0x3f83f9da	1.0310624
28	0x3f832b60	1.0247612
29	0x3f7f74c7	0.99787563
30	0x3f84f19f	1.0386237
31	0x3f82ea83	1.0227817
32	0x3f865fb7	1.049796
33	0x3f8170f0	1.0112591
34	0x3f83b6d2	1.0290167
35	0x3f81d3b7	1.0142735
36	0x3f82e38f	1.0225695
37	0x3f817eaa	1.011678
38	0x3f816fa1	1.0112191
39	0x3f80dd03	1.0067447
40	0x3f82f5ad	1.0231224
41	0x3f811146	1.0083396
42	0x3f82323d	1.0171582
43	0x3f8334e7	1.025052
44	0x3f8437c2	1.0329516
45	0x3f824d6c	1.0179877
46	0x3f85536d	1.0416085
47	0x3f8261d4	1.0186105
48	0x3f8497d4	1.0358834
49	0x3f807b1f	1.0037574
50	0x3f857d0f	1.042879
51	0x3f817ca0	1.0116158
52	0x3f83cb25	1.029637
53	0x3f81a08d	1.0127121
54	0x3f8712a8	1.0552568
55	0x3f81f5ed	1.0153176
56	0x3f82ea2e	1.0227716
57	0x3f81bc2e	1.0135553
58	0x3f80bfae	1.0058496
59	0x3f8103b4	1.0079255
60	0x3f81b928	1.013463
61	0x3f80404c	1.0019622
62	0x3f81a211	1.0127584
63	0x3f815bd1	1.0106145
64	0x3f815add	1.0105854
65	0x3f818f03	1.0121769
66	0x3f7ff462	0.99982274
67	0x3f7f6255	0.9975942
68	0x3f802273	1.0010513
69	0x3f84221c	1.0322909
70	0x3f8181d2	1.0117743
71	0x3f81a6eb	1.0129064
72	0x3f81dd8a	1.0145733
73	0x3f831cbe	1.0243146
74	0x3f810496	1.0079525
75	0x3f839366	1.0279357
76	0x3f82f685	1.0231482
77	0x3f815759	1.0104781
78	0x3f79ecb7	0.97626823
79	0x3f803a7c	1.0017848
80	0x3f82c9b2	1.0217803
81	0x3f8127f6	1.009032
82	0x3f821e29	1.0165454
83	0x3f802955	1.0012614
84	0x3f7eb289	0.99491173
85	0x3f81bef1	1.0136396
86	0x3f804dcb	1.002374
87	0x3f83912b	1.0278677
88	0x3f840d8f	1.0316638
89	0x3f8155e9	1.0104343
90	0x3f812488	1.0089273
91	0x3f8173fc	1.0113521
92	0x3f82cfb1	1.0219632
93	0x3f80efa2	1.007313
94	0x3f80867e	1.0041044
95	0x3f82062e	1.0158136
96	0x3f83cbeb	1.0296606
97	0x3f834b14	1.0257287
98	0x3f7ff4f2	0.9998313
99	0x3f839b12	1.0281699
100	0x3f815f4f	1.0107211
101	0x3f8340c0	1.0254135
102	0x3f81e810	1.0148945
103	0x3f822170	1.0166454
104	0x3f81482c	1.010015
105	0x3f815855	1.0105082
106	0x3f848de2	1.0355799
107	0x3f7dd1ea	0.9914843
108	0x3f81416a	1.0098088
109	0x3f81df05	1.0146185
110	0x3f81a931	1.0129758
111	0x3f8033b7	1.0015782
112	0x3f824c46	1.0179527
113	0x3f7ff4b8	0.99982786
114	0x3f80de9e	1.0067937
115	0x3f840dd0	1.0316715
116	0x3f821c00	1.0164795
117	0x3f7f4ffd	0.9973143
118	0x3f830b63	1.023785
119	0x3f8a29d0	1.079401
120	0x3f81fbd5	1.0154978
121	0x3f80c94f	1.0061435
122	0x3f7e497e	0.9933089
123	0x3f82ccb9	1.0218726
124	0x3f848768	1.0353823
125	0x3f824d40	1.0179825
126	0x3f837a44	1.0271688
127	0x3f81457d	1.0099331
