models/osu_model.pth (torch, 438671 bytes, 28 tensors)

backbone.0.weight f4 [16, 3, 3, 3]
00000000: 5427 a7bd 2da9 093e e0ac 5dbe 92c2 ebbd
00000010: ca2e 43bd f562 1a3e e586 433c e3f7 42be
00000020: dd66 8a3d 19ed 95bd 774f 75bd 447a e43d
00000030: cf66 bdbc 572c bcbd 0c83 25bd b5e8 e2bd
00000040: 5dfb 69be fb16 8dbc 876a 0c3e 94fa 86bc
00000050: a33b 1bbd 3af9 a7bd 3f14 d9bd 3c34 66bc
00000060: 5686 cc3c 6fa6 0a3e 85af 173d dfbd 18bd
00000070: 8a46 b63c 4056 423d 9917 06be 7e47 413d
00000080: c8f4 6abe fee8 f03d a88d 48bc 3165 d7bc
00000090: 252a 933d d1b4 503e 64f5 033c 127e 39bc
000000a0: f596 183d 1792 00be a841 bebd c823 55bd
000000b0: 7ad4 7f3d a5c1 0bbe 4210 d5bd ff04 a83b
000000c0: 06dd 99bd 1d50 39be 3880 fabd 3e50 d53c
000000d0: cb12 71be ca3c aebd 3fde 3bbc 5916 1db8
000000e0: b8f1 9cbd 424e 9f3e ecde 013e 4faf 8b3d
000000f0: c959 503e dd68 1b3d d9b4 95bd 0c01 50bc
00000100: 2ba9 f83d 6cd1 a5bd 8f87 febd 09c9 58bd
00000110: 1a40 c83d 10d0 4a3d 24f9 2dbe 9e04 3bbe
00000120: e48d c53d eece a43c b7d2 9fbd 8f7d b33d
00000130: f6e0 34be 2662 5d3d a382 293c 3ebd d5bc
00000140: 27bd 48be 4f2a 25bc 4922 c63c 893e 033a
00000150: 6a77 24bc b846 19be e198 d53c 556c 693d
00000160: d934 1dbd 7d10 3ebe d675 cdbd c6d6 10be
00000170: 1599 87bd d4df 8d3c 6556 18be 69d3 e33c
00000180: ca55 89bd a246 973d 4664 21bd 73d1 7a3d
00000190: 3dcc 243e 0a59 92bd 48ea b4bc bbdd efbc
000001a0: d61e dabc d483 ad3b d797 15bd e086 cdbd
000001b0: 4349 0abe d9f8 113e 6f30 223e 3df1 373e
000001c0: d7bf b63b 5dc3 7a3d e781 97bd 4085 a63d
000001d0: 2ffe 87bd 9cee 853d 965a 0f3d c010 84bd
000001e0: db3e d5bd 5fee a83d 0ae1 77bc d9ea 17be
000001f0: 8582 d0bb a94c 353d 97ab 5c3e ff73 f9bd
00000200: b455 973d b8e1 d9bc d2f8 62bd e430 b7bd
00000210: fb7f 6cbe af1a d9bd 8090 1c3e 6a4e 37bb
00000220: 48cf 2f3e 391c 883e 718f 46be 6c39 7fbb
00000230: e891 5cbe d21c ce3b 27be f0bc 9dd7 313e
00000240: 19df bebd 0bd9 c9bb 18d1 85bd 415e 8a3d
00000250: 7d82 c33d 9ffb bc3c bdfb a6bd 8cc1 9abc
00000260: a143 e23d 52a9 77bd f0c1 7b3d ad0a 52bc
00000270: 2f1e 3ebc f480 fcbd 0c4c a4bb c620 b3bd
00000280: faf1 46bc c82d 5c3e 55d3 1bbd a0f0 27be
00000290: 812c fabd ce81 c6bd 4abd ec3d 5193 9fbd
000002a0: 2c0c 283d a4f4 253b b74a 843d f5b0 aa3e
000002b0: fc69 f43d 6b36 61be 4710 4cbe 6165 013d
000002c0: 9ba4 aebd 2bd3 373d 2a5f 3f3e 3e41 143d
000002d0: 4df2 a9bd f2ca 0dbc 466f bcbc 84d4 3a3e
000002e0: 68f8 403d 323d 0dbe c6cd 9e3d e99c 84be
000002f0: 72f1 9a3d 55ea 163e cba3 8dbd b273 7f3d
00000300: 4886 82bd e55a cdbc 7f76 a53d 0207 eebc
00000310: e532 6cbd ed02 9bbc ffd3 793e 51f1 13be
00000320: 9097 fa3d 505b 843c d360 99ba 2416 71bd
00000330: 5ee9 f73c 8537 d8bd 2d44 b43d d4fd 5fbd
00000340: e658 083e 6d8a 1ebc 098b d6bc 9131 35bc
00000350: 2137 113e f50c c0bd cbaa 9f3d db0f d63d
00000360: 2ddb c73d 13be 933c b781 efbd e3a8 a33c
00000370: 4895 103e 1938 a1be afab 7b3e 90ed f43d
00000380: 57ff 0dbc 8024 803c a150 59be c90e e5bd
00000390: c79d ac3b 574b da3d db07 2d3e 4f84 92bd
000003a0: 5c47 69bd 7874 85be f2d1 863d 3565 83be
000003b0: 4c0e 34be a501 e23c def5 383d 6e4c adbc
000003c0: 019f 9abc b58d b03c fa36 6e3d 860d 6d3c
000003d0: a68f 93be d260 de3b 4ca5 393d 4eb4 053e
000003e0: 070c 3ebe 6f35 5f3d 45d5 d7bd 8171 01be
000003f0: 9a50 f93d db0e 343e 2a84 bf3d 5ad9 3d3c
-0.08161798 0.13443442 -0.21647978 -0.11511721 -0.047652043 0.15076812 0.011934017 -0.19039874
0.06757901 -0.073206134 -0.059890237 0.11156133 -0.023120312 -0.09188145 -0.04040818 -0.110795416
-0.22849794 -0.017222872 0.13712512 -0.016476907 -0.03789867 -0.08201833 -0.10599565 -0.01405054
0.0249664 0.13540052 0.037032623 -0.03729045 0.022250433 0.047445536 -0.1309494 0.04718732
-0.22944939 0.1176319 -0.012240805 -0.026293369 0.07185773 0.20381476 0.008054111 -0.011321561
0.03725334 -0.12555729 -0.09289867 -0.052036077 0.062458493 -0.13648088 -0.104034916 0.0051275487
-0.0751286 -0.18096967 -0.12231487 0.026039239 -0.23542325 -0.08507688 -0.011466562 -3.745253e-05
-0.07663292 0.31114393 0.12682694 0.06820547 0.2034675 0.037941802 -0.073098846 -0.012695562
0.12141641 -0.08096585 -0.124281995 -0.052926097 0.097778514 0.04951483 -0.16989571 -0.1826348
0.09646204 0.020118203 -0.078038625 0.08764183 -0.17663941 0.05404868 0.010346088 -0.026091214
-0.19603406 -0.010080888 0.02418627 0.0005006572 -0.010038236 -0.14968383 0.026073875 0.05698808
-0.038380478 -0.18560977 -0.10032241 -0.1414443 -0.06620995 0.017318644 -0.14876707 0.02781077
-0.06705816 0.07386519 -0.03940227 0.061234903 0.16093536 -0.07145889 -0.02208437 -0.029280534
-0.026626032 0.005295256 -0.03652176 -0.10035491 -0.1350451 0.14255084 0.15838788 0.17963119
0.0055770683 0.06122147 -0.07397824 0.08130884 -0.066402785 0.06539652 0.0349985 -0.06448507
-0.10412379 0.08248591 -0.015129337 -0.14835681 -0.0063632154 0.044262562 0.21549831 -0.121803276
0.073893934 -0.026596889 -0.055413075 -0.08944872 -0.23095696 -0.106007926 0.15289497 -0.0027970322
0.17168915 0.26584032 -0.19390656 -0.0038944138 -0.21540034 0.0062900567 -0.029387547 0.17367406
-0.09319896 -0.0061599067 -0.06534022 0.06756259 0.09546373 0.023069201 -0.08153484 -0.018891118
0.110480554 -0.06046421 0.06146425 -0.012819928 -0.011603876 -0.12329283 -0.0050139483 -0.087464854
-0.012142653 0.21501839 -0.03804334 -0.16400385 -0.1221552 -0.09692727 0.115595415 -0.0779177
0.041027233 0.002532282 0.06459563 0.33338133 0.119342774 -0.21993415 -0.19928084 0.031590823
-0.0852749 0.04487912 0.18688646 0.036195032 -0.08298168 -0.008654343 -0.023002278 0.18245131
0.0471119 -0.13792875 0.07754092 -0.25900963 0.07565583 0.14737828 -0.06916007 0.062366195
-0.06373268 -0.025067756 0.08079242 -0.029056076 -0.057665724 -0.018922294 0.24397276 -0.14447524
0.122359395 0.016156822 -0.001170183 -0.058859006 0.030262645 -0.105574645 0.08802066 -0.05468543
0.13315162 -0.009676558 -0.026189344 -0.011059181 0.14181186 -0.09377471 0.07796248 0.10452243
0.09758601 0.01803497 -0.11694663 0.019977992 0.14119446 -0.31488112 0.24577211 0.11959374
-0.008666835 0.015642405 -0.21222164 -0.11184461 0.005267832 0.10658901 0.16897528 -0.07154142
-0.05695282 -0.2606542 0.06583013 -0.25663152 -0.17583579 0.027588675 0.045156352 -0.021154609
-0.018874647 0.021551946 0.0581579 0.014468556 -0.28820533 0.006786444 0.045323655 0.13057062
-0.18559276 0.054494318 -0.10538725 -0.12640955 0.12173577 0.17583792 0.0935138 0.011587465

backbone.0.bias f4 [16]
00000000: f7bb dbb2 c1c0 96b4 a843 19b6 784a 1d35
00000010: ee3d a735 805e 8335 8ae2 aeb5 5dae 8035
00000020: 477d 08b5 1675 1cb4 2a27 a6b5 cd94 3db5
00000030: 4e9c 4e35 3d18 2ab6 c4ed 0835 db9c f732
-2.5580432e-08 -2.8079924e-07 -2.2838158e-06 5.8595424e-07 1.2460494e-06 9.787764e-07 -1.3029942e-06 9.58749e-07
-5.084625e-07 -1.4571228e-07 -1.2379362e-06 -7.062452e-07 7.6968433e-07 -2.5346083e-06 5.100994e-07 2.8825914e-08

backbone.1.weight f4 [16]
00000000: 1bc5 813f e6c3 7e3f 0736 803f 5992 7e3f
00000010: 23ba 7f3f e725 7f3f dd84 7b3f 179f 7e3f
00000020: 756b 803f 7ba9 7c3f 1624 793f eb9c 813f
00000030: bd94 7d3f 79c8 803f fbba 7b3f c3b8 7b3f
1.0138277 0.9951767 1.0016488 0.9944206 0.998934 0.9966721 0.9824961 0.994615
1.0032793 0.98696107 0.9732069 1.0126013 0.9905508 1.0061179 0.98332185 0.983288

backbone.1.bias f4 [16]
00000000: f173 31bb 64bb 1dbd 5f4d 6e3c c9e0 7fba
00000010: 5879 f3bb 20a3 b13c c584 c43c 1f13 023d
00000020: d91d fa3b b4b2 bb3c 4ef3 2f3c 4093 b63c
00000030: 0541 0b3d 0dd1 3dbc 645b a83a f233 713c
-0.0027077163 -0.038508788 0.014544814 -0.00097609736 -0.007430237 0.02168423 0.02398909 0.031756517
0.0076329526 0.02291236 0.010739161 0.022287011 0.033997554 -0.011585486 0.0012844619 0.014721857

backbone.1.running_mean f4 [16]
00000000: 29ef 3d3f 2322 423f 02c6 06be af98 403f
00000010: 7528 06be a2d9 37be e32b 143e e79d c4be
00000020: fe8d b53e 3247 00bf dcd8 363e 946d 96bb
00000030: 17db 84bf 3b76 573c f81e c1bd 00dd f5be
0.74193054 0.7583334 -0.13161471 0.75232977 -0.1310137 -0.17954114 0.14469866 -0.3840172
0.35459894 -0.50108635 0.17856163 -0.0045906994 -1.0379361 0.013150747 -0.09429735 -0.48020172

backbone.1.running_var f4 [16]
00000000: 354a 8c3f dc82 fd3f 089a fd3d de65 9b3f
00000010: bd1e 623d c2f6 113e 1ce4 e93d 9de9 e73e
00000020: e034 163f 6c7d 4a3f 1e85 373e d84d 9e3e
00000030: 36a6 3a40 d002 903d 11a8 4e3e 8357 a43e
1.0960146 1.980556 0.12382895 1.2140462 0.055205096 0.14254287 0.114204615 0.4529542
0.5867443 0.7909763 0.17921874 0.30918765 2.9163947 0.070317864 0.201813 0.32098016

backbone.4.weight f4 [32, 16, 3, 3]
00000000: 6f67 5e3c c26a 983d 460e c33c 7d82 113e
00000010: 8091 b9bd 63d1 8cbd a009 c83c b2bd 203d
00000020: 9f56 eebd 0112 1a3d 7a2e bdbd 6110 65bc
00000030: 8986 60bd 845b 043e 4817 b63d 0049 4f3d
00000040: d1cc 903d 4516 963d a0a2 0d3d f06e 9fbd
00000050: 9466 a23c 230f 2d3b 41c1 ce3c 9dce 2bbd
00000060: 6e1c aa3d 5ef0 e8bc eb68 15bd 7ec3 fcbd
00000070: 3d73 6dbb 0711 d83d ef22 24bd b687 21bc
00000080: ee98 68bd 3e1a 093d 7e95 9dbd 5031 b2bd
00000090: e18f 6cbd 8cfb fbbd 4e69 813d 0d57 0c3e
000000a0: 7d65 d7bd 90a2 54bd 03a9 9ebd ea17 dbbd
000000b0: 17af e2bd 77f3 ec3d 0ee3 ee3d 09bd 583d
000000c0: 3814 113e a8ca 56bd 27ca 9fbd b513 8ebc
000000d0: 9c6d 033c 1ea1 0cbd 0778 cc3d ff3e a6bb
000000e0: 2dde cc3d 42e5 ce3d 4018 ca3c c5a9 a03d
000000f0: 2f1a 2f3e a2c2 d9bd ea0a dfbd d599 e6bd
00000100: f574 09bb 401f c03d 7c4c 743d 6221 b53d
00000110: f074 d5bc 6218 213d 7b10 ecb9 d4c5 543c
00000120: c8cc 26be 3660 1cbb e8d4 2cbd 67a4 fe3d
00000130: 8632 033d 506a bfbd 7484 bcbd 85d2 a43c
00000140: b88d 15bc 5373 b53c e782 0abd 8770 283d
00000150: f37a 7cbc de97 ea3b 7655 813d 8a36 b8bd
00000160: 7e4a 3bbc c213 02be 0114 50bd b815 1f3d
00000170: fac6 a73d 8d26 ecbd 82b8 51be 106a 9abd
00000180: 3dfa 11be 788b 5e3d ae47 493d 9e2a a3bd
00000190: 3e36 88bc 96ad 963c c051 cabd 5457 bcbd
000001a0: 9bb0 c7bd 137f 78bc 1285 dc3c a807 f8bd
000001b0: 2ab6 6dbb a6c0 0abe 8fa3 ac3d 3ccc b4bd
000001c0: 2d2e ec3d 4b76 a23d 3d55 c53c bb77 d0bc
000001d0: 8f02 97bd becc b53d 410d 7cbc 4978 16bd
000001e0: 323e 023e c802 d93d 4e40 b7bc 4ed0 ddbb
000001f0: b660 0d3d 46fa b2bd 8fd1 31be c5d8 c1bd
00000200: c31f 9bbc 6385 173d 1b15 653d 11c1 d73d
00000210: 2f75 3cbd d350 06bd 7c2a 653d d2a4 3f3e
00000220: 5868 54bc 9b45 62bd d8d8 15bd 22e4 babd
00000230: 7caa d13c 41de dc3a 42ca bbbd 616b fc3c
00000240: eea0 babd 1069 21bd 5fe2 33be 1595 a83d
00000250: eb9f 793e fb14 c33b f16d 53bb 0d72 e1bd
00000260: 6a85 66bd e8ed 0a3d fa38 543c b51b 363d
00000270: a712 08be ae3c 6b3d c2a3 5d3e 692f a1bd
00000280: f1d6 143e 9ffc 323e d055 03bd f2f1 88bb
00000290: 9c31 883d d8c6 1dbe 01dd 6c3d 7a0c 0abd
000002a0: cc50 bf3d 969b c23d 6cba 1e3d 0759 02be
000002b0: 0d27 a03d 079a 1fbb f92b 0bbd e540 ed3c
000002c0: f11c 0bbd 85a1 923d 3141 f9bc 7f16 00be
000002d0: b69b 0abe 52ae a0bd be23 96bd 54ac 8c3b
000002e0: 2781 a7bd fbe9 ebbd caf1 eabd 80f1 e9bd
000002f0: 75bb 833c fd7e 443d 8931 9f3d a606 c43d
00000300: b9c5 9e3d 9979 1fbc fa64 10bd 508c 3fbc
00000310: e753 f4bc 8520 59bd 0db2 8ebd eba9 ffbd
00000320: 0c1d 6e3d 428d 373d eb0a 29bd 12f9 2abe
00000330: 956a a73d 908d 2e3e fd4f 063d 7df4 783c
00000340: 5c06 7cbd ddb6 62bd 87d4 023d 9aad 283d
00000350: 062a b1bd 6248 22bd 7e7c 6e3d 9f2a 3bbc
00000360: 2a38 e4bc 3469 753c a37c b63a 02ab 23bd
00000370: 3e94 683c 14b1 ac3d 6a3e 65bd 56fd f63c
00000380: c711 d13d 1463 a4bd 9822 5fbd 8a5d d9bd
00000390: 8dac f7bd b006 bf3b c00b b93d 8a2a 3d3d
000003a0: c9d5 563c f298 e43c c753 4cbc bcb7 6b3d
000003b0: ba89 cf3c 9c4f 923d 4369 41bd 14bb 4fbb
000003c0: d36a ad3d 4760 373c 5c25 ab3d 097e 9cbc
000003d0: ddc1 debd b2b8 d1bd 3f85 083e af1c 933d
000003e0: 698e b2bd 1885 973d 42f2 8b3d 5021 62bc
000003f0: 9e06 d7bd abe4 d33d 9faf 6a3b 9106 1dba
0.013574465 0.074422374 0.023810517 0.14209934 -0.09060955 -0.06875875 0.024418652 0.039243408
-0.116376154 0.037614826 -0.0923738 -0.013980956 -0.054815803 0.12925535 0.08891159 0.050606728
0.07070316 0.07328466 0.03457892 -0.077848315 0.019824304 0.0026406727 0.025238635 -0.04194509
0.08306204 -0.028434929 -0.03647701 -0.12341975 -0.0036232017 0.10550123 -0.040072378 -0.009859016
-0.05678647 0.033472292 -0.07694529 -0.08700812 -0.0577544 -0.12303838 0.063189134 0.13705082
-0.10517404 -0.051912844 -0.0774708 -0.106979206 -0.11068552 0.11569875 0.11664401 0.052914653
0.14167869 -0.05243936 -0.078022294 -0.017343381 0.008021738 -0.03433334 0.09983831 -0.0050734277
0.10003314 0.10102321 0.024669766 0.07844881 0.17099832 -0.106328264 -0.108907536 -0.1125981
-0.0020974253 0.093809605 0.059643254 0.08844258 -0.026056737 0.039329894 -0.00045025707 0.012986619
-0.16289055 -0.0023861057 -0.04219523 0.12433701 0.032030605 -0.093464494 -0.09204951 0.020119915
-0.009128027 0.022149717 -0.033816244 0.04112294 -0.015410173 0.0071592173 0.063151285 -0.089947775
-0.011431335 -0.1270285 -0.050800327 0.038839072 0.08192249 -0.115307905 -0.2048054 -0.07539761
-0.14255615 0.054332227 0.049140625 -0.07967113 -0.016627427 0.01839332 -0.09878874 -0.09196344
-0.09750482 -0.015167016 0.026918922 -0.12110835 -0.0036271908 -0.13550052 0.08429634 -0.08828017
0.11532245 0.07932719 0.024088496 -0.025447717 -0.07373535 0.08876942 -0.015384019 -0.036735807
0.12719038 0.105962336 -0.02236953 -0.0067692166 0.03451606 -0.08739142 -0.17365097 -0.09465174
-0.018936044 0.036992442 0.05592833 0.10534871 -0.046010192 -0.032791924 0.05594872 0.18715218
-0.012964331 -0.055242162 -0.03658375 -0.09125544 0.025593989 0.0016850905 -0.09169437 0.030812921
-0.09112726 -0.039406836 -0.17566822 0.0823156 0.2437741 0.005953429 -0.0032261575 -0.110080816
-0.056279577 0.03391829 0.012953037 0.044460017 -0.13288365 0.057430916 0.216445 -0.07870371
0.14535119 0.1747918 -0.03206426 -0.0041792328 0.06650087 -0.15407884 0.057827953 -0.033703305
0.09341583 0.09502332 0.038752005 -0.12729274 0.07819948 -0.0024353282 -0.033977482 0.028961608
-0.033963148 0.07159714 -0.030426593 -0.12508582 -0.13535962 -0.07845749 -0.07331036 0.004293004
-0.08178931 -0.115192376 -0.11471899 -0.114230156 0.016080597 0.047972668 0.0777312 0.095715806
0.07752556 -0.009733581 -0.03525255 -0.011691168 -0.029825164 -0.05300953 -0.06967554 -0.12483581
0.05813317 0.04481245 -0.041270178 -0.16696575 0.08174626 0.1704619 0.032791127 0.015195009
-0.061529502 -0.055350173 0.031940963 0.041181184 -0.086505935 -0.03961981 0.058224194 -0.011423736
-0.027858812 0.014978696 0.0013922643 -0.039958008 0.0141955 0.084322125 -0.055967726 0.030150097
0.10208469 -0.0802671 -0.05447635 -0.10613544 -0.12093458 0.0058296546 0.09035444 0.046183147
0.013112494 0.027904961 -0.012471146 0.05754827 0.025334228 0.071440905 -0.047219526 -0.00316972
0.08467641 0.011192388 0.08356735 -0.019103067 -0.1087682 -0.10240306 0.1333208 0.07183205
-0.08718569 0.073984325 0.068333164 -0.013801888 -0.10499309 0.10346349 0.0035810245 -0.0005990053

backbone.4.bias f4 [32]
00000000: d428 0134 57e8 3ab4 92cb 1ab4 046f 0b35
00000010: 5b6d 8b34 6956 2234 50ca 8ab3 7831 1c35
00000020: 596d 8234 b692 a533 b7f8 bab3 db12 1434
00000030: a6fb 7db3 1e9f 1434 e09e 8fb3 10b3 9a34
00000040: 6b18 7834 ab76 84b4 eefd 6334 19a1 88b4
00000050: 7f7a aa34 17f4 f9b3 2a0f e133 f1e4 c9b4
00000060: 47ca a833 3b12 b034 e3cb ed33 7f5c 1d33
00000070: ecc9 6434 765d 5c34 2d34 cd34 cd8c ac33
1.2028914e-07 -1.7407125e-07 -1.4416426e-07 5.1943084e-07 2.5970334e-07 1.5118862e-07 -6.462926e-08 5.8186515e-07
2.4293948e-07 7.710098e-08 -8.706541e-08 1.3790434e-07 -5.9135026e-08 1.384146e-07 -6.6878556e-08 2.881502e-07
2.3105683e-07 -2.4673258e-07 2.1233402e-07 -2.5449188e-07 3.1754095e-07 -1.1639366e-07 1.0480137e-07 -3.7605744e-07
7.859904e-08 3.279582e-07 1.1073259e-07 3.6638536e-08 2.1307613e-07 2.0523098e-07 3.8222188e-07 8.034986e-08

backbone.5.weight f4 [32]
00000000: 9942 813f 2197 7f3f 33d4 7a3f 9ddf 803f
00000010: f71a 7b3f 47fa 7a3f 8893 7c3f cb87 7b3f
00000020: 4d67 7f3f 548e 7e3f a7e4 7d3f 7842 7a3f
00000030: 98fe 7a3f 8e16 7d3f 8fee 793f f67d 7e3f
00000040: a7b7 793f 54a0 7b3f cc04 813f 77c7 7a3f
00000050: 4e9a 813f 51a4 7b3f de52 803f 7427 823f
00000060: eeeb 7f3f 8f60 803f 6f9c 813f 28f9 773f
00000070: 4fb8 7e3f 3719 7b3f 1f6a 7d3f a7f0 7b3f
1.0098449 0.9983998 0.9798004 1.0068241 0.9808802 0.9803814 0.98662615 0.9825408
0.99767 0.99435925 0.9917702 0.97757673 0.9804473 0.9886254 0.97629637 0.9941095
0.97545856 0.98291516 1.0079589 0.9796061 1.0125215 0.982976 1.0025289 1.016829
0.99969375 1.0029467 1.0125865 0.9686456 0.9949998 0.9808535 0.9899005 0.9841408

backbone.5.bias f4 [32]
00000000: a2db 243d d789 04bc 6b18 3dbb ce0e c73c
00000010: 4879 3c3c 0dbc c53c ca31 77bc da1b 88bc
00000020: 26b5 5c3a 4945 44bc 0c71 84bc a7a1 ac3b
00000030: 8591 c6ba 30f0 5a3c 4049 56b8 5105 ebbb
00000040: 2ca1 143d 8de4 bebc b21f fc3b d491 82bc
00000050: 49d5 003c e5c2 11bc 2389 4b3b 23f4 853c
00000060: 9812 81bc c1e9 ec3c 6a9e 683d f97c 0cbc
00000070: c8f4 54bc 6244 eb3b b484 31bb e54c 3d3b
0.04024852 -0.008089504 -0.0028853666 0.024299052 0.011503525 0.024137521 -0.015087554 -0.016614843
0.0008419327 -0.0119794095 -0.016167186 0.005268294 -0.0015149569 0.013362929 -5.1089795e-05 -0.0071722646
0.036286518 -0.02330234 0.007694208 -0.015938677 0.007863351 -0.008896564 0.0031057082 0.016351765
-0.015755937 0.028920056 0.0567917 -0.008574718 -0.0129978135 0.0071797827 -0.0027087154 0.0028884944

backbone.5.running_mean f4 [32]
00000000: 35e1 9abe c33f 2ebc 81c4 8ebd 344d 2dbf
00000010: 8205 bc3e 74b2 11be 9eee 57bf f1d7 30be
00000020: 7077 a2be 5b44 14be 7d0b f73d 833a f83c
00000030: f39e fcbe 86fb 51bf 7c62 08be 28b3 06be
00000040: 6cde 7dbe a182 0a3e 866b 56be 2f0f 803f
00000050: e87c fbbd 9630 893d 189b 943f 8cd6 35be
00000060: 6c7b 073f 7387 39bf 4f32 01bf af3f babe
00000070: 8dc3 8fbf 5c0c 5ebf b4d0 983e 4015 873f
-0.30249944 -0.010635319 -0.06971074 -0.6769593 0.36722952 -0.1422823 -0.84348476 -0.17269875
-0.3173175 -0.144792 0.12062738 0.030301338 -0.4934002 -0.8202442 -0.13318819 -0.1315428
-0.24791878 0.13526393 -0.20939454 1.0004634 -0.12279683 0.0669872 1.1609831 -0.17757624
0.529227 -0.72472304 -0.5046739 -0.36376712 -1.1231552 -0.8673761 0.29846728 1.055336

backbone.5.running_var f4 [32]
00000000: 1eae a23e 223b c93e 5e17 e63e dc4b 7b3e
00000010: 8da1 2b3f a110 133e c2a7 d23f cfa1 b13e
00000020: c10a 083f ad42 003f 6f42 b63e 607b db3e
00000030: 60d6 653f 0567 913e 98dd 1d3f 5c9d 923f
00000040: f959 6d3e 9fb8 d63e 37db fc3e cdaf 2e3f
00000050: 667c 4c3e 331f df3e eb57 0b40 4999 8c3e
00000060: ee44 fa3e 8679 8b3e b392 e43e 8507 f53f
00000070: 204c 4e3f bfa1 003f 9f6b 633f 566d 623f
0.31773466 0.39302927 0.44939703 0.24540657 0.6704338 0.14361812 1.6457446 0.34693763
0.5314141 0.5010174 0.3559756 0.42867565 0.89780235 0.2839891 0.6166625 1.1454272
0.23178853 0.4193773 0.49385998 0.68237 0.19969329 0.4357849 2.177241 0.27460697
0.48880714 0.27241153 0.44643173 1.914292 0.8058491 0.50246805 0.8883609 0.88448083

backbone.8.weight f4 [64, 32, 3, 3]
00000000: 2b3f 5b3d 53c0 fd3b 77c7 6bbc 9314 bb3d
00000010: 6ba9 c8bc 8d60 bc3a 04cb abbc 30a2 ae3a
00000020: e6f3 243d 1ad1 07bd ad07 d83c b808 1238
00000030: f010 42bc 033d 18bd 3bed 153d 594d a7bd
00000040: 85a4 283d 2af0 373d a565 783d 8243 063d
00000050: c78f eb3c eeaf 74bd 7378 5a3d 2610 02be
00000060: 5eab a0bd 0ccf b0bc a04a c6bd 1726 1c3d
00000070: 529a 333d 28d6 27bb b010 6cbd 6d3b e1bc
00000080: c331 a23c 3dd8 22bd 7d7e 72bd 0e2c 8d3d
00000090: f945 b53c 45c6 3e3b f592 03bd 7c43 13bc
000000a0: 0af7 14bb 5e60 653b a57b e0bd 2b3a 223d
000000b0: 60b4 ecbc 7198 003e 93aa a53d d550 553d
000000c0: 2894 7b3d 12de 21bc b60b 543d 7042 adbb
000000d0: 2555 58bc ca23 003d fed6 f63c de6f b8bd
000000e0: 1488 7bbd aa7b 1ebd 0834 adbd 5a4d 403d
000000f0: 3a26 c5bd 5604 09be 1221 1bbd 0c99 03be
00000100: c522 8a3d 78cf 7db9 efc8 c53c ef47 8dbd
00000110: 2856 03bd 3e91 6abd a5d1 8d3d f182 983d
00000120: 4466 a03c 1764 8e3d 3936 8d3c 4f52 41bd
00000130: ebd2 96bc 4743 f33c f11c 15bd cdb5 3ebc
00000140: 3dde 863b e304 3cbc 5e13 483d 005a cc3d
00000150: a3da 363d ab04 07be 70ed f6bd eba0 a83d
00000160: a2ac f6bd 8025 943c 5b88 02bd 524d 3ebc
00000170: 0771 b13c 9f1d 61bc 1daa 8b3c 3a48 bc3c
00000180: 6f33 4e3d d497 503d 0db9 debc d20f 26bd
00000190: 9cef dfbc d898 47bd 88a7 18be 0064 603d
000001a0: 1f16 8b3d ae0a 99bc c115 53bd 768a bd3b
000001b0: 91b1 bcbd 409e e43c 1a56 cb3c 0e86 483d
000001c0: 2885 40bd 830e e2bd 8805 2a3d f4d9 263d
000001d0: 9385 96bb be40 063e 7cc2 3a3c 3a6e 3dbc
000001e0: d6b1 ac3c 7da3 5bbd e4ba 71bd 00fa 0ebd
000001f0: 6dac a43d e403 74bd 077b b33d b5a2 413d
00000200: 8058 ebbc e85f 773d 2bcb 883d 0e8f 713d
00000210: 6dba 903d 3766 093d dfcc 9e3d f619 e8bb
00000220: 9478 103d 03b4 e73b 2088 9c3d 9e56 dfbc
00000230: 55fa bebc 98ad d63d 67ab 863b 272c 23bd
00000240: c328 a83c 3dc3 28bd 444b c03c de23 aabd
00000250: 71f2 673c e94f 6a3c 97be a6bd 4878 a53b
00000260: 086a 2fbc c4fc 1f3d aaa6 10bd 382c c33d
00000270: edec 93bc 3430 80bd 5b94 c4bb 94c6 303d
00000280: 69f0 9fbc eeb4 32bb 4166 4cbd eff5 a2bb
00000290: 1fdd 36bd 937b 91bd a033 ab3d e5cd abbc
000002a0: 55f1 653d b7bc f03c aac8 5cbd d9a1 ee3c
000002b0: dad0 c83d 5ed9 863c 08c1 4ebd 37ff 3f3d
000002c0: 5973 5a3d 08cf f43a b8ae b53d 16ec 84bd
000002d0: 57e9 9f3d bf08 90bd 8cc3 8bbd f148 bf3c
000002e0: 9a07 af3d 36b6 ecbd 9994 89bc 19e4 c7bd
000002f0: bcf6 df3c 59d1 103c 9a85 33bd 5af5 983b
00000300: ba0b e63d a90c a93d 6ee6 e7bd bc9f 2fbc
00000310: 3eef 2b3d ebbb 8e3c e0e1 91bd c6b2 8fbd
00000320: 44f8 b3bc c1cd 37bd 069d 47bd 4583 be3c
00000330: 4eb3 0cbd 8785 0f3d 0221 59bb a91c 65bc
00000340: 9a25 f8bc ca68 0abc 5238 65bd 5fe4 783d
00000350: cb97 01bd c271 f63c 4790 80bd 258e 87bd
00000360: 026b f3bb cc6a 57bd 2599 a03d 9f48 95bd
00000370: 1f3b 163d 9579 6d3d a6fc bfbc 254d 953c
00000380: 6752 abbb 51d3 cf3c e25e 83bc ab60 8fbd
00000390: 403f f0bd 444f 8b3c 0848 91bd 506d aebd
000003a0: 9a92 b1bd 0135 8cbd 2d97 573d a7ba 67bd
000003b0: 6d98 a9bb 2064 97bd 629d 3dbd 7682 abbd
000003c0: 04b8 49bc 86a4 873c c931 853d c10d 403d
000003d0: 31c8 82bc 5d7c 07bd cab3 24bd e0f1 2bbd
000003e0: e495 acbc b4d3 f9bc 93db a53c 5011 69bd
000003f0: 1846 2bbb 5d7f 6fbd b160 2abd 256b 5abc
0.05352704 0.007743874 -0.014390818 0.091347836 -0.024494847 0.0014372036 -0.020970829 0.0013323482
0.040271662 -0.0331584 0.026370848 3.4817233e-05 -0.0118448585 -0.03716756 0.036603194 -0.0816905
0.041172523 0.044906773 0.06064381 0.032779224 0.028755082 -0.059738092 0.053337526 -0.12701473
-0.07845186 -0.021583103 -0.09682202 0.038122263 0.043848343 -0.0025609825 -0.057633102 -0.027494157
0.019799119 -0.039757002 -0.05920266 0.068931684 0.022128092 0.0029109877 -0.03212257 -0.0089882575
-0.0022730255 0.0035000066 -0.10961083 0.039606255 -0.028894603 0.12558152 0.08089175 0.05207904
0.06142059 -0.009879606 0.05176898 -0.005287461 -0.013203894 0.03128413 0.030131813 -0.09005712
-0.06140907 -0.038692154 -0.0845719 0.04694877 -0.09626432 -0.1338056 -0.037873335 -0.12851351
0.06744913 -0.00024205248 0.024143664 -0.06898486 -0.032064587 -0.05726742 0.06924752 0.0744685
0.019580014 0.069526844 0.01723777 -0.047197636 -0.01841112 0.029695166 -0.036404554 -0.011640024
0.0041158483 -0.011475774 0.048846595 0.09978104 0.044642102 -0.13185374 -0.12057006 0.08233818
-0.12044646 0.018084288 -0.03186832 -0.011615114 0.021660341 -0.013739972 0.01704889 0.022983659
0.05034202 0.050926045 -0.027187848 -0.04054243 -0.027335934 -0.048729748 -0.14907658 0.054782867
0.06791329 -0.01868185 -0.051534418 0.005784328 -0.092135556 0.02790749 0.02482133 0.04895597
-0.047001988 -0.11037924 0.04150918 0.0407352 -0.00459356 0.13110635 0.011398908 -0.011561925
0.021080893 -0.05362271 -0.059016123 -0.034906387 0.080407 -0.059574023 0.087637 0.04727431
-0.028728724 0.060394198 0.06679376 0.05897432 0.07066808 0.033544745 0.0775392 -0.007083173
0.035271242 0.0070710196 0.07643151 -0.027262982 -0.023312727 0.10482329 0.004109788 -0.03983703
0.02052725 -0.04120182 0.02347339 -0.083076224 0.014156924 0.014301279 -0.08141821 0.005049739
-0.010706432 0.039059415 -0.035315193 0.095299184 -0.018057311 -0.06259194 -0.0059991307 0.04315813
-0.019523816 -0.0027268487 -0.049902204 -0.004973165 -0.04464447 -0.07103648 0.08359456 -0.020972202
0.056138355 0.029386861 -0.053902306 0.02912991 0.0980546 0.01646107 -0.050477058 0.04687425
0.05333266 0.0018677423 0.088712156 -0.06490342 0.07808178 -0.07032918 -0.06824407 0.02335021
0.08546372 -0.115581915 -0.01679449 -0.09760303 0.027339332 0.008838975 -0.043828584 0.00466792
0.112327054 0.08254368 -0.11323248 -0.010719236 0.041976206 0.01742359 -0.0712316 -0.0701652
-0.021968968 -0.044873957 -0.048733734 0.023255954 -0.034350686 0.03503945 -0.0033131246 -0.013983884
-0.030291367 -0.008447835 -0.055961914 0.060764667 -0.0316389 0.03008354 -0.06277519 -0.06618909
-0.007428528 -0.052592084 0.0784171 -0.07289242 0.036677476 0.057977278 -0.023435902 0.018225262
-0.005228329 0.025369318 -0.016036455 -0.0700086 -0.11730814 0.01700557 -0.07093817 -0.085169435
-0.0867054 -0.06846047 0.052634407 -0.05657449 -0.0051756413 -0.07392144 -0.04629267 -0.08374493
-0.012311939 0.016557943 0.065036364 0.046888117 -0.0159646 -0.033077586 -0.040210523 -0.041978717
-0.021067567 -0.030496456 0.020246303 -0.056901276 -0.0026134308 -0.058471072 -0.04159612 -0.013331209

backbone.8.bias f4 [64]
00000000: c5f4 f032 764b 0932 3505 0d33 028e e4b1
00000010: 1e03 e7b0 42aa f7b2 b279 5232 1a37 9bb3
00000020: 13d4 0534 b3c9 1833 80cb b532 b929 b633
00000030: 6032 0c32 9322 00b3 ff6d 8533 138a 65b3
00000040: 8a93 c0b2 4a39 6533 c2ee f833 2584 ceb0
00000050: 5acd deb0 c021 1834 86cd 2634 8131 bd32
00000060: d3d9 1db3 c34b 9232 c2fd 8933 7085 3eb4
00000070: 535a 14b3 4b9c 3e33 5fd6 9eb3 c480 a933
00000080: f07c 0bb2 13b5 f432 3de0 18b2 9700 5532
00000090: 2152 1131 4ee2 8d31 3253 1c34 a3d7 0b33
000000a0: 0a48 1432 ca0a 84b0 5211 0fb3 932b 4bb4
000000b0: 7cd3 ca33 5eb4 4ab4 aee3 55b3 712b e732
000000c0: 5840 8fb3 3986 8d33 93d9 5a33 00f7 f232
000000d0: 44d9 84b3 1cfb 4b34 8401 1432 3d0e 3db3
000000e0: 97f2 e6b2 1b77 a632 97e6 4b33 6b02 98b3
000000f0: 3430 af31 65df a7b3 157d 7733 b6c4 34b1
2.8050986e-08 7.991607e-09 3.2833857e-08 -6.6518178e-09 -1.6808348e-09 -2.8832009e-08 1.2251279e-08 -7.227773e-08
1.2463742e-07 3.5573702e-08 2.1163714e-08 8.482625e-08 8.1605265e-09 -2.9833767e-08 6.213303e-08 -5.3443795e-08
-2.2418835e-08 5.337032e-08 1.159183e-07 -1.502603e-09 -1.621099e-09 1.4168381e-07 1.5534724e-07 2.2025008e-08
-3.675252e-08 1.703109e-08 6.425718e-08 -1.7743673e-07 -3.4541085e-08 4.437997e-08 -7.396442e-08 7.893098e-08
-8.119272e-09 2.8487682e-08 -8.89855e-09 1.2398366e-08 2.1146962e-09 4.129368e-09 1.4558898e-07 3.255958e-08
8.631114e-09 -9.60733e-10 -3.3310535e-08 -1.89217e-07 9.444827e-08 -1.8878333e-07 -4.98e-08 2.6911694e-08
-6.6706605e-08 6.590239e-08 5.0954963e-08 2.828483e-08 -6.1862494e-08 1.8997201e-07 8.615078e-09 -4.401794e-08
-2.6885841e-08 1.9379106e-08 4.747434e-08 -7.0784914e-08 5.0986504e-09 -7.817179e-08 5.762293e-08 -2.6305265e-09

backbone.9.weight f4 [64]
00000000: 46c1 7b3f da04 7b3f 2bb8 6e3f 5640 793f
00000010: 6a03 773f 12b4 753f 357b 753f 3a04 7b3f
00000020: 69d3 843f 9bfa 783f 241d 7a3f 9421 7e3f
00000030: f014 7e3f 2887 823f c5d0 803f 435d 783f
00000040: c543 783f 9ed0 7f3f b57c 7f3f 37f9 713f
00000050: e5df 6f3f f23e 713f a8fd 7f3f 00e5 703f
00000060: 3181 793f 24ab 703f 3988 723f 95af 7f3f
00000070: 664c 7a3f 8146 7b3f 3059 7b3f eaed 7a3f
00000080: dece 703f 7a3d 7f3f 32e4 793f cabc 7b3f
00000090: a1b6 743f 182a 763f dcc4 843f c57f 7a3f
000000a0: 3bf4 7a3f 7f90 813f b069 7e3f 7746 823f
000000b0: 4b10 813f 4cc8 7f3f a6ed 823f 3d07 813f
000000c0: 4e20 753f 4b45 813f 1b1b 6f3f a177 7a3f
000000d0: d746 793f 2740 7b3f 4101 723f 09b2 833f
000000e0: a03a 7b3f fd59 7a3f 841c 7c3f ab4f 803f
000000f0: 06b2 7b3f 04dc 773f d6c2 7e3f 4e88 783f
0.98341787 0.9805428 0.9324977 0.97363794 0.96489584 0.9597789 0.95891124 0.98053324
1.0377017 0.97257394 0.97700715 0.99269986 0.992507 1.0197496 1.0063711 0.97017306
0.9697841 0.999277 0.9979966 0.94520897 0.9370101 0.9423667 0.99996424 0.94099426
0.97462755 0.9401114 0.9473911 0.9987729 0.97772825 0.98154455 0.98182964 0.9801928
0.94065654 0.9970318 0.97613823 0.98334944 0.9559117 0.9615798 1.0372577 0.9785121
0.98028916 1.0122222 0.99380016 1.0177754 1.0083097 0.99915004 1.0228775 1.0080334
0.9575242 1.0099272 0.93400735 0.9783879 0.9737372 0.98144764 0.94533163 1.0288707
0.9813633 0.9779356 0.9848101 1.0024313 0.9831852 0.9682009 0.99516046 0.97082984

backbone.9.bias f4 [64]
00000000: a3be 3cbc 6470 693b 08f2 06bd 4d42 bf3b
00000010: 4859 2abc 039f 82bc 3371 83bb 6ff4 59bc
00000020: 129d 4bbc ceb3 1cbd 124b 143c 33d8 20bc
00000030: c6ed 47bc f387 b7bb 0ce5 813c d3d3 84bc
00000040: 1d35 1f3b 7a69 73bc 41b1 10bb 9c6e fabb
00000050: 09c1 d8bc e53e 5d3a cf1b b0bc 80c6 f9bc
00000060: 927f dabc 128a 69bc 4edb 7bbc 8386 13bd
00000070: 6faf 97bc 8b25 dd38 4cb3 e5bc e669 343c
00000080: b8da b2bc 5e4e b7bb fbf7 d8bc 34bc 98bb
00000090: 8d71 06bd 1759 aebc 06fe 873b 2c5f 4fbc
000000a0: fe8b 4fbc e9c5 58bd 8e19 903b 8625 87bc
000000b0: 5ac1 0dbc 3841 e83b c79e 23bd 274b 34bc
000000c0: c4fb 56bc 04c7 cb3b ebe7 fdbb f565 80bc
000000d0: 988d eabc 813f 29bd 7b97 f0bc 5bd1 c33c
000000e0: 577e b9ba eb11 1abc 8341 15bd 62d4 5cbb
000000f0: c2b1 2dbb 4d48 fa3b 3288 2ebb a8d4 1ebb
-0.011520061 0.0035619969 -0.032945663 0.005836761 -0.010397263 -0.015944963 -0.004011297 -0.013302906
-0.012427585 -0.038257413 0.009051101 -0.009817171 -0.012202686 -0.005600923 0.015856288 -0.016214287
0.0024293133 -0.014856691 -0.0022078308 -0.00764258 -0.026459234 0.0008439853 -0.021497635 -0.03049016
-0.026672158 -0.01425411 -0.0153721105 -0.036016952 -0.01851627 0.00010545094 -0.028039597 0.011011576
-0.021832809 -0.005594059 -0.026485434 -0.0046611074 -0.032823134 -0.021282716 0.004150155 -0.012656968
-0.012667654 -0.052923117 0.0043975776 -0.016497385 -0.008652056 0.007087853 -0.039946344 -0.011004246
-0.013121549 0.006218793 -0.007748594 -0.015673617 -0.02863197 -0.041320328 -0.029369107 0.02390354
-0.0014152032 -0.009403686 -0.03643943 -0.0033695926 -0.0026503657 0.0076380135 -0.0026631472 -0.002423564

backbone.9.running_mean f4 [64]
00000000: c688 79bf 3b66 10bf 285f 89bd 5ec2 54bf
00000010: e9ef dabe a71d 62bf 2c9c 13bf b5a0 b6bf
00000020: e2fb 86bf 71a2 003e 59bb 813e 649c adbe
00000030: 75d1 46bf ed9b 43bf aa78 29bf 3f46 44bf
00000040: 3d8e 8cbf 01b8 7fbe f7fd 05be 816d 30bf
00000050: b220 68bf d424 a8bf 1c5a 86be c4ce 28bf
00000060: 771d 38bf e48e e5bd 0765 a0bd cb2a bcbe
00000070: 698b d6be b3fd 80bf 9579 97bf 7106 a6be
00000080: 7736 743e 0b04 06bf 8652 cdbe b7e8 7b3d
00000090: 8924 df3e 1fab f2be 4e8e 593d 2ce1 97be
000000a0: 4f1d 29bd 2ebf c0bd 6db2 edbe 4038 8c3d
000000b0: 0884 de3d e6f7 babe 8e0d 57bf d076 8ebe
000000c0: 4588 34bf e207 f8bd 0201 6ebf 2ea3 93bf
000000d0: 8b5b 333e b88c 3dbf 2dc1 febe 4449 313e
000000e0: c439 2e3f 1700 443f f9eb 90be 20bb 8bbe
000000f0: 8925 a4bf 1526 203e ad13 63bf f4ef b0bf
-0.97474325 -0.5640599 -0.06707603 -0.8310908 -0.42761162 -0.88326496 -0.57660174 -1.4267794
-1.0545619 0.12561966 0.25338247 -0.3390838 -0.77663356 -0.764098 -0.66199744 -0.7666969
-1.0980908 -0.24972536 -0.13085161 -0.6891709 -0.9067489 -1.3136239 -0.26240623 -0.659405
-0.7191996 -0.11208895 -0.078317694 -0.36751398 -0.41903237 -1.0077423 -1.1833979 -0.3242679
0.23848902 -0.5234992 -0.40102023 0.06150123 0.43582562 -0.4739618 0.053114228 -0.2966398
-0.041287716 -0.09411465 -0.4642519 0.06846666 0.10865027 -0.36517256 -0.8400506 -0.27825022
-0.7052043 -0.121108785 -0.9297029 -1.1534173 0.1751539 -0.74042845 -0.49756756 0.17313105
0.68056893 0.7656264 -0.28305033 -0.27291203 -1.2823955 0.15639527 -0.887019 -1.3823228

backbone.9.running_var f4 [64]
00000000: 82fe 2b3f 95db 8f3f 7280 163f d442 9c3e
00000010: fbf2 493f fa65 773f 1689 233f 5df4 793f
00000020: 853b f63e 33d8 0f3f 2a0f 193f d613 e73e
00000030: 49d3 1d3f 9b95 013f 24d1 4e3f 8e8e 4f3f
00000040: 4f1b 013f a3d6 b23e d05b d93e 3173 413f
00000050: 5f7e 143f efb8 4e3f 1288 b53e 4190 253f
00000060: 46d3 fa3e ba56 8b3f 4ca9 b43e 5c84 8f3e
00000070: 56cc 243f 642a 1b3f 4bb9 673f 061c e43e
00000080: 0b8c 513f 2b13 f83e e7ee 3e3f 799b f53f
00000090: b9d8 bf3f c263 403f 38f5 e83e 68e1 c03e
000000a0: ad49 a13f 7d13 ee3e 2c99 2d3f 1430 f53e
000000b0: c0cb ea3e fa44 af3e 4545 bf3e 6eea e03e
000000c0: bb27 123f 54b0 dc3e 88b0 253f 8ab9 d93e
000000d0: cbf1 d73e dc01 833e e4ef 6b3f 86b6 013f
000000e0: 5f00 843f f249 8c3f 20f8 093f a209 ea3e
000000f0: 39a7 9e3f 5de6 033f b296 be3f bdc6 c33f
0.67185223 1.1238886 0.5878974 0.30519736 0.78886384 0.9663998 0.6388105 0.97638494
0.48092285 0.5618927 0.59788764 0.4513232 0.6165052 0.50618905 0.80787873 0.81076896
0.50432295 0.3492938 0.4245286 0.75566393 0.58005327 0.80750936 0.35455376 0.6467324
0.48989314 1.0885842 0.35285413 0.2803067 0.6437429 0.6061156 0.9051711 0.4455263
0.81854314 0.48452124 0.74583286 1.9188071 1.4988014 0.7515222 0.45499587 0.3767197
1.2600609 0.46499243 0.67811847 0.47888243 0.45858574 0.34232312 0.37357536 0.43928856
0.57091874 0.43103278 0.6472249 0.42524368 0.4217666 0.25587356 0.9216292 0.50669134
1.0312613 1.0960066 0.53894234 0.45710474 1.2394782 0.5152338 1.4889739 1.5295025

backbone.12.weight f4 [128, 64, 3, 3]
00000000: 6531 a3bb d482 f83c fecc 943b 5f99 1e3d
00000010: 7b7c 933c 6781 e83b 5b00 4dbb 9ed6 a6bd
00000020: d74b cabc c8b8 96bb b0fb e43d 3549 3b3c
00000030: d6c9 45bd 940d 14bc 017c 3fbb 6660 1fbc
00000040: f94d 31bc 6324 843c 2721 f9bb bb25 4abd
00000050: fbeb 7f3d d1a3 f2bc 1c79 b93c cc5a 53bc
00000060: 1ad4 c7bc 61a1 533d af0d 8e3b 275c 153c
00000070: f255 873a 68c9 0dbd b2a0 b53c 7658 c4bc
00000080: f647 b83d 3fc0 74bd 1e97 ae3b 85f6 d63a
00000090: c2e0 7dbc 0f19 333b 0e5a 4a3c bebb bebc
000000a0: 5051 57bd dc70 44bd c37a 6ebc a977 10bc
000000b0: fb25 c8bc 83eb f43c 45d2 9e3c 3f1b 9f3d
000000c0: ff55 9ebd a0aa 59bd 8e16 55bc 5716 c4bd
000000d0: 6e56 80bd aa46 44bd aa2a 3fbd dee1 b43c
000000e0: 1a8e 5d3d 6731 a63c b93a 863b a8fe 34bd
000000f0: 42bb 2c3d c126 b53a 222c fabc 4342 5cbd
00000100: 3618 fcbc 036a 543d d846 aa3c 912c 0bbd
00000110: df77 bcbc 4d4a 58bd 8d1f 7a3d f7d6 1c3c
00000120: 1344 ce3d 679e 893d f288 9d3c dfe1 3cbc
00000130: 428c a4bd ae72 d4bd 2055 e9bc 64a6 94bd
00000140: e8ef d6bc a145 8a3c 021b 1abd d7d8 56bc
00000150: e912 f0ba 3ac6 ec3b 15fb 423a 5797 023d
00000160: b898 85bd ed33 be3c e843 dc3a 149a a03d
00000170: 2fc6 7c3c 4b95 943c f913 02bd 9865 2abd
00000180: 5113 24bc ec3a 04bc bdb2 653d ea8e bdbb
00000190: 9a12 5e3d 56f7 d0bc 23ab f33c f21c 3c3d
000001a0: f4ed 723d 8c3e 1bbd 80bd 523c d078 d93d
000001b0: 2bc0 96bc a252 ad3b 0944 0abd c327 8f3b
000001c0: 3de9 35bd c346 ad3c 42a8 3ebd 0425 8a3c
000001d0: fe62 2b3d b298 e43b 1fb6 6fbd 93f3 1abc
000001e0: 1b75 353b b406 2b3b 08fb 23bc 4ba0 46ba
000001f0: e870 b4bc 238d 0abe 1b86 a1bb 43c1 c2bc
00000200: de27 0b3d ea6c 5c3d 1eb2 3cbd ce28 06bd
00000210: 8527 35bd cb7a 45bd fcc1 b03c 1153 133c
00000220: 7470 0ebd 543e 4fbd 7f9d 4dbd 2de2 b4bc
00000230: 3300 c73c 3dd1 65bd 591e 4c3d fc64 91bb
00000240: 6097 40bb 31ab 4b3d 052c 343d a10f e2bc
00000250: 923b 85bd c840 c83c 434f b73d 2f61 4fbd
00000260: d633 133d 5300 48bd 39a1 87bb f326 493d
00000270: e91e 1cbd e1ed 70bd 89d1 4fbc 2f19 e2bc
00000280: 7b83 b9bd eabb b7bc 6ad0 0cbd 13c3 46bc
00000290: c0c7 97bb 2222 94bd 8511 d4bb c905 9ebd
000002a0: 4972 c4bd a686 fc3b f750 7f3c 4d14 a33c
000002b0: 69bc 8ebc e8d1 1bbd b9e6 033d 9334 813a
000002c0: ec0d 303c 0e6d 7b3d 437c 0d3c 00e7 213d
000002d0: e4e1 203b b4a1 0f3d 0513 a5bc 52ee 9cbc
000002e0: c6ea 223c 6d96 3f3d 1252 363d 080c e4bb
000002f0: 9285 0b3c aa11 a2bc 8f65 fdbc c8ef 7a3c
00000300: d98c 67bd cb51 1abd 538d b13d fe87 1c3c
00000310: 9f0b 34bb dcfb 50bd c855 f3bc bda1 323d
00000320: 685c c23b a23d b6bd 9f53 84bc 8377 9d3b
00000330: a9ba 163c 9a7e a13c e2e2 173d 114a 43bd
00000340: eb07 5ebc a4a8 2a3d 27f4 493d dc51 42bc
00000350: e1b2 f8bc 95bb e4bb bd31 343a ff03 50bd
00000360: b20a 03bc 2ee2 c7bc d4b2 0bbd e909 b8bd
00000370: ac55 c3bc dfa1 823c 86df e33c 9795 1abd
00000380: da7d ebbc 9cf6 b1bc 75f5 193c e3b9 383c
00000390: 3864 573d 8b09 c33c 4b67 aabb bc7e 1b3d
000003a0: 9901 3dbd 653c 93bb de5f 913d e4b6 263d
000003b0: fd06 1e3d de51 23bc c813 883c 5f39 d9bc
000003c0: 6b24 3cbc 92cc 5ebd 2432 033d 5194 cc3c
000003d0: 1d4a 053d 500a 203b 951b 523b cd98 9ebb
000003e0: e823 bc3b 5a0f 373c 3237 083d ae12 9f3c
000003f0: e45a 90bb 1f24 64bd 2ed0 9bbd 273f c6bb
-0.0049802535 0.030335821 0.0045410385 0.038720485 0.018003693 0.007095504 -0.003128073 -0.08146404
-0.024694366 -0.0045996644 0.11180818 0.011431028 -0.04828819 -0.00903644 -0.00292182 -0.009727573
-0.010821813 0.016130632 -0.007602829 -0.04935239 0.062480908 -0.02961913 0.022640757 -0.012900066
-0.02439313 0.051667575 0.0043351273 0.009116209 0.0010325296 -0.034615904 0.022171352 -0.023967963
0.089981005 -0.059753653 0.005328073 0.0016400373 -0.015495481 0.0027328169 0.012350572 -0.023282882
-0.05256778 -0.047959194 -0.014555636 -0.008817592 -0.024432173 0.029897457 0.019387374 0.07768869
-0.07731246 -0.053141236 -0.013005866 -0.095745735 -0.06266485 -0.047918953 -0.046671547 0.022080358
0.054090597 0.020287229 0.0040963558 -0.04418817 0.04217077 0.0013820754 -0.030538622 -0.05377413
-0.030773263 0.051858913 0.020785734 -0.03397805 -0.023006378 -0.052805234 0.061065245 0.009572736
0.10071578 0.06719666 0.01923034 -0.011528461 -0.080345646 -0.10373436 -0.028482974 -0.07258299
-0.026237443 0.016878905 -0.037623413 -0.013113222 -0.0018316183 0.007225779 0.0007437927 0.03188261
-0.065232694 0.02321812 0.0016804906 0.07841888 0.01542811 0.018137595 -0.03175733 -0.041600794
-0.010014371 -0.008070689 0.05607866 -0.005784859 0.05421696 -0.025508564 0.02974469 0.045926042
0.05930896 -0.037901446 0.012862563 0.10618746 -0.01840218 0.0052893916 -0.03375629 0.0043687536
-0.044411886 0.021151906 -0.046547182 0.016863354 0.041842453 0.0069762105 -0.058523294 -0.009457487
0.0027688209 0.0026096525 -0.010008581 -0.0007576986 -0.022026494 -0.13530402 -0.0049293167 -0.023773795
0.033973567 0.053814806 -0.046068303 -0.032753758 -0.044227142 -0.048212808 0.021576874 0.008991973
-0.034775212 -0.05059655 -0.050199028 -0.022080505 0.024292087 -0.05610775 0.04983363 -0.004437087
-0.0029387102 0.049723808 0.043987293 -0.027595343 -0.06505503 0.024444953 0.08950665 -0.05062979
0.035938106 -0.048828434 -0.0041390923 0.04910941 -0.038115416 -0.05882061 -0.012684234 -0.0275999
-0.09058281 -0.022428472 -0.034378447 -0.01213147 -0.0046319664 -0.07233073 -0.006471815 -0.07715947
-0.09592111 0.007706481 0.015583268 0.019907141 -0.017423825 -0.03804198 0.032202456 0.0009857587
0.010745507 0.0613833 0.008635583 0.03952694 0.0024548704 0.03506632 -0.02015067 -0.019156609
0.00994367 0.046774317 0.044511862 -0.006959442 0.008515732 -0.019783814 -0.030932216 0.015315957
-0.056530807 -0.03767566 0.086695336 0.009553907 -0.0027472747 -0.05102144 -0.02970399 0.043611277
0.005931426 -0.08898474 -0.016153155 0.0048055067 0.009199777 0.019713689 0.037081607 -0.047678057
-0.0135516925 0.041664734 0.049305107 -0.011860337 -0.030358734 -0.0069803693 0.00068738667 -0.05078506
-0.007998155 -0.024399843 -0.03410609 -0.08986265 -0.023844562 0.015946327 0.027816545 -0.037740316
-0.028746534 -0.021724038 0.0093969 0.011274788 0.05258581 0.023808261 -0.0052003018 0.03796266
-0.0461441 -0.0044932836 0.07098363 0.04070176 0.038580883 -0.009968249 0.016610995 -0.026516614
-0.011483292 -0.054394312 0.03203024 0.024973067 0.032541383 0.002442021 0.0032059897 -0.0048399926
0.005741585 0.011173094 0.033255763 0.019418087 -0.0044053663 -0.05569851 -0.076080665 -0.006050009

backbone.12.bias f4 [128]
00000000: 410e eab1 2199 44b2 2f45 cfb2 ede8 b4b1
00000010: e954 7a33 a374 ba31 63e3 40b0 365b 7a32
00000020: 4682 8db3 fcbf 22b3 d235 3d32 f732 5031
00000030: a0de 972f 4ccf cd32 c539 a6b1 2f10 1733
00000040: 6a76 31b3 5b57 39b1 1c6f d7b2 0dbc f8b3
00000050: d272 13ac 18fd 3ab2 55c7 08b3 fb4a b830
00000060: 1d8d 222f 7e32 dd31 f4f6 ef31 63d2 b132
00000070: 1108 5db2 d24f 5632 9f16 e7b2 06bf 21b2
00000080: ab33 d5b3 59b4 1c32 b577 8532 d9d4 ca31
00000090: 55d4 b32f 991c 00b2 dff5 2a33 b7df bb32
000000a0: cfd0 ebb2 41fb b0b3 2cc2 de31 429b b832
000000b0: fd42 b532 0a03 b132 c7d7 bbb1 a4a5 2932
000000c0: 57a3 74b3 3587 bc31 96a2 4233 5398 cfb3
000000d0: e39b e1b2 2b24 bdb1 37cf c933 154b 8932
000000e0: 011b 36b1 8d1f b9b1 349e 0c31 2cbd aab1
000000f0: 90e5 74b3 68ca 0a33 3861 2b31 f5da 50b2
00000100: a1a7 f1b2 4a97 2eb2 e6b4 9c32 09e6 8430
00000110: 5f98 bbb1 b485 6a30 4f85 1933 0d9a 6bb3
00000120: c8d1 ccb1 aa94 4031 a32a 8f32 693c d533
00000130: 5730 c4af f62d 85b3 c596 9731 4a75 4a32
00000140: 0e59 5833 1fc8 7a33 a056 3033 374d 0bb3
00000150: 5188 a432 2660 04b3 1a44 78b0 1b69 f6b2
00000160: e393 5bb2 558d 13b3 6db2 7431 8f6c 0ab2
00000170: 59b3 04b3 b1f5 4eb2 34a8 87b3 24ad df30
00000180: be73 5531 c7bb 9cb2 1666 9d30 66f2 b2b2
00000190: ce18 e832 cf39 2e33 60a9 58b2 52a8 0933
000001a0: 9c05 12b2 72ef 20b2 d93e 1533 cfd0 fab0
000001b0: ae46 c5b2 29d7 4533 2ef3 81b0 91ab 4cb2
000001c0: ccdd eab2 69ea db32 c538 3c33 e376 0233
000001d0: 78a4 d3b2 517d 0332 f53b 12b2 5222 6e33
000001e0: f9e3 3c32 5f20 9bb2 7772 0932 f790 d2b3
000001f0: 0451 52b2 311e 8bb2 c0e9 2e33 f37d 7433
-6.811917e-09 -1.1443519e-08 -2.4129433e-08 -5.26517e-09 5.8284886e-08 5.4265725e-09 -7.017233e-10 1.4572654e-08
-6.589521e-08 -3.7893173e-08 1.1013485e-08 3.0296954e-09 2.7624925e-10 2.3959409e-08 -4.8378035e-09 3.5172146e-08
-4.131872e-08 -2.69707e-09 -2.507982e-08 -1.1582606e-07 -2.0953695e-12 -1.0884172e-08 -3.184626e-08 1.3409073e-09
1.4783948e-10 6.437687e-09 6.983891e-09 2.0701185e-08 -1.2865727e-08 1.24745885e-08 -2.6902226e-08 -9.414867e-09
-9.927984e-08 9.121401e-09 1.5537674e-08 5.9031717e-09 3.271078e-10 -7.457083e-09 3.9804828e-08 2.1871399e-08
-2.7452556e-08 -8.2413415e-08 6.483125e-09 2.1491022e-08 2.1101636e-08 2.0606894e-08 -5.4669473e-09 9.874757e-09
-5.6959234e-08 5.4868914e-09 4.5317016e-08 -9.666896e-08 -2.6264336e-08 -5.504736e-09 9.397484e-08 1.5983042e-08
-2.6499836e-09 -5.3877955e-09 2.046261e-09 -4.9691575e-09 -5.7019463e-08 3.2314716e-08 2.4939038e-09 -1.21569785e-08
-2.8132321e-08 -1.0162532e-08 1.8243053e-08 9.669644e-10 -5.459739e-09 8.531871e-10 3.5744332e-08 -5.485531e-08
-5.961031e-09 2.8024183e-09 1.666678e-08 9.929574e-08 -3.568654e-10 -6.2016554e-08 4.411819e-09 1.1784616e-08
5.0372414e-08 5.838967e-08 4.105698e-08 -3.2433686e-08 1.9154102e-08 -3.082109e-08 -9.031865e-10 -2.8685966e-08
-1.2781103e-08 -3.4354645e-08 3.5608096e-09 -8.057341e-09 -3.089676e-08 -1.2046642e-08 -6.317023e-08 1.6274595e-09
3.1061371e-09 -1.8246181e-08 1.1452268e-09 -2.0832157e-08 2.7019635e-08 4.056511e-08 -1.2611366e-08 3.2050885e-08
-8.499594e-09 -9.367669e-09 3.4748926e-08 -1.8249241e-09 -2.296596e-08 4.6063324e-08 -9.455101e-10 -1.19133725e-08
-2.7342047e-08 2.5601553e-08 4.3823793e-08 3.037611e-08 -2.4638425e-08 7.653697e-09 -8.511951e-09 5.5444907e-08
1.0994875e-08 -1.8059096e-08 8.000476e-09 -9.805256e-08 -1.224203e-08 -1.619546e-08 4.0725126e-08 5.6925227e-08

backbone.13.weight f4 [128]
00000000: 860f 813f cd42 7a3f d922 813f 12ac 813f
00000010: 74a0 823f b542 813f 0220 863f 6778 803f
00000020: f311 813f 8d9b 803f d586 753f b0fc 823f
00000030: 22c9 7c3f 0a64 823f 9cb1 813f 0485 7e3f
00000040: a2c9 7b3f 82e7 7d3f 0de5 823f ab70 853f
00000050: 1127 833f 6e8f 7d3f 1bd5 833f 7744 7a3f
00000060: 1034 833f be8d 823f 2664 813f 978c 823f
00000070: 90a0 7e3f 092b 7a3f 7da2 843f 6d5b 823f
00000080: 8ed1 853f 9397 813f b475 833f 8bcf 813f
00000090: 5076 823f ef41 803f b381 7f3f d0ad 803f
000000a0: ae45 823f 095a 803f e2d0 813f 18fb 823f
000000b0: 6640 843f 01fb 813f f36c 843f 021c 823f
000000c0: 00d1 833f 78b0 7e3f c8c4 853f 3996 803f
000000d0: 1875 7f3f d37a 813f 3859 863f b96a 813f
000000e0: 4f46 813f 6e4d 813f 8a86 7f3f 75e2 7b3f
000000f0: cfcb 803f 7111 7e3f b8f1 803f 99a7 803f
00000100: 0b74 7f3f a4e6 7f3f a624 7c3f 48a1 7a3f
00000110: 8621 783f a7c3 833f 3337 813f bd41 803f
00000120: adbd 803f adfa 823f 1697 7f3f 2400 843f
00000130: 3f3b 803f ca8c 7f3f fe33 613f 74f8 7b3f
00000140: 14b0 813f 6b77 803f f1cc 803f dd2f 7e3f
00000150: dd55 793f 2343 803f 1be5 7c3f b3a7 823f
00000160: 80bb 833f 631f 7e3f 4931 803f 8624 813f
00000170: f113 813f ecc1 7d3f 1176 7f3f 6d83 803f
00000180: b76c 833f d164 823f f92b 7e3f fb3f 833f
00000190: 8d0a 813f 4a3d 833f f329 813f ffac 803f
000001a0: e52e 803f 6bfc 7e3f 1bff 843f 7372 783f
000001b0: bc38 803f 3a95 813f 99a8 803f 6b08 793f
000001c0: 5748 813f 5fab 7b3f 4de0 7f3f 55e4 833f
000001d0: d3f7 7f3f e333 7c3f d402 823f 6c55 8a3f
000001e0: 3866 803f 759e 7c3f 7bdf 773f a8a3 823f
000001f0: 7fc3 833f f75d 813f 5d17 833f 5a4a 813f
1.0082862 0.9775818 1.008876 1.0130637 1.0205216 1.0098482 1.0478518 1.0036744
1.0083603 1.004747 0.9590886 1.0233364 0.98744404 1.018678 1.0132327 0.99421716
0.9835454 0.9918138 1.0226151 1.0425009 1.0246297 0.9904698 1.029941 0.9776072
1.0250263 1.0199506 1.0108688 1.0199155 0.9946375 0.97721916 1.0362087 1.0184151
1.0454576 1.0124382 1.0270295 1.0141462 1.0192356 1.0020121 0.9980728 1.0053043
1.0177515 1.0027477 1.0141871 1.0232878 1.0332153 1.0154725 1.0345749 1.0164797
1.0298157 0.9948802 1.0450678 1.0045844 0.99788046 1.0115608 1.0495977 1.0110694
1.0099581 1.0101755 0.99814665 0.9839242 1.0062197 0.99245363 1.0073767 1.0051147
0.9978644 0.99961305 0.9849342 0.97902346 0.9692615 1.0294083 1.009497 1.0020062
1.0057884 1.023275 0.99839914 1.0312543 1.001808 0.998242 0.8796996 0.98425984
1.013186 1.0036443 1.0062543 0.99291784 0.9739664 1.0020489 0.9878709 1.0207428
1.0291595 0.9926664 1.0015041 1.0089271 1.0084211 0.99124026 0.9978953 1.0040108
1.0267552 1.0187017 0.99285847 1.02539 1.0081345 1.0253079 1.0090927 1.0052794
1.0014311 0.9960391 1.0390352 0.97049636 1.0017314 1.0123665 1.0051452 0.9727847
1.0100201 0.98308367 0.9995163 1.0304056 0.99987525 0.9851667 1.0157113 1.0807319
1.0031195 0.98679286 0.9682538 1.0206194 1.0294036 1.0106801 1.0241505 1.0100815

backbone.13.bias f4 [128]
00000000: 5cfb 473c eb16 c73a c1dd 563b d084 e33a
00000010: 8b5f 373b fd08 963c 2408 fe3b 064f dbba
00000020: 41d0 443c 28f0 213c 90d7 51bc 0aba 5f3a
00000030: fbaf 89bb 5e23 7e3b 2ad1 433c cf40 503a
00000040: 662f 183c f756 6abb 239b 933b d0e9 393c
00000050: f3c2 c43c 7c52 0a3c 456e fc3c 5a06 cbbb
00000060: 9e7e a33b 79e8 1ab9 8823 dd3b a42b 903c
00000070: 53fa fc3c 2960 833c d559 623c dd38 4bbb
00000080: 1f6b f23c 8319 38bb d6a6 fa3b d55a e83b
00000090: dc2c f83b 57ee 913c 59bf 293b 934d 6c3b
000000a0: 1f00 1f3c cba4 2e3c cae2 2e3c d5bd 113b
000000b0: 4ebb 953c 80c5 d7ba 6a09 053d f6bd fe3a
000000c0: 3e17 813c d534 6e3b 9176 c53b 2a1d 453c
000000d0: 4169 0d3d f3c0 a93b 19cb 77bc c594 90bb
000000e0: d160 853c 61ac ab3b b203 453c 62fc a83c
000000f0: e503 013c b6d9 baba 9c80 213c 0fd2 ef39
00000100: 4f10 8d3b 66d2 513b 2fb5 3abc 26a4 a6b9
00000110: f60f b23b e698 f93c 06f0 a8bb 929a 0e3c
00000120: 959b 333c ea76 38bc 2b4a 983b 1821 063c
00000130: 3d9e d93c 47c4 743c 54ff 6ebb 549e 0fbb
00000140: 3159 2c3c 651b c53a b59c 2ebb 43c2 cf3b
00000150: d243 48bc aaa4 9c3c 1a2a c1bb 3a79 b73c
00000160: a287 3f3c 76b4 5c3c 0b59 ac3b 68f7 153b
00000170: ff41 633c 1489 c13b 0072 a1bb 5f8d be3b
00000180: c7e1 d63c cf1b a93c 20c0 9fbb 6241 633c
00000190: f9be 123c eb87 f83a e741 2e3c 9b2e 243c
000001a0: 0bd8 273c 6e57 043c ba59 853a 686f d73b
000001b0: 54aa 873b 4d22 86bb e170 7f3c fcc8 403c
000001c0: 425d 893c d6ca abbb 95f8 87ba 0058 73bc
000001d0: 8e44 b63c 466e 9dbc f080 433b a485 96bb
000001e0: 6de2 243c 69aa 0c3c ee10 30b9 dc81 873b
000001f0: 923f ad3c 7b0a b13c 652c 2bbc 37bc e3ba
0.012205925 0.0015189325 0.0032785984 0.0017358307 0.0027980532 0.018314833 0.0077524353 -0.0016731925
0.012012542 0.009883918 -0.012807742 0.0008534497 -0.0042018867 0.0038778405 0.011951724 0.00079442275
0.009288644 -0.0035757401 0.0045045777 0.011347249 0.02401874 0.008442517 0.0308143 -0.0061958255
0.004989459 -0.00014773187 0.0067486204 0.017598934 0.030881083 0.016037064 0.013815363 -0.0031009235
0.029592095 -0.0028091378 0.007649283 0.007090906 0.007573707 0.017813845 0.0025901406 0.003605698
0.009704619 0.010659407 0.010674188 0.0022238393 0.01827779 -0.0016462058 0.03247968 0.0019435275
0.015758153 0.0036347408 0.006026097 0.012030879 0.034524206 0.005180472 -0.015124106 -0.004412266
0.016281517 0.005239055 0.012024807 0.020628158 0.007874464 -0.0014255557 0.009857323 0.00045742138
0.0043049227 0.0032016276 -0.011395737 -0.00031784287 0.0054340316 0.030468415 -0.005155566 0.008703845
0.010962387 -0.01125882 0.0046475134 0.008186601 0.026564712 0.014939374 -0.0036468105 -0.002191444
0.010519312 0.0015038071 -0.0026643698 0.0063402965 -0.012223201 0.019121487 -0.0058949115 0.022396673
0.011690052 0.01347076 0.005259638 0.0022883061 0.013870715 0.0059062336 -0.00492692 0.0058151926
0.026230706 0.020643143 -0.004875198 0.013870569 0.008956664 0.0018961405 0.0106358295 0.010020877
0.01024438 0.0080774855 0.0010173835 0.00657456 0.0041401777 -0.0040934444 0.015590877 0.011766668
0.016768102 -0.005242686 -0.0010373766 -0.014852524 0.022249486 -0.019217622 0.0029831491 -0.004593568
0.01006375 0.008585551 -0.00016790975 0.0041353535 0.021148477 0.021611443 -0.010447596 -0.0017374818
