models/osu_model_temp.pth (torch, 438861 bytes, 28 tensors)

backbone.0.weight f4 [16, 3, 3, 3]
-0.07927147 0.13104658 -0.21259686 -0.10583241 -0.050897874 0.14851196 0.013571835 -0.18320282
0.066570744 -0.071086995 -0.057708938 0.11159697 -0.019388704 -0.09280674 -0.040095855 -0.10329918
-0.22003403 -0.017238248 0.13505137 -0.0152397 -0.036550127 -0.075749 -0.1066166 -0.014586368
0.02580995 0.12929684 0.035891265 -0.0345528 0.020044483 0.04473542 -0.12874494 0.04112132
-0.2039074 0.11420806 -0.017921008 -0.03169413 0.07070734 0.19595128 0.0059586945 -0.0129290335
0.031808477 -0.108471036 -0.09253821 -0.05540944 0.05119826 -0.13265179 -0.104438856 0.0025313946
-0.07520492 -0.17507192 -0.10623763 0.023904836 -0.22841014 -0.08778189 -0.010059824 8.737236e-06
-0.076301835 0.31171778 0.1265732 0.067556754 0.20330013 0.036974903 -0.07365608 -0.011259891
0.121370494 -0.0806216 -0.12336144 -0.053035647 0.09709702 0.04945667 -0.17068663 -0.18307029
0.09787341 0.020183176 -0.077650376 0.08835691 -0.1766422 0.05343555 0.010309356 -0.026956387
-0.19638893 -0.012548833 0.02680152 0.004340641 -0.013901154 -0.14502001 0.02393731 0.049250703
-0.037500765 -0.16354108 -0.10130519 -0.13150844 -0.059450846 0.012964873 -0.14410324 0.025818704
-0.07023794 0.067185365 -0.02816404 0.0572554 0.15454446 -0.06508503 -0.025648605 -0.033594858
-0.02556807 -0.00051603786 -0.03592786 -0.084713414 -0.13459474 0.14385651 0.1581309 0.17823285
0.005208538 0.060958408 -0.07527247 0.080298275 -0.066752106 0.06561258 0.036327653 -0.064685956
-0.10543103 0.08201091 -0.015422928 -0.14972134 -0.007379104 0.04373754 0.21558353 -0.120305344
0.07357792 -0.027994903 -0.055735532 -0.08968671 -0.23233268 -0.10692236 0.15226936 -0.005534927
0.17028905 0.2657969 -0.19617511 -0.0036202162 -0.21260627 0.0040021418 -0.030187448 0.17339253
-0.09584971 -0.007270574 -0.06485475 0.06498 0.095658615 0.025511818 -0.08375307 -0.019643664
0.110357195 -0.06330974 0.060149305 -0.012502622 -0.014268104 -0.12283646 -0.002577616 -0.08981064
-0.012901815 0.21474965 -0.036441542 -0.16390258 -0.12237352 -0.09331557 0.11659314 -0.07737771
0.044049017 0.004566909 0.06455475 0.33466598 0.119177595 -0.22001 -0.19565076 0.032648377
-0.08472605 0.04793973 0.18881407 0.036232147 -0.081343636 -0.008678544 -0.023325946 0.18576019
0.048173092 -0.13731547 0.08069101 -0.2566782 0.07576803 0.15390971 -0.061299767 0.06452736
-0.061852444 -0.023380728 0.07544161 -0.02913552 -0.05865349 -0.025812216 0.24970938 -0.13606016
0.12361127 0.01764162 0.00035512133 -0.06254612 0.030000694 -0.106080495 0.080156386 -0.046031103
0.1384578 -0.005804187 -0.024113135 -0.00952487 0.1355649 -0.09286876 0.07575673 0.09643811
0.09778469 0.017191758 -0.117229514 0.021678232 0.13895433 -0.30927914 0.2468181 0.119833864
-0.0039670942 0.01613044 -0.21138057 -0.11228215 0.0069607194 0.10457916 0.16748898 -0.06921662
-0.05377317 -0.25415823 0.06602105 -0.25342187 -0.1754756 0.029142693 0.043662146 -0.01863602
-0.016724719 0.022479175 0.06259914 0.019005394 -0.28134355 0.005423566 0.050953794 0.12625208
-0.18558659 0.05900711 -0.10190755 -0.12760991 0.12477245 0.17497054 0.09139133 0.01815236
00000000: 1559 a2bd 1331 063e feb2 59be aabe d8bd
00000010: 4a7a 50bd 8513 183e 675c 5e3c 8599 3bbe
00000020: 3e56 883d 0f96 91bd 3560 6cbd f48c e43d
00000030: 0fd5 9ebc 7611 bebd 8d3b 24bd 858e d3bd
00000040: 9a50 61be 3a37 8dbc e84a 0a3e efaf 79bc
00000050: 96b5 15bd 4b22 9bbd ce59 dabd a9fb 6ebc
00000060: 636f d33c 6466 043e b802 133d 3d87 0dbd
00000070: 5434 a43c 7d3c 373d b7d5 03be d46e 283d
00000080: 1acd 50be eae5 e93d 14cf 92bc b4d1 01bd
00000090: 03cf 903d 74a7 483e 2741 c33b 4cd4 53bc
000000a0: 9b49 023d 1026 debd ac84 bdbd 02f5 62bd
000000b0: 44b5 513d dfd5 07be 0ae4 d5bd c1e5 253b
000000c0: 0905 9abd 0e46 33be 1d93 d9bd 13d4 c33c
000000d0: 59e4 69be fec6 b3bd f6d1 24bc 2596 1237
000000e0: 2344 9cbd 7999 9f3e 689c 013e 325b 8a3d
000000f0: e92d 503e ff72 173d 00d9 96bd 687b 38bc
00000100: 1891 f83d f01c a5bd eca4 fcbd e83b 59bd
00000110: cdda c63d 1493 4a3d 7ac8 2ebe c776 3bbe
00000120: db71 c83d 3057 a53c 2907 9fbd 78f4 b43d
00000130: b1e1 34be 3cdf 5a3d 93e8 283c a4d3 dcbc
00000140: 2e1a 49be 9f99 4dbc dc8e db3c f03b 8e3b
00000150: aac1 63bc 2080 14be 2d18 c43c 1bbb 493d
00000160: 679a 19bd 5077 27be 1879 cfbd 26aa 06be
00000170: bb82 73bd 9e6a 543c cd8f 13be bf81 d33c
00000180: e9d8 8fbd 7b98 893d 46b8 e6bc a384 6a3d
00000190: e740 1e3e 4d4b 85bd 061d d2bc c39a 09bd
000001a0: 2174 d1bc b746 07ba 1729 13bd 3a7e adbd
000001b0: 34d3 09be 1f4f 133e 11ed 213e ac82 363e
000001c0: 62ac aa3b 86af 793d 7428 9abd 6c73 a43d
000001d0: 54b5 88bd e35f 863d 4ecc 143d 127a 84bd
000001e0: 39ec d7bd 56f5 a73d 73b0 7cbc 8d50 19be
000001f0: 69cc f1bb 2226 333d eec1 5c3e a662 f6bd
00000200: 05b0 963d 9155 e5bc f14a 64bd aaad b7bd
00000210: 9ee8 6dbe 1cfa dabd 80ec 1b3e 555e b5bb
00000220: 4160 2e3e 8816 883e 21e2 48be 2641 6dbb
00000230: 75b5 59be 6624 833b ab4b f7bc d08d 313e
00000240: da4c c4bd ff3d eebb 91d2 84bd 3c14 853d
00000250: aae8 c33d 29fe d03c bb86 abbd c0eb a0bc
00000260: f402 e23d 89a8 81bd 1e5f 763d ccd7 4cbc
00000270: c4c4 69bc af91 fbbd 38ed 28bb a4ee b7bd
00000280: 2262 53bc 55e7 5b3e ba43 15bd 14d6 27be
00000290: f89e fabd 3c1c bfbd 62c8 ee3d 3478 9ebd
000002a0: be6c 343d 02a6 953b 4835 843d 5759 ab3e
000002b0: 6213 f43d 4d4a 61be ac58 48be 4eba 053d
000002c0: da84 adbd 735c 443d 7a58 413e 2968 143d
000002d0: 7e97 a6bd 7430 0ebc 0e16 bfbc eb37 3e3e
000002e0: 2651 453d 6d9c 0cbe 5441 a53d 536b 83be
000002f0: 452c 9b3d 829a 1d3e 7715 7bbd ec26 843d
00000300: fd58 7dbd f188 bfbc 2181 9a3d 9dad eebc
00000310: a43e 70bd 2474 d3bc d1b3 7f3e 5b53 0bbe
00000320: e827 fd3d 2985 903c 942f ba39 2e18 80bd
00000330: 04c4 f53c bb40 d9bd 0829 a43d 1c8b 3cbd
00000340: e2c7 0d3e 0d31 bebb e988 c5bc 330e 1cbc
00000350: 86d1 0a3e fa31 bebd 5826 9b3d 5881 c53d
00000360: 5743 c83d bbd5 8c3c 0716 f0bd 8c96 b13c
00000370: 0b4a 0e3e d659 9ebe e2bd 7c3e 756b f53d
00000380: 66fe 81bb fc23 843c 2674 58be 2ff4 e5bd
00000390: bf16 e43b 992d d63d 3b82 2b3e 71c1 8dbd
000003a0: 4141 5cbd 0721 82be 0b36 873d 83c0 81be
000003b0: e0af 33be a8bc ee3c 14d7 323d 91aa 98bc
000003c0: 4702 89bc 3f26 b83c fa33 803d 33b1 9b3c
000003d0: 430c 90be 2bb8 b13b edb4 503d 3a48 013e
000003e0: 690a 3ebe 70b1 713d e8b4 d0bd 2cac 02be
000003f0: b388 ff3d 7a2b 333e 612b bb3d 42b4 943c

backbone.0.bias f4 [16]
-3.4771244e-07 1.3179742e-07 1.8221912e-06 -1.2055203e-06 -1.2201828e-06 1.1333466e-06 -3.1760544e-06 -3.0079875e-07
1.1706991e-06 2.348299e-07 2.0397897e-07 1.8350721e-06 5.4017346e-07 -1.6726182e-06 -8.6877475e-07 -1.1418782e-06
00000000: 3cad bab4 3384 0d34 0392 f435 5dcd a1b5
00000010: 29c5 a3b5 7e1d 9835 3324 55b6 777d a1b4
00000020: ea20 9d35 8d25 7c34 5005 5b34 994c f635
00000030: 7000 1135 b97e e0b5 bf35 69b5 a342 99b5

backbone.1.weight f4 [16]
1.0116625 0.9915458 0.998232 0.991899 0.99858725 0.9938638 0.9766566 0.99275565
1.0028466 0.97923166 0.97224337 1.0140692 0.99087185 1.0026345 0.9725208 0.972725
00000000: 287e 813f f2d5 7d3f 228c 7f3f 18ed 7d3f
00000010: 6aa3 7f3f dc6d 7e3f 2b06 7a3f 3c25 7e3f
00000020: 475d 803f edae 7a3f f1e4 783f 05cd 813f
00000030: c7a9 7d3f 5456 803f 20f7 783f 8104 793f

backbone.1.bias f4 [16]
-0.0034454814 -0.049552597 0.03132749 -0.00015260903 -0.004757147 0.023035435 0.037965693 0.034700748
0.009480182 0.022001572 0.015158319 0.01847007 0.045184474 -0.018961508 -0.00015212252 0.012441265
00000000: 96cd 61bb aaf7 4abd 4151 003d ad05 20b9
00000010: d7e1 9bbb cfb4 bc3c ea81 1b3d 5f22 0e3d
00000020: c452 1b3c a43c b43c 995a 783c 8b4e 973c
00000030: 5b13 393d 2a55 9bbc 1483 1fb9 73d6 4b3c

backbone.1.running_mean f4 [16]
0.71665144 0.7651145 -0.13240084 0.7316577 -0.12241537 -0.16418314 0.11562041 -0.40876526
0.33113068 -0.53553915 0.19895212 0.013055552 -1.0600492 0.020955952 -0.09006657 -0.49101198
00000000: 7876 373f 8bde 433f 1694 07be eb4d 3b3f
00000010: e9b4 fabd a01f 28be 65ca ec3d ae49 d1be
00000020: f689 a93e 1819 09bf 1bba 4b3e f4e6 553c
00000030: b1af 87bf d1ab ab3c d274 b8bd ec65 fbbe

backbone.1.running_var f4 [16]
0.9629811 1.8690073 0.12657869 1.079814 0.055218015 0.13599919 0.10032807 0.47340485
0.5153263 0.8365378 0.19396232 0.30922353 2.8337798 0.06629538 0.18928361 0.3232651
00000000: ee85 763f a23b ef3f d89d 013e 5837 8a3f
00000010: 492c 623d 5f43 0b3e ce78 cd3d 1f62 f23e
00000020: 6dec 033f 5727 563f 0f9e 463e 8c52 9e3e
00000030: a65c 3540 dfc5 873d 90d3 413e 0183 a53e

backbone.4.weight f4 [32, 16, 3, 3]
0.010491672 0.07266543 0.021660514 0.13896832 -0.091129616 -0.06957 0.025184903 0.039200857
-0.115097925 0.034433484 -0.09296955 -0.016185354 -0.05691618 0.12714231 0.08720964 0.051294986
0.07067658 0.07355216 0.03754499 -0.076604865 0.013337108 0.0036365963 0.024462685 -0.048004955
0.083490044 -0.031415004 -0.045355644 -0.12523945 -0.004907809 0.10243685 -0.041890047 -0.010696891
-0.05734942 0.03425007 -0.07611228 -0.08576886 -0.058257163 -0.12456869 0.061042015 0.13459481
-0.10614605 -0.052567184 -0.083224155 -0.11314749 -0.11067122 0.11493809 0.117136165 0.05420082
0.14037001 -0.05179559 -0.07748776 -0.0181938 0.006702983 -0.033646196 0.10304794 -0.0032508352
0.10118027 0.09852943 0.019155763 0.07491262 0.1697157 -0.10695895 -0.10635996 -0.113089226
-0.005069456 0.091190375 0.055852827 0.08605574 -0.026628582 0.035269547 -0.0036350123 0.011027146
-0.16050655 0.00033941254 -0.04333767 0.123912424 0.03159957 -0.093340114 -0.091834694 0.017919127
-0.008170428 0.021502832 -0.037077673 0.03762508 -0.016848454 0.0039003612 0.06096928 -0.09040257
-0.014283471 -0.12925154 -0.05347364 0.03743942 0.08058804 -0.11955707 -0.20620604 -0.08191767
-0.14366458 0.053961147 0.04667757 -0.07853716 -0.014964402 0.020127779 -0.09900827 -0.091228284
-0.09653633 -0.018194376 0.023189673 -0.12017245 -0.006349071 -0.13762586 0.08208885 -0.08849595
0.11258377 0.077854075 0.020949693 -0.028139891 -0.07614382 0.08714393 -0.020988896 -0.042165626
0.120534584 0.09913634 -0.02570305 -0.007395367 0.0295513 -0.089105904 -0.17136559 -0.09310477
-0.01864827 0.036932733 0.055036105 0.10238467 -0.04669067 -0.03412716 0.05134261 0.18660866
-0.013960271 -0.057368435 -0.03731145 -0.09218492 0.021868225 0.0021973383 -0.09220845 0.027643118
-0.089571476 -0.03859364 -0.17516007 0.08222745 0.24182242 0.0050740875 -0.004238165 -0.11040043
-0.05575634 0.034968607 0.012764385 0.043408748 -0.13210453 0.056271788 0.21430036 -0.079575546
0.1439391 0.17389193 -0.032029726 -0.005827565 0.06734463 -0.1549284 0.057091333 -0.032325435
0.09259758 0.09356483 0.038970612 -0.12511024 0.07747263 -0.0030609188 -0.033810474 0.02791527
-0.03439172 0.070107736 -0.030565105 -0.123596825 -0.13554917 -0.07849077 -0.077282235 0.0032708019
-0.084037825 -0.11363274 -0.11524812 -0.12152261 0.011167794 0.04849252 0.07721932 0.09430722
0.077958874 -0.010103031 -0.035906896 -0.010284206 -0.030991118 -0.05541351 -0.06966105 -0.12417527
0.06093355 0.043689687 -0.040650986 -0.16356798 0.08054894 0.17037411 0.032643843 0.01479425
-0.061902422 -0.0562428 0.031317662 0.040871643 -0.086279646 -0.039250255 0.05770726 -0.011630109
-0.024957351 0.013200303 0.0022312216 -0.036981247 0.0134225 0.0860248 -0.055333268 0.02999985
0.103521995 -0.08046926 -0.05502864 -0.10636241 -0.12100757 0.005513873 0.09029805 0.046314415
0.012941349 0.027701989 -0.009120878 0.058271617 0.02672258 0.07401797 -0.04310161 -0.0019147011
0.08654947 0.00956386 0.0814047 -0.018401757 -0.109143496 -0.10294705 0.13320376 0.068755925
-0.08420062 0.074576065 0.060567413 -0.01753334 -0.105418175 0.10244557 0.0026712061 -0.00089095935
00000000: 43e5 2b3c 9dd1 943d 6471 b13c b64d 0e3e
00000010: 2aa2 babd b77a 8ebd 9250 ce3c 1491 203d
00000020: 76b8 ebbd 200a 0d3d d266 bebd 2697 84bc
00000030: f120 69bd 9831 023e f89a b23d b11a 523d
00000040: e2be 903d 84a2 963d c7c8 193d 03e3 9cbd
00000050: e383 5a3c f653 6e3b f865 c83c d8a0 44bd
00000060: d4fc aa3d 05ad 00bd d7c6 39bd c53e 00be
00000070: b0d1 a0bb 69ca d13d e694 2bbd 0342 2fbc
00000080: 3ae7 6abd cd49 0c3d c1e0 9bbd 96a7 afbd
00000090: 109f 6ebd df1d ffbd 3107 7a3d 39d3 093e
000000a0: 1a63 d9bd b050 57bd 6d71 aabd dfb9 e7bd
000000b0: 98a7 e2bd a964 eb3d 16e5 ef3d ae01 5e3d
000000c0: 28bd 0f3e 9d27 54bd e7b1 9ebd 2a0b 95bc
000000d0: b2a4 db3b 98d0 09bd cc0a d33d f70b 55bb
000000e0: 9a37 cf3d ccc9 c93d 8cec 9c3c ca6b 993d
000000f0: f4c9 2d3e 4b0d dbbd 40d3 d9bd 539b e7bd
00000100: ae1d a6bb 05c2 ba3d efc5 643d fe3d b03d
00000110: 2f24 dabc cd76 103d 6339 6ebb 34ab 343c
00000120: d45b 24be 2ef3 b139 d782 31bd ccc5 fd3d
00000130: 8d6e 013d 1a29 bfbd d413 bcbd 22cb 923c
00000140: 42dd 05bc b526 b03c c2de 17bd c21c 1a3d
00000150: c505 8abc 349d 7f3b ecba 793d fc24 b9bd
00000160: 3805 6abc 845a 04be 2d07 5bbd 145a 193d
00000170: 580b a53d 56da f4bd ad27 53be 74c4 a7bd
00000180: cf1c 13be 5d06 5d3d fb30 3f3d 17d8 a0bd
00000190: 402d 75bc 03e3 a43c d9c4 cabd e5d5 babd
000001a0: d7b4 c5bd 5f0c 95bc 45f8 bd3c f91c f6bd
000001b0: de0b d0bb cbed 0cbe 331e a83d 5d3d b5bd
000001c0: 5292 e63d f571 9f3d b19e ab3c a185 e6bc
000001d0: 4bf1 9bbd 8478 b23d e8f0 abbc ddb5 2cbd
000001e0: d6da f63d fe07 cb3d 348f d2bc d654 f2bb
000001f0: 9115 f23c 287d b6bd 767a 2fbe b7ad bebd
00000200: 42c4 98bc c746 173d 8a6d 613d 0eaf d13d
00000210: b73e 3fbd ecc8 0bbd a14c 523d 5716 3f3e
00000220: 9fb9 64bc 2afb 6abd e4d3 18bd 73cb bcbd
00000230: fe24 b33c 3801 103b c9d7 bcbd d273 e23c
00000240: 4071 b7bd 5d14 1ebd 295d 33be de66 a83d
00000250: 4ca0 773e 8844 a63b 4ee0 8abb 9f19 e2bd
00000260: c360 64bd 3e3b 0f3d b621 513c 5fcd 313d
00000270: 6946 07be 3f7d 663d 8e71 5b3e 81f8 a2bd
00000280: c564 133e ba10 323e 9a31 03bd 29f5 bebb
00000290: fbeb 893d 8da5 1ebe 9ad8 693d ad67 04bd
000002a0: cda3 bd3d eb9e bf3d a69f 1f3d e61c 00be
000002b0: f8a9 9e3d b299 48bb da7c 0abd 90ae e43c
000002c0: 55de 0cbd a594 8f3d ac63 fabc 5520 fdbd
000002d0: 67cd 0abe c5bf a0bd 2646 9ebd f35a 563b
000002e0: 061c acbd 48b8 e8bd 3507 ecbd d9e0 f8bd
000002f0: 1ff9 363c 18a0 463d 2a25 9e3d 2524 c13d
00000300: e7a8 9f3d 2f87 25bc 1c13 13bd 167f 28bc
00000310: 16e1 fdbc 47f9 62bd 74aa 8ebd 9b4f febd
00000320: 7595 793d f5f3 323d a681 26bd 5d7e 27be
00000330: d8f6 a43d 8d76 2e3e 8db5 053d 9563 723c
00000340: 658d 7dbd da5e 66bd f346 003d 0669 273d
00000350: 62b3 b0bd e0c4 20bd 735e 6c3d 368c 3ebc
00000360: 5c73 ccbc 1546 583c b039 123b a679 17bd
00000370: 0cea 5b3c c52d b03d 23a5 62bd 3fc2 f53c
00000380: 5703 d43d 11cd a4bd b665 61bd 89d4 d9bd
00000390: d1d2 f7bd b8ad b43b 2fee b83d 2fb4 3d3d
000003a0: f407 543c 48ef e23c bc6f 15bc 38ae 6e3d
000003b0: 50e9 da3c bc96 973d 508b 30bd b5f6 faba
000003c0: d940 b13d bcb1 1c3c 82b7 a63d 48bf 96bc
000003d0: a086 dfbd e7d5 d2bd 9166 083e e8cf 8c3d
000003e0: 6071 acbd 56bb 983d 8915 783d 14a2 8fbc
000003f0: 7ce5 d7bd fcce d13d 670f 2f3b 458f 69ba

backbone.4.bias f4 [32]
-4.1755652e-07 -5.5748774e-08 -7.975773e-08 -3.078956e-07 -2.798427e-08 -1.9984735e-07 9.089689e-10 2.1843195e-07
4.074543e-08 -4.037873e-07 -2.395039e-07 4.6967867e-07 5.608003e-07 -3.8692626e-08 -4.3647003e-07 -2.0920308e-07
7.4724045e-07 4.3904043e-07 6.636478e-08 4.016701e-08 -2.6124237e-06 -3.877624e-07 -1.248615e-07 5.516035e-07
-8.3957396e-08 6.178968e-07 5.478583e-08 -1.10818e-07 -3.4504146e-07 -1.0416918e-07 8.066637e-08 -1.9887722e-07
00000000: 882c e0b4 6d70 6fb3 4747 abb3 d94c a5b4
00000010: 0f62 f0b2 9f95 56b4 00db 7930 1e8a 6a34
00000020: 1300 2f33 1bc8 d8b4 2a95 80b4 2528 fc34
00000030: e789 1635 fe2e 26b3 fc53 eab4 4ea1 60b4
00000040: f995 4835 42b5 eb34 6c84 8e33 1884 2c33
00000050: 1951 2fb6 a92d d0b4 ab11 06b4 e711 1435
00000060: 114c b4b3 8bdd 2535 a84d 6b33 d7fa edb3
00000070: 233e b9b4 9db3 dfb3 ce3a ad33 f48a 55b4

backbone.5.weight f4 [32]
1.0073262 0.99669117 0.9768747 1.0039747 0.9783173 0.97402185 0.9657536 0.9747333
0.9943513 0.98956263 0.985176 0.9740562 0.96479064 0.9808329 0.9577189 0.99118143
0.9626306 0.97939813 1.0073593 0.98033035 1.012434 0.9799386 1.0014167 1.0135541
0.9969814 1.0020871 1.006702 0.9476301 0.99314725 0.97679204 0.98819274 0.9781508
00000000: 11f0 803f 2727 7f3f 7614 7a3f 3e82 803f
00000010: 0173 7a3f 7f59 793f a13b 773f 1f88 793f
00000020: cf8d 7e3f fa53 7d3f 7f34 7c3f bf5b 793f
00000030: 85fc 763f dd17 7b3f 112d 753f 11be 7d3f
00000040: f66e 763f d6b9 7a3f 26f1 803f eef6 7a3f
00000050: 7097 813f 42dd 7a3f 6c2e 803f 24bc 813f
00000060: 2c3a 7f3f 6444 803f 9cdb 803f e397 723f
00000070: e63e 7e3f 0b0f 7a3f 33fa 7c3f 1768 7a3f

backbone.5.bias f4 [32]
0.04409628 -0.007324983 -0.0046805753 0.028054064 0.010466873 0.026156278 -0.02114367 -0.022600008
-0.000455188 -0.013456028 -0.030617973 0.0024905181 -0.0035415315 0.0149098495 -0.0025446317 -0.007040121
0.038357202 -0.02495102 0.008324831 -0.01703495 0.0072915363 0.0037957763 0.0011166239 0.02080741
-0.018128512 0.031910736 0.05360021 -0.01722825 -0.01356375 0.009113538 -0.0035983203 -0.0003860936
00000000: 4d9e 343d 6906 f0bb 835f 99bb a3d1 e53c
00000010: 3f7d 2b3c b145 d63c 7d35 adbc a723 b9bc
00000020: 4da6 eeb9 ac76 5cbc 8bd2 fabc f637 233b
00000030: 0a19 68bb 7148 743c d6c3 26bb d1b0 e6bb
00000040: 711c 1d3d 1566 ccbc df64 083c e18c 8bbc
00000050: d7ed ee3b 8fc2 783b ae5b 923a 4d74 aa3c
00000060: 3f82 94bc d5b4 023d e58b 5b3d 4222 8dbc
00000070: 7e3a 5ebc f350 153c ccd1 6bbb 9b6c cab9

backbone.5.running_mean f4 [32]
-0.38946345 -0.021793786 -0.015848802 -0.68407065 0.35994655 -0.16751906 -0.74417526 -0.24727245
-0.39753506 -0.14506905 0.1381891 0.072702765 -0.53353286 -0.9118042 -0.054305147 -0.14373939
-0.3012141 0.17465715 -0.27161536 1.0216582 -0.16703215 -0.11893856 1.165279 -0.21304289
0.535766 -0.718658 -0.53777814 -0.25516835 -1.163621 -0.82044166 0.27374855 1.090025
00000000: c167 c7be e288 b2bc 59d5 81bc 411f 2fbf
00000010: ea4a b83e 1e8a 2bbe 4582 3ebf fd34 7dbe
00000020: b789 cbbe fb8c 14be 7281 0d3e 30e5 943d
00000030: 9c95 08bf 006c 69bf 136f 5ebd 6b30 13be
00000040: bc38 9abe 53d9 323e 2b11 8bbe b2c5 823f
00000050: 7a0a 2bbe 0f96 f3bd dd27 953f ea27 5abe
00000060: f627 093f f8f9 37bf d4ab 09bf 6da5 82be
00000070: 88f1 94bf 7708 52bf c528 8c3e f085 8b3f

backbone.5.running_var f4 [32]
0.35591966 0.42195004 0.4266129 0.27067614 0.76613617 0.16456866 1.3352057 0.3987251
0.5834208 0.49171218 0.43009833 0.45210937 0.8197271 0.31860402 0.56162435 0.9680628
0.3025414 0.4088851 0.5651745 0.71928924 0.21956353 0.45406514 2.066006 0.2913713
0.56018966 0.24533053 0.4928131 1.5832299 0.89374995 0.49539953 0.83692396 0.9374188
00000000: 1a3b b63e d609 d83e 026d da3e 1096 8a3e
00000010: 8021 443f b084 283e 05e8 aa3f b225 cc3e
00000020: 115b 153f b3c1 fb3e d935 dc3e e17a e73e
00000030: a3d9 513f 1120 a33e 9dc6 0f3f f7d2 773f
00000040: b5e6 9a3e 6359 d13e 47af 103f 5723 383f
00000050: 43d5 603e 3a7b e83e 7139 0440 9e2e 953e
00000060: 9768 0f3f ed37 7b3e 0052 fc3e 47a7 ca3f
00000070: cccc 643f 02a5 fd3e a640 563f aefa 6f3f

backbone.8.weight f4 [64, 32, 3, 3]
0.048230834 0.0038533607 -0.016980374 0.0903892 -0.02669971 0.0010167682 -0.01845251 -0.0024875114
0.035186287 -0.030855667 0.025142046 -0.0010627066 -0.012559767 -0.043836173 0.036830816 -0.080855906
0.038278557 0.045629136 0.060284235 0.03090031 0.029611133 -0.059568517 0.050351143 -0.117932744
-0.07660058 -0.022453636 -0.09257209 0.03361253 0.04281876 -0.0016864352 -0.060932085 -0.025554877
0.020256141 -0.052673053 -0.060017977 0.06838852 0.024815878 0.0042739892 -0.03302388 -0.005641186
-0.00049371464 0.0034235062 -0.105471075 0.039778706 -0.026873408 0.12538779 0.08123301 0.049076844
0.06020121 -0.0072204447 0.052687302 -0.0046511116 -0.011934776 0.030922273 0.029166874 -0.089405596
-0.060546495 -0.038624283 -0.08259578 0.044856172 -0.095382966 -0.13109536 -0.037856556 -0.12632802
0.066566676 -0.0015379702 0.026876489 -0.067452826 -0.030672928 -0.05535313 0.0659361 0.071069196
0.015988374 0.0691512 0.017482653 -0.048029277 -0.017707665 0.031165546 -0.037243906 -0.010551259
0.004670644 -0.011079903 0.045906693 0.09703775 0.04364155 -0.133417 -0.11889575 0.08097935
-0.12004178 0.01686432 -0.027747745 -0.009997862 0.017015442 -0.010997302 0.017680217 0.021943508
0.051762696 0.049848948 -0.028356347 -0.037786856 -0.025027566 -0.04809096 -0.14199018 0.05707088
0.06897742 -0.023204327 -0.049520425 0.0063234116 -0.091145895 0.027547248 0.021552239 0.048244677
-0.044855032 -0.107340895 0.040650915 0.03956391 -0.0074992715 0.1256739 0.009040726 -0.013674062
0.019437034 -0.054059513 -0.06224173 -0.03701091 0.078219324 -0.062412683 0.084622204 0.042149074
-0.030387426 0.059470203 0.065320306 0.05744411 0.06807197 0.029038366 0.074476205 -0.0068840934
0.03444919 0.0052912063 0.074014775 -0.029333483 -0.024238175 0.10380417 -0.0013988853 -0.04156544
0.025760949 -0.03948823 0.020999089 -0.08014515 0.015923006 0.013520984 -0.077751644 0.004901644
-0.010221598 0.038145766 -0.035402864 0.0944312 -0.01926937 -0.06457051 -0.0070995963 0.04357818
-0.020462422 -0.011007617 -0.052645825 -0.0020872455 -0.041605443 -0.073574424 0.086583756 -0.018866837
0.044537984 0.0321564 -0.05155493 0.026567934 0.09347881 0.013097673 -0.056233104 0.038932048
0.051653296 -0.0018660255 0.084423296 -0.06498181 0.080566056 -0.07208748 -0.07044698 0.021464689
0.08401988 -0.11726176 -0.01965471 -0.09627923 0.025837766 0.0127142435 -0.04277045 -0.0043565715
0.11301869 0.08324907 -0.11700129 -0.0081306845 0.043258037 0.018254071 -0.070076555 -0.067931056
-0.019310173 -0.044263218 -0.046519503 0.023611438 -0.034488253 0.035344362 -0.0025362903 -0.01249009
-0.029836353 -0.010294174 -0.05186204 0.062131282 -0.03232618 0.031264033 -0.06134253 -0.06428191
-0.005987378 -0.052844506 0.07693659 -0.07239379 0.0332896 0.05746349 -0.021124788 0.018306587
-0.0069560655 0.01971946 -0.014333229 -0.07211837 -0.119685166 0.018076848 -0.06964849 -0.09731772
-0.09011235 -0.06880612 0.04921841 -0.058083694 -0.0040126066 -0.0701625 -0.046794057 -0.082754016
-0.0130421575 0.01079519 0.063150726 0.04601472 -0.016302172 -0.032277733 -0.040282235 -0.041827917
-0.021364374 -0.030074142 0.020375127 -0.05653172 -0.0030848265 -0.05993519 -0.043167364 -0.012644834
00000000: b28d 453d aa88 7c3b 6d1a 8bbc f91d b93d
00000010: 5ab9 dabc 1445 853a b829 97bc 8405 23bb
00000020: 7f1f 103d 06c5 fcbc b1f6 cd3c 844a 8bba
00000030: 7bc7 4dbc 8f8d 33bd e9db 163d c897 a5bd
00000040: fac9 1c3d 9ee5 3a3d 9aec 763d a622 fd3c
00000050: 0c93 f23c 1efe 73bd 003d 4e3d b986 f1bd
00000060: c4e0 9cbd b0f0 b7bc 7096 bdbd 4bad 093d
00000070: b962 2f3d 600b ddba ec93 79bd 7658 d1bc
00000080: 35f0 a53c b3bf 57bd 69d5 75bd 480f 8c3d
00000090: ab4a cb3c d20c 8c3b 0c44 07bd b3d9 b8bb
000000a0: a16c 01ba e75c 603b 3801 d8bd ffee 223d
000000b0: 9f25 dcbc a865 003e 7e5d a63d cd04 493d
000000c0: 8b95 763d 7b99 ecbb a4ce 573d 5a68 98bb
000000d0: 148a 43bc b550 fd3c 5eef ee3c 481a b7bd
000000e0: 9aff 77bd 7f34 1ebd fa27 a9bd 1bbb 373d
000000f0: 2558 c3bd dd3d 06be 7a0f 1bbd 225c 01be
00000100: 1c54 883d b795 c9ba 152c dc3c b524 8abd
00000110: cb45 fbbc f7b9 62bd 8209 873d ba8c 913d
00000120: 0dfa 823c 259f 8d3d c837 8f3c 59ba 44bd
00000130: aa0f 91bc e34e ff3c 118d 18bd 30df 2cbc
00000140: 340c 993b 7b88 35bc a808 3c3d babb c63d
00000150: 7bc1 323d 779e 08be 9d7f f3bd 80d8 a53d
00000160: 77d8 f5bd 0b27 8a3c 3d4f e3bc 13ce 23bc
00000170: f863 8b3c 072e 34bc 1ad6 903c dfc2 b33c
00000180: 1f05 543d 692e 4c3d 924b e8bc 64c6 1abd
00000190: 9c06 cdbc 07fb 44bd e065 11be 28c3 693d
000001a0: 0944 8d3d 0017 bebc eed5 4abd 9f34 cf3b
000001b0: b3aa babd c4aa e13c 528e b03c 369c 453d
000001c0: e9b9 37bd 8bd5 dbbd 9381 263d c40d 223d
000001d0: 73bc f5bb a9b0 003e 8e1f 143c 2c09 60bc
000001e0: 6a3a 9f3c 826d 5dbd 2ff1 7ebd c198 17bd
000001f0: 7431 a03d 71a4 7fbd 684e ad3d 82a4 2c3d
00000200: 0def f8bc 0797 733d a7c6 853d 844a 6b3d
00000210: 5169 8b3d dee1 ed3c fb86 983d f693 e1bb
00000220: 981a 0d3d db61 ad3b 0f95 973d c64c f0bc
00000230: 238f c6bc 4897 d43d cd5a b7ba 8640 2abd
00000240: a008 d33c 69be 21bd 4806 ac3c 2423 a4bd
00000250: f770 823c 1e87 5d3c 413c 9fbd f89d a03b
00000260: 7d78 27bc bc3e 1c3d 9802 11bd 2565 c13d
00000270: ccda 9dbc 8b3d 84bd bba3 e8bb 097f 323d
00000280: cfa0 a7bc 4b59 34bc 26a3 57bd 2bca 08bb
00000290: 786a 2abd 30ae 96bd d352 b13d a08e 9abc
000002a0: 766d 363d 6eb6 033d 432b 53bd ffa4 d93c
000002b0: d171 bf3d 9f97 563c af54 66bd 3677 1f3d
000002c0: 6892 533d 6d95 f4ba 1fe6 ac3d 2f15 85bd
000002d0: d1ff a43d 9aa2 93bd 8246 90bd b7d6 af3c
000002e0: 9d12 ac3d ef26 f0bd ea02 a1bc 0c2e c5bd
000002f0: b9a9 d33c 674f 503c 1130 2fbd 92c1 8ebb
00000300: 5876 e73d 7d7e aa3d 5f9e efbd 9036 05bc
00000310: 572f 313d 9089 953c 4c84 8fbd 701f 8bbd
00000320: 5e30 9ebc 594d 35bd 3c8b 3ebd c66c c13c
00000330: 8e43 0dbd 40c5 103d e437 26bb 3ca3 4cbc
00000340: 5e6b f4bc e5a8 28bc 4a6d 54bd 5f7d 7e3d
00000350: 7568 04bd b70e 003d 4e42 7bbd 3ca6 83bd
00000360: c431 c4bb 7b73 58bd ee90 9d3d 3243 94bd
00000370: ad5a 083d d65e 6b3d e40d adbc b2f7 953c
00000380: b5ef e3bb b48a a13c ebd5 6abc ccb2 93bd
00000390: 7f1d f5bd e615 943c dea3 8ebd 834e c7bd
000003a0: d38c b8bd 39ea 8cbd 3e99 493d 2be9 6dbd
000003b0: 2f7c 83bb 5bb1 8fbd 20ab 3fbd f07a a9bd
000003c0: c6ae 55bc 4fde 303c 2b55 813d ee79 3c3d
000003d0: 228c 85bc a835 04bd fcfe 24bd c053 2bbd
000003e0: 5704 afbc 0c5e f6bc bde9 a63c ce8d 67bd
000003f0: cd2a 4abb 9a7e 75bd 43d0 30bd 472c 4fbc

backbone.8.bias f4 [64]
-2.0550273e-07 -3.4516844e-08 2.2740373e-08 -7.225322e-08 1.4388336e-08 6.018337e-08 -3.2486486e-08 2.2775371e-08
-3.8479513e-08 3.9989747e-08 1.0181467e-07 -1.8986768e-09 9.7081404e-08 2.3739885e-07 -5.4362978e-08 6.863909e-08
-7.051747e-08 -3.9835197e-07 -1.0383822e-08 6.335055e-08 1.788463e-09 -4.7264468e-08 3.39813e-07 -1.7264901e-09
1.8536151e-07 5.5206204e-09 -2.27563e-09 -3.8876582e-08 6.4490563e-10 1.1903822e-08 2.3080604e-07 2.7237652e-08
3.1963204e-08 2.271772e-07 1.686501e-08 -2.1026086e-08 -1.4475062e-08 -3.5751683e-08 -1.5512506e-07 1.12791135e-07
-2.980753e-08 9.025163e-08 -2.0522425e-08 2.112472e-07 6.320984e-08 8.591376e-08 5.8520627e-08 1.6692287e-07
1.3670551e-07 5.6198974e-08 -5.755497e-09 3.0189295e-08 1.0112134e-07 6.5269945e-09 1.284866e-08 -2.4571818e-07
8.249291e-09 2.2076586e-08 7.506329e-08 8.384674e-08 2.119571e-08 2.7195531e-08 5.3529163e-08 -9.93946e-09
00000000: 29a8 5cb4 ac3f 14b3 9c56 c332 a129 9bb3
00000010: 9230 7732 283e 8133 4587 0bb3 92a3 c332
00000020: ac44 25b3 31c1 2b33 35a5 da33 e079 02b1
00000030: 117b d033 b3e7 7e34 ba7c 69b3 bd66 9333
00000040: 646f 97b3 14dd d5b4 8864 32b2 550b 8833
00000050: f3cd f530 d5ff 4ab3 8b6f b634 7849 edb0
00000060: c907 4734 e4af bd31 4e61 1cb1 41f9 26b3
00000070: 3345 3130 9081 4c32 7bd3 7734 3bf8 e932
00000080: ea47 0933 feed 7334 8dde 9032 da9c b4b2
00000090: ffad 78b2 648d 19b3 7490 26b4 9537 f233
000000a0: ba05 00b3 5cd0 c133 4a49 b0b2 30d3 6234
000000b0: fabd 8733 977f b833 1c58 7b33 693b 3334
000000c0: 53c9 1234 6d5f 7133 e3c1 c5b1 7ba9 0133
000000d0: 0b28 d933 0d44 e031 01bd 5c32 40eb 83b4
000000e0: c4b8 0d32 eda2 bd32 7b32 a133 3c0f b433
000000f0: dc11 b632 9b9b e932 f0e7 6533 35c2 2ab2

backbone.9.weight f4 [64]
0.97833633 0.94948363 0.9106484 0.9628873 0.9570587 0.936716 0.9379797 0.96333736
1.035033 0.962915 0.9734673 0.9857523 0.98161715 1.0165952 1.0022275 0.95208555
0.9650871 0.9971098 0.9889818 0.9165079 0.9016159 0.9138978 0.997267 0.9023029
0.9690894 0.9248186 0.92907953 0.9947653 0.96373725 0.94413066 0.9726473 0.965885
0.9210678 0.9917633 0.9651203 0.9789013 0.9421097 0.94732344 1.0294526 0.9711293
0.96657336 1.0036663 0.97565067 1.0138854 0.9988481 0.9993798 1.0147203 1.0025353
0.9485424 1.0074453 0.8794672 0.9506168 0.9579739 0.9768278 0.93469185 1.0261325
0.97833884 0.9731467 0.9749562 0.9993308 0.9681269 0.9628652 0.9859963 0.94341695
00000000: 4074 7a3f 5c11 733f 4120 693f c87f 763f
00000010: cd01 753f 9fcc 6f3f 701f 703f 479d 763f
00000020: f67b 843f 9981 763f 2735 793f 435a 7c3f
00000030: 434b 7b3f cb1f 823f fe48 803f e1bb 733f
00000040: f30f 773f 9642 7f3f e92d 7d3f 43a0 6a3f
00000050: 4dd0 663f 35f5 693f e44c 7f3f 53fd 663f
00000060: 3e16 783f e9c0 6c3f 28d8 6d3f f0a8 7e3f
00000070: 7cb7 763f 8cb2 713f 6aff 783f 3d44 773f
00000080: 19cb 6b3f 33e4 7d3f 2012 773f 4799 7a3f
00000090: 1a2e 713f ca83 723f 1ac5 833f ee9b 783f
000000a0: 5a71 773f 2378 803f 3ec4 793f ffc6 813f
000000b0: 82b4 7f3f 5bd7 7f3f 5be2 813f 1453 803f
000000c0: add3 723f f8f3 803f c324 613f 9f5b 733f
000000d0: c73d 753f 6311 7a3f f747 6f3f 4f58 833f
000000e0: 6a74 7a3f 2420 793f bb96 793f 25d4 7f3f
000000f0: 2ad7 773f 557e 763f 416a 7c3f c683 713f

backbone.9.bias f4 [64]
-0.014370375 0.0010527596 -0.032937597 0.018887006 -0.010348173 -0.016480953 -0.007578914 -0.024455689
-0.014488724 -0.039435543 0.005889355 -0.0088950135 -0.0054791565 -0.007662575 0.014936297 -0.017848615
0.0017440491 -0.015888019 -0.0051664365 -0.012406741 -0.031111857 0.0047417697 -0.021554431 -0.034109265
-0.029610809 -0.022337884 -0.013738321 -0.03727242 -0.02412884 -0.0003966332 -0.028068434 0.0020005265
-0.029612726 -0.009451911 -0.02696859 -0.0067558447 -0.038027503 -0.022183815 0.0021516222 -0.021163346
-0.016523536 -0.05604423 0.0043109003 -0.016974103 -0.008611665 0.0027815644 -0.061791487 -0.0127024185
-0.0155128315 0.0012886148 -0.018590389 -0.0135616055 -0.027532127 -0.04545131 -0.022834795 0.022056641
-0.0025909352 -0.012672769 -0.038492974 -0.0055875536 0.0007943581 0.00708616 -0.00322941 -0.011397268
00000000: b971 6bbc c0fc 893a 93e9 06bd ecb8 9a3c
00000010: 628b 29bc 1003 87bc 8a58 f8bb 4c57 c8bc
00000020: 1d62 6dbc 2a87 21bd 7efb c03b 64bc 11bc
00000030: 7f8a b3bb 5716 fbbb 5fb7 743c 4237 92bc
00000040: 9498 e43a 9727 82bc 364b a9bb a545 4bbc
00000050: 4bde febc d960 9b3b eb92 b0bc 28b6 0bbd
00000060: 5e92 f2bc f0fd b6bc b216 61bc f7aa 18bd
00000070: d8a9 c5bc 35f3 cfb9 c6ef e5bc 441b 033b
00000080: 6396 f2bc 30dc 1abc 3ced dcbc 2260 ddbb
00000090: bac2 1bbd d5ba b5bc 3b02 0d3b c15e adbc
000000a0: 5e5c 87bc a28e 65bd 7442 8d3b 460d 8bbc
000000b0: f117 0dbc e84a 363b 1219 7dbd ce1d 50bc
000000c0: 8829 7ebc bde6 a83a df4a 98bc 7f31 5ebc
000000d0: 0e8b e1bc 272b 3abd 0910 bbbc 21b0 b43c
000000e0: aecc 29bb 72a1 4fbc cfaa 1dbd cc17 b7bb
000000f0: 783c 503a 0533 e83b 82a4 53bb 9bbb 3abc

backbone.9.running_mean f4 [64]
-1.016544 -0.29662454 -0.058956657 -0.9542776 -0.25802785 -0.8830132 -0.5367008 -1.3291376
-0.9834167 -0.06139735 0.31793708 -0.42414758 -0.6683548 -0.79475373 -0.63751215 -0.72536045
-1.0427397 -0.27818337 -0.28652084 -0.449924 -0.92210966 -1.4406195 -0.3469325 -0.64770836
-0.71047264 0.03220375 -0.21838441 -0.47707233 -0.45459545 -0.8646936 -1.1370744 -0.24954051
0.14392859 -0.52828294 -0.51900256 0.043612495 0.29501823 -0.43391275 0.021166278 -0.30532974
-0.05332154 -0.15836844 -0.3903222 0.05099462 0.13699313 -0.34451956 -0.60498613 -0.356616
-0.69726104 -0.11317471 -0.9315624 -1.1726847 0.08674827 -0.76961166 -0.6422143 0.0983075
0.7590876 0.6907188 -0.38690814 -0.34895936 -1.3366486 0.09622109 -0.9353396 -1.2158096
00000000: 1d1e 82bf 2cdf 97be 897c 71bd 894b 74bf
00000010: 3a1c 84be 270d 62bf 3965 09bf 2e21 aabf
00000020: 32c1 7bbf ca7b 7bbd a6c8 a23e df29 d9be
00000030: 4d19 2bbf fb74 4bbf ff33 23bf 39b1 39bf
00000040: 7f78 85bf 0d6e 8ebe dcb2 92be 705c e6be
00000050: 610f 6cbf 3866 b8bf 23a1 b1be 37d0 25bf
00000060: 89e1 35bf 14e8 033d 2aa0 5fbe d342 f4be
00000070: bcc0 e8be 8f5c 5dbf a78b 91bf 8c87 7fbe
00000080: 0462 133e 8d3d 07bf 5add 04bf 04a3 323d
00000090: a10c 973e d029 debe e764 ad3c 2e54 9cbe
000000a0: b067 5abd 562b 22be 50d8 c7be bcdf 503d
000000b0: ed47 0c3e de64 b0be 5fe0 1abf 5f96 b6be
000000c0: b37f 32bf 24c8 e7bd e07a 6ebf 881a 96bf
000000d0: 14a9 b13d 4505 45bf 2868 24bf 7155 c93d
000000e0: 9153 423f f3d2 303f d318 c6be cdaa b2be
000000f0: 4d17 abbf 900f c53d 6b72 6fbf a69f 9bbf

backbone.9.running_var f4 [64]
0.63356733 0.89661956 0.5866657 0.35277158 0.87826794 1.0320265 0.6695308 0.8350114
0.4645373 0.4659355 0.7140102 0.48609042 0.56457144 0.48648837 0.8438227 0.7384324
0.5120633 0.37444058 0.44754297 0.47450876 0.647232 1.2629842 0.3955572 0.547202
0.4225051 1.1035401 0.37299582 0.34098184 0.6551076 0.57532114 0.7612013 0.40541914
0.7765449 0.48607403 0.7172266 1.5860295 1.2667681 0.6115952 0.44876447 0.38847467
0.9622925 0.50993514 0.6871763 0.46248516 0.4470547 0.33466592 0.42853415 0.51319236
0.5615521 0.44080156 0.6802558 0.4646382 0.46122703 0.24394432 1.1258335 0.5426576
1.1602035 1.0310848 0.4782554 0.4758448 1.4808321 0.47765726 1.539659 1.4927896
00000000: 7831 223f dc88 653f b92f 163f 7a9e b43e
00000010: 2bd6 603f 7219 843f 5f66 2b3f 4fc3 553f
00000020: d5d7 ed3e 198f ee3e 5fc9 363f d8e0 f83e
00000030: c187 103f 0115 f93e c404 583f e809 3d3f
00000040: 9516 033f adb6 bf3e 5a24 e53e d0f2 f23e
00000050: ffb0 253f 77a9 a13f 7986 ca3e 6e15 0c3f
00000060: 9752 d83e cd40 8d3f 4ff9 be3e 2c95 ae3e
00000070: 22b5 273f 3f48 133f 17de 423f 1993 cf3e
00000080: a6cb 463f b2de f83e 2a9c 373f 0403 cb3f
00000090: 7525 a23f 8191 1c3f 75c4 e53e 27e6 c63e
000000a0: cd58 763f 1c8b 023f c9ea 2f3f dbca ec3e
000000b0: 5be4 e43e 5559 ab3e d468 db3e 9360 033f
000000c0: e1c1 0f3f beb0 e13e 3e25 2e3f 0fe5 ed3e
000000d0: f325 ec3e 8acc 793e 501b 903f 9ceb 0a3f
000000e0: 8c81 943f 96fa 833f e4dd f43e eea1 f33e
000000f0: e88b bd3f 7e8f f43e 8c13 c53f bb13 bf3f

backbone.12.weight f4 [128, 64, 3, 3]
-0.0032119632 0.028649753 0.0048539103 0.034727927 0.01774013 0.0062996955 -0.004890479 -0.079894856
-0.02484784 -0.0058981073 0.10273218 0.003976813 -0.045048174 -0.012391542 -0.002949899 -0.011569638
-0.009472152 0.017127698 -0.0042537255 -0.046589106 0.062751025 -0.025595028 0.02027454 -0.008000897
-0.020350272 0.051687118 0.014251955 0.00902289 0.0028987417 -0.029290404 0.027663179 -0.01892455
0.08913081 -0.052816354 0.007710262 0.00875653 -0.017353956 6.62594e-05 0.009153784 -0.025684461
-0.051441424 -0.04680063 -0.016175956 -0.01143709 -0.026376523 0.028020281 0.021623455 0.07065528
-0.06829679 -0.048712835 -0.015366391 -0.08976514 -0.056039236 -0.042705584 -0.040762667 0.024924548
0.05365826 0.020446789 0.0045558247 -0.040911943 0.042186733 0.0015613077 -0.027169676 -0.044164445
-0.025613496 0.04977466 0.018387802 -0.030497242 -0.020238064 -0.046949834 0.05536218 0.009488719
0.09722042 0.06279014 0.020905498 -0.008952387 -0.07556692 -0.10006485 -0.032914072 -0.068046525
-0.028608909 0.016473942 -0.036067486 -0.010042829 -0.0023869863 0.0057721604 0.0058436724 0.029005293
-0.06332853 0.023907963 0.0054490375 0.07918854 0.01744658 0.01997927 -0.027395729 -0.038376186
-0.008271875 -0.0059729433 0.05653239 -0.008495215 0.050771177 -0.02711244 0.025057914 0.041084036
0.054465797 -0.03529381 0.010243684 0.09837074 -0.016004805 0.00612809 -0.032045968 0.002556151
-0.0429083 0.015969748 -0.041443963 0.017550081 0.038207497 0.0065009897 -0.055641346 -0.009546148
0.0036576148 0.0018201625 -0.009241595 -0.004633894 -0.022474634 -0.13111895 -0.0051521612 -0.024171315
0.030203005 0.050249513 -0.04713308 -0.03113706 -0.043838825 -0.04798254 0.022207242 0.014523038
-0.025578946 -0.04268506 -0.04718125 -0.022546925 0.018455943 -0.048716992 0.049795985 0.0034461785
-0.0005309523 0.04866377 0.040305484 -0.026088249 -0.06088921 0.0216567 0.08998636 -0.046004537
0.034300204 -0.040821463 -0.0034349626 0.04781856 -0.025409937 -0.04914513 -0.008170854 -0.024063073
-0.08806833 -0.018995097 -0.035515398 -0.011210104 -0.0021119441 -0.06138668 -0.0037218223 -0.07020285
-0.08234503 0.011473776 0.01970427 0.007836387 -0.0215447 -0.043303516 0.027609477 -0.00282294
0.0061907647 0.051700752 0.005814011 0.03512138 0.012229338 0.034141287 -0.014076563 -0.009014226
0.011010279 0.04517764 0.043019094 -0.00047718227 0.01732275 -0.022965997 -0.03584362 0.008583163
-0.04653915 -0.037129145 0.075792395 0.0069907187 -0.0066875867 -0.05112242 -0.028696626 0.043577515
0.0072894664 -0.0819343 -0.013232577 0.0056881486 0.01029088 0.02102646 0.037892293 -0.04791749
-0.014707553 0.035597064 0.046134107 -0.011339832 -0.029495293 -0.012584062 -0.00027246156 -0.049562227
-0.025806043 -0.027651021 -0.037106838 -0.081509866 -0.021469263 0.014333538 0.021275602 -0.032378815
-0.0271052 -0.016719293 0.010528401 0.013420573 0.05159997 0.022837108 -0.0045374357 0.03873737
-0.044889055 -0.004076162 0.06886028 0.04135947 0.030203758 -0.007244737 0.019595912 -0.028979378
-0.0070777945 -0.049991447 0.038185246 0.025759393 0.031602338 0.0024103594 0.006883988 -0.0032231784
0.006229549 0.013933108 0.03514076 0.021760248 -0.003961975 -0.052886337 -0.06838188 -0.0020174808
00000000: cd7f 52bb e3b2 ea3c 8d0d 9f3b df3e 0e3d
00000010: c053 913c ad6d ce3b 5040 a0bb ea9f a3bd
00000020: b38d cbbc e944 c1bb 4065 d23d ed4f 823b
00000030: 6f84 38bd e505 4bbc 1853 41bb 948e 3dbc
00000040: 1631 1bbc 634f 8c3c d662 8bbb 38d4 3ebd
00000050: 9c83 803d aaac d1bc cb16 a63c 3216 03bc
00000060: 9db5 a6bc dfb5 533d 0881 693c bed4 133c
00000070: d1f8 3d3b 6ef2 efbc e49d e23c a807 9bbc
00000080: 378a b63d f655 58bd 5ea6 fc3b 8c77 0f3c
00000090: e229 8ebc bff4 8a38 c1f9 153c 3868 d2bc
000000a0: 3eb4 52bd 04b2 3fbd 7083 84bc a262 3bbc
000000b0: 9413 d8bc ca8a e53c ac23 b13c b7b3 903d
000000c0: 30df 8bbd 1c87 47bd 51c3 7bbc c9d6 b7bd
000000d0: 6689 65bd 0dec 2ebd c1f6 26bd 912e cc3c
000000e0: c3c8 5b3d 0680 a73c 0749 953b 4893 27bd
000000f0: ffcb 2c3d cba4 cc3a f192 debc c7e5 34bd
00000100: 65d3 d1bc 84e0 4b3d 04a2 963c 5ad5 f9bc
00000110: 4cca a5bc 784e 40bd 74c3 623d 9276 1b3c
00000120: 801b c73d 1e98 803d 0242 ab3c 08ad 12bc
00000130: d4c2 9abd cdee ccbd e8d0 06bd fa5b 8bbd
00000140: 3b5d eabc 5cf4 863c 80bb 13bd ae8a 24bc
00000150: fc6e 1cbb 6424 bd3b 477c bf3b 829c ed3c
00000160: 63b2 81bd a2da c33c d78d b23b 9a2d a23d
00000170: 21ec 8e3c 91ab a33c 026d e0bc 5930 1dbd
00000180: c286 07bc aeb8 c3bb 828e 673d 842f 0bbc
00000190: 70f5 4f3d e81a debc 4146 cd3c bc47 283d
000001a0: 8717 5f3d 3e90 10bd 20d5 273c 9976 c93d
000001b0: 821c 83bc 25ce c83b a242 03bd 1985 273b
000001c0: 9dc0 2fbd fdd2 823c 25c1 29bd 30c5 8f3c
000001d0: 777f 1c3d 4106 d53b 2ee8 63bd 7267 1cbc
000001e0: 98b4 6f3b 8592 ee3a 0f6a 17bc ecd7 97bb
000001f0: b91c b8bc 0c44 06be 76d3 a8bb ec02 c6bc
00000200: 4b6c f73c 6fd2 4d3d 9e0e 41bd 2613 ffbc
00000210: 5790 33bd 5789 44bd f6eb b53c 09f2 6d3c
00000220: f08a d1bc 88d6 2ebd 2041 41bd 54b4 b8bc
00000230: eb30 973c 788b 47bd e0f6 4b3d 48d9 613b
00000240: 9b2f 0bba a953 473d 5d17 253d 06b7 d5bc
00000250: f766 79bd 6469 b13c c54a b83d 416f 3cbd
00000260: 5f7e 0c3d 6834 27bd 1c1d 61bb 65dd 433d
00000270: 8028 d0bc 674c 49bd 0cdf 05bc ec1f c5bc
00000280: 2b5d b4bd 9b9b 9bbc 9878 11bd 96aa 37bc
00000290: 8b68 0abb 9970 7bbd d1e9 73bb 83c6 8fbd
000002a0: 83a4 a8bd 81fc 3b3c d96a a13c 3064 003c
000002b0: 837e b0bc 075f 31bd 452d e23c 1301 39bb
000002c0: e6db ca3b 2bc4 533d 7683 be3b 70db 0f3d
000002d0: 905d 483c bcd7 0b3d 62a1 66bc 67b0 13bc
000002e0: 7564 343c 300c 393d ca34 303d 522e fab9
000002f0: 71e8 8d3c 3023 bcbc c2d0 12bd 65a0 0c3c
00000300: d69f 3ebd bb14 18bd 0b39 9b3d 6612 e53b
00000310: 8b23 dbbb be65 51bd 3015 ebbc 567e 323d
00000320: 7adc ee3b 2ccd a7bd 73cd 58bc a663 ba3b
00000330: 149b 283c af3f ac3c f334 1b3d 2145 44bd
00000340: f3f7 70bc 3ace 113d 1ef7 3c3d b4ca 39bc
00000350: 1da0 f1bc 622d 4ebc 2cd9 8eb9 c301 4bbd
00000360: 3267 d3bc 6584 e2bc 57fd 17bd a5ee a6bd
00000370: 4fe0 afbc 37d7 6a3c 2c4a ae3c a69f 04bd
00000380: b90b debc e6f6 88bc 507f 2c3c f7e1 5b3c
00000390: 7d5a 533d e314 bb3c c5ae 94bb 14ab 1e3d
000003a0: 96dd 37bd 5391 85bb 9e06 8d3d 8c68 293d
000003b0: df6d f73c 4265 edbb 9b87 a03c 2966 edbc
000003c0: d8ec e7bb d5c3 4cbd 2268 1c3d 5d05 d33c
000003d0: 7471 013d 1ff7 1d3b 1493 e13b f63b 53bb
000003e0: 3f21 cc3b b147 643c c2ef 0f3d 8c42 b23c
000003f0: 75d3 81bb 589f 58bd cd0b 8cbd b637 04bb

backbone.12.bias f4 [128]
-2.524692e-08 3.192328e-08 2.889506e-08 6.3675563e-09 2.5732692e-08 -4.5689346e-09 1.4782109e-09 -4.3090953e-08
3.5301017e-08 5.004675e-08 -3.3935557e-09 7.6149895e-09 -3.1626527e-08 2.5368896e-08 1.6032729e-08 6.658618e-08
2.6260543e-09 4.5788475e-09 2.389742e-09 -1.5039801e-07 -4.1981817e-08 2.7844527e-09 1.9025967e-08 -5.8001812e-09
5.5240825e-09 1.6851216e-08 -4.0864354e-08 -2.9681152e-08 2.7484345e-08 -4.941425e-08 -3.054998e-08 -3.501961e-08
5.4368897e-08 1.1274078e-08 8.184751e-09 1.5222616e-08 -4.985268e-09 -5.182008e-09 -4.5502745e-08 2.5059302e-08
-1.300085e-08 -1.19005385e-07 7.134865e-09 8.4066464e-08 -1.8826281e-08 -2.636882e-09 -2.8382046e-09 4.9961102e-08
4.5617615e-08 3.9090313e-08 -8.179425e-08 2.5216147e-08 3.8444288e-08 -3.0625473e-09 3.8539667e-08 2.2237057e-08
6.2972396e-09 1.8636717e-08 1.0614307e-08 2.0483093e-09 -7.208299e-08 2.6220352e-08 7.909201e-08 1.26639845e-08
-9.618061e-09 -3.051999e-08 -1.3386863e-09 1.7273164e-09 2.4973107e-10 1.3955857e-08 4.6217817e-08 5.8108565e-08
-1.9874431e-08 -7.768944e-08 -4.9302198e-08 2.702701e-08 -3.1850087e-09 1.9986027e-08 -8.5068513e-10 5.131145e-08
-8.002372e-08 -5.168456e-08 1.09935785e-08 8.517998e-08 1.3403844e-08 9.999811e-09 1.0399553e-09 1.3587706e-08
-1.973945e-08 -1.5659895e-08 -8.74338e-09 2.1165654e-08 2.0658557e-10 1.2643763e-09 1.0385627e-07 -2.640487e-09
1.1682608e-09 -5.2521827e-09 -4.763365e-08 -7.299844e-09 1.1650546e-09 2.5925011e-08 2.0510528e-08 3.3507095e-09
-1.2226859e-07 -2.242969e-09 9.583039e-09 4.5289163e-08 -1.9083245e-08 2.0495504e-08 -1.986572e-08 -3.4228391e-09
-3.689558e-08 -1.8768933e-08 -3.0357977e-08 -2.9194705e-08 1.4404202e-08 5.8475758e-09 -6.0856573e-09 3.5050437e-07
-2.814351e-08 -2.772095e-08 -5.4354726e-10 -1.5937677e-07 -3.8434376e-08 2.0504206e-08 9.704767e-08 9.1825505e-08
00000000: 90de d8b2 041c 0933 e934 f832 9ec9 da31
00000010: ca0a dd32 c6fc 9cb1 ec29 cb30 0113 39b3
00000020: e19d 1733 fcf2 5633 1034 69b1 14d3 0232
00000030: bcd5 07b3 cbea d932 58b8 8932 24fe 8e33
00000040: 0976 3431 f853 9d31 c938 2431 177d 21b4
00000050: 7f4f 34b3 9c58 3f31 8b6e a332 ef4a c7b1
00000060: 58ce bd31 37c0 9032 d582 2fb3 8bf5 feb2
00000070: b716 ec32 8b3b 54b3 0f36 03b3 7868 16b3
00000080: 3c83 6933 ebaf 4132 ea9c 0c32 e3c2 8232
00000090: e24a abb1 6d0d b2b1 cc6e 43b3 fd41 d732
000000a0: 585a 5fb2 e78f ffb3 f026 f531 0788 b433
000000b0: 6eb7 a1b2 8534 35b1 390a 43b1 d094 5633
000000c0: 19ed 4333 41e4 2733 dda6 afb3 e59a d832
000000d0: f11d 2533 e774 52b1 d086 2533 ce03 bf32
000000e0: 1b5f d831 9316 a032 375a 3632 3dc2 0c31
000000f0: 0bcc 9ab3 2a3b e132 4bd9 a933 cb90 5932
00000100: ae3c 25b2 1515 03b3 d6fc b7b0 8b66 ed30
00000110: 864a 892f 82c2 6f32 0781 4633 0b93 7933
00000120: 56b8 aab2 39d6 a6b3 57c0 53b3 0629 e832
00000130: 44df 5ab1 bdad ab32 a5d5 69b0 8961 5c33
00000140: 81d9 abb3 c6fb 5db3 45de 3c32 30ec b633
00000150: bb46 6632 a2cb 2b32 2dee 8e30 5d6f 6932
00000160: 828f a9b2 7984 86b2 cb35 16b2 c4cf b532
00000170: ab24 632f 49c6 ad30 9707 df33 f073 35b1
00000180: 8690 a030 b076 b4b1 c195 4cb3 1bd2 fab1
00000190: b71f a030 b4b1 de32 212f b032 4e42 6631
000001a0: ef48 03b4 ba22 1ab1 a7a2 2432 f683 4233
000001b0: 80ec a3b2 170e b032 2ea5 aab2 3937 6bb1
000001c0: 1f77 1eb3 5239 a1b2 f362 02b3 d6c7 fab2
000001d0: 5a76 7732 d2eb c831 021a d1b1 f42c bc34
000001e0: 3cc0 f1b2 041f eeb2 bd68 15b0 2721 2bb4
000001f0: 0b13 25b3 3a21 b032 8568 d033 9b31 c533

backbone.13.weight f4 [128]
0.9988924 0.94957215 0.9975733 0.9972009 1.0120797 0.9968052 1.0402411 0.98958576
1.0001968 0.9987094 0.9270479 1.0173132 0.9656329 1.010862 1.0037867 0.9773659
0.9564277 0.9570027 1.018639 1.0422317 1.014407 0.9738708 1.0202723 0.9541649
1.0178304 1.015111 1.0040704 1.0128393 0.9477558 0.9536135 1.0309399 1.0106993
1.0386506 1.0032942 1.0185107 1.006905 1.0137489 0.9699294 0.9862532 0.99258226
1.0123032 0.99291503 1.004267 1.0173835 1.0259637 1.003844 1.0247849 1.009552
1.0213412 0.98432744 1.0423541 0.995011 0.94384027 1.0005542 1.0432755 0.9937896
0.99426574 0.9968239 0.9819919 0.9427592 1.0000105 0.98530316 1.0004857 0.99217546
0.98242974 0.98959816 0.9549737 0.9610478 0.94571286 1.0204548 0.9987051 0.9905877
0.9929984 1.013914 0.9868073 1.0228169 0.97724915 0.9868618 0.83494264 0.95875865
1.0023302 0.99298286 0.9935664 0.98515147 0.95238864 0.98874307 0.96577036 1.0087383
1.0261353 0.9735643 0.9696461 0.99633604 0.9927764 0.9714627 0.9914861 0.9900811
1.0195029 1.0093194 0.98278886 1.0204294 0.99804443 1.0194535 0.9973403 0.98346573
0.9915425 0.97524303 1.0360173 0.95006734 0.98818743 1.0053853 0.9924576 0.94520795
0.9895377 0.95826405 0.9869385 1.0223129 0.9821818 0.96891606 1.005842 1.0739702
0.9914533 0.9636378 0.939498 1.0178539 1.0187061 0.9990096 1.0183965 1.0017653
00000000: 6ab7 7f3f 2917 733f f760 7f3f 8f48 7f3f
00000010: d48b 813f a02e 7f3f 9f26 853f 7e55 7d3f
00000020: 7306 803f 6bab 7f3f 0353 6d3f 5237 823f
00000030: b833 773f ed63 813f 157c 803f a734 7a3f
00000040: 72d8 743f 21fe 743f c362 823f d967 853f
00000050: 17d8 813f 994f 793f 4898 823f 2744 743f
00000060: 4448 823f 28ef 813f 6185 803f b8a4 813f
00000070: 20a0 723f 0420 743f d7f5 833f 985e 813f
00000080: 81f2 843f f26b 803f 8f5e 823f 43e2 803f
00000090: 86c2 813f 4b4d 783f 177b 7c3f df19 7e3f
000000a0: 2793 813f ae2f 7e3f d28b 803f 9f39 823f
000000b0: c752 833f f67d 803f 272c 833f 0039 813f
000000c0: 4fbb 823f e2fc 7b3f dc6b 853f 0ab9 7e3f
000000d0: 849f 713f 2912 803f 0d8a 853f ff68 7e3f
000000e0: 3388 7e3f da2f 7f3f d263 7b3f ab58 713f
000000f0: 5800 803f d43c 7c3f ea0f 803f 36ff 7d3f
00000100: 8480 7b3f 4e56 7d3f 2879 743f 3b07 763f
00000110: 3d1a 723f 439e 823f 23ab 7f3f 2897 7d3f
00000120: 2535 7e3f efc7 813f 679f 7c3f aaeb 823f
00000130: 002d 7a3f faa2 7c3f cdbe 553f 3571 753f
00000140: 5b4c 803f 2034 7e3f 5e5a 7e3f e332 7c3f
00000150: becf 733f 441e 7d3f ba3c 773f 561e 813f
00000160: 6758 833f 833b 793f ba3a 783f e10f 7f3f
00000170: 9826 7e3f c8b1 783f 08d2 7d3f f475 7d3f
00000180: 127f 823f 6131 813f 0d98 7b3f 6e9d 823f
00000190: d77f 7f3f 747d 823f b251 7f3f 69c4 7b3f
000001a0: bbd5 7d3f 87a9 793f 379c 843f 9d37 733f
000001b0: daf9 7c3f 77b0 803f b411 7e3f 26f9 713f
000001c0: 5852 7d3f cb50 753f 00a8 7c3f 26db 823f
000001d0: 4470 7b3f e20a 783f 6ebf 803f db77 893f
000001e0: e2cf 7d3f f8b0 763f f182 703f 0949 823f
000001f0: f664 823f 18bf 7f3f d15a 823f d839 803f

backbone.13.bias f4 [128]
0.01374183 0.0012137567 0.004645432 0.0007744194 0.0035077056 0.018607104 0.006484867 -0.003896747
0.012688288 0.010198624 -0.01136349 0.0005345633 -0.007853877 0.0013519399 0.013652035 -0.00037980202
0.009984837 -0.010233913 0.006348867 0.010949729 0.02366148 0.008136752 0.028822957 -0.0085328985
0.0081765475 0.0003222825 0.009222068 0.017856758 0.0323811 0.018600196 0.013940648 -0.0060572494
0.02788657 -0.0060179112 0.005660206 0.009000734 0.00829118 0.026200967 0.0010561658 0.0037059034
0.008604795 0.012088134 0.014911362 0.0013650465 0.017316587 0.0019445927 0.031132132 0.00084670377
0.01569338 0.0030671407 0.007138375 0.01339882 0.031243233 0.0048407763 -0.01843436 -0.0076409695
0.021864485 0.006634821 0.014622099 0.025480073 0.007823591 -0.002492486 0.010341688 -0.0017793997
0.0039449367 0.0030193964 -0.012887804 -0.0011784665 0.0030097857 0.03324177 -0.0065032225 0.009130601
0.012133516 -0.011559616 0.0051110815 0.0075554526 0.027536653 0.015545216 -0.0054370183 -0.0040022945
0.009974571 0.0013841942 -0.0055382266 0.0072980397 -0.011584732 0.0188113 -0.009484212 0.021716688
0.010595738 0.012904489 0.007950403 0.0008782237 0.01324565 0.005079312 -0.0065736254 0.0042977217
0.026082747 0.021059453 -0.0052994806 0.015323567 0.012977864 -1.4211414e-06 0.011623951 0.009715654
0.0062743346 0.010241846 -8.790347e-05 0.0088216765 0.004464201 -0.005924128 0.020493815 0.012116553
0.01871532 -0.007728348 0.0020373024 -0.017271362 0.0234481 -0.017625421 -3.9829818e-05 -0.0055855825
0.014088422 0.009812727 -0.0022672128 0.0030750227 0.018418705 0.023805149 -0.01275949 -0.0026741596
00000000: 6a25 613c eb16 9f3a b538 983b 6802 4b3a
00000010: 89e1 653b ed6d 983c 027f d43b 9160 7fbb
00000020: 8ae2 4f3c 2118 273c ee2d 3abc f021 0c3a
00000030: 8cad 00bc 9333 b13a c9ac 5f3c 2a20 c7b9
00000040: 7197 233c 24ac 27bc 280a d03b 7e66 333c
00000050: b8d5 c13c 0350 053c 1f1e ec3c 92cd 0bbc
00000060: edf6 053c 06f8 a839 2818 173c 5648 923c
00000070: 0ba2 043d 705f 983c 5167 643c e47b c6bb
00000080: 6072 e43c e631 c5bb 4079 b93b d177 133c
00000090: bbd7 073c 69a3 d63c 0b6f 8a3a bede 723b
000000a0: 20fb 0c3c 4f0d 463c c94e 743c 5ceb b23a
000000b0: 84db 8d3c b4e1 fe3a d008 ff3c 54f5 5d3a
000000c0: 678f 803c 1502 493b 08e9 e93b b986 5b3c
000000d0: cff1 ff3c 609f 9e3b a803 97bc 1961 fabb
000000e0: 261d b33c ea68 d93b 8791 6f3c 96bb d03c
000000f0: 852e 003c fa58 23bb 2f70 293c bf3a e9ba
00000100: 8744 813b 11e1 453b 5e27 53bc c676 9aba
00000110: d33f 453b 8628 083d fc18 d5bb 8498 153c
00000120: a8cb 463c 8b64 3dbc dc7a a73b bb93 f73b
00000130: 8c94 e13c 5db1 7e3c 0429 b2bb ae25 83bb
00000140: 626c 233c da6d b53a 037a b5bb 6524 ef3b
00000150: e3cd 3dbc 281a 9a3c ab63 1bbc 32e7 b13c
00000160: bf99 2d3c 5a6d 533c 6842 023c 9838 663a
00000170: 4804 593c 5b70 a63b 9167 d7bb e7d3 8c3b
00000180: 7cab d53c e084 ac3c 44a7 adbb b30f 7b3c
00000190: 1ba1 543c 0cbe beb5 6272 3e3c 682e 1f3c
000001a0: ef98 cd3b 6acd 273c d158 b8b8 cb88 103c
000001b0: 6f48 923b 301f c2bb a5e2 a73c 8284 463c
000001c0: df50 993c 153e fdbb 4384 053b ac7c 8dbc
000001d0: 3b16 c03c 3063 90bc f10e 27b8 4307 b7bb
000001e0: 20d3 663c 8fc5 203c 8595 14bb 5286 493b
000001f0: d3e2 963c 0403 c33c 2e0d 51bc f440 2fbb
