models/osu_model_temp.pth (torch, 439117 bytes, 28 tensors)

backbone.0.weight f4 [16, 3, 3, 3]
000000 e2 79 d7 3d 13 33 35 3d 54 51 5d bd 3f 9a 7c 3d
       0.10521294 0.04423816 -0.05403264 0.061670538
000010 1a 6e c3 bc 43 30 52 3d 9a 51 de bd 0c 92 e5 3c
       -0.023856211 0.051315557 -0.10855408 0.028023742
000020 7a 7f 05 bd 4b 73 09 3d 19 f5 bd bd f7 93 f5 3d
       -0.032592274 0.033557218 -0.09275264 0.11991113
000030 04 f8 bb 3c 0a d7 94 3c 22 d0 d3 bc ba bd 3b 3e
       0.022945412 0.018168945 -0.025856081 0.18334094
000040 a6 76 b6 bc 52 4d 63 bd 8c 3e aa bd 59 25 be 3d
       -0.022273373 -0.05549366 -0.08312711 0.09284467
000050 dd ac 69 bd 7b aa 7b 3d 94 e0 44 3d 89 ca da bd
       -0.05704962 0.06144188 0.048065737 -0.10683162
000060 88 b2 e8 3d 0e ca e8 38 a3 de c1 bd ee 58 0a be
       0.11362177 0.00011100258 -0.09466293 -0.13510486
000070 c4 8b e6 bd 31 9e 24 be ca 58 81 bd b2 92 1f 3e
       -0.11257127 -0.1607597 -0.06315763 0.15583304
000080 54 1b b5 bb 24 9d 99 bd d2 0d 2b be 12 43 04 be
       -0.0055269394 -0.07500675 -0.16704491 -0.1291621
000090 81 d6 32 bd 8e 32 dd bc 58 db ad bd e8 90 1a 3d
       -0.043661598 -0.027001645 -0.08489102 0.03773585
0000a0 27 06 f8 3d a8 e4 d0 bd 0d b6 85 3d ff 53 b7 bd
       0.121105485 -0.10199863 0.06528864 -0.08951568
0000b0 f7 44 ff 3b 08 03 67 3d af a4 37 bd 47 a0 4a be
       0.0077902037 0.056399375 -0.04483479 -0.19787703
0000c0 1f a7 e7 3d 37 4c 35 bd c8 15 c1 3c 29 c1 8f bc
       0.11311173 -0.044262137 0.023569956 -0.01754816
0000d0 b9 44 ca bd 83 73 d1 bd 91 fd 3f 3c 97 6f 94 bc
       -0.09876389 -0.1022711 0.01171817 -0.018119616
0000e0 cc f8 e1 3d 32 1e 50 bc 99 79 94 3e 64 a4 b4 bd
       0.11033782 -0.012702512 0.28999022 -0.088204175
0000f0 aa de 04 bd c8 4b ea 3d e5 5c 1f 3e 2c c5 95 3d
       -0.03243891 0.114402354 0.1556278 0.07312998
000100 77 09 02 be 2b d0 28 3d e5 37 01 bd 8b 27 af 3d
       -0.12698923 0.04121415 -0.031547446 0.08552464
000110 d5 44 aa bd 86 e3 8e bd a9 73 be bc 5c 59 31 bd
       -0.0831391 -0.069769904 -0.02324851 -0.04329811
000120 d3 43 0c bc 4e 13 ee bd 31 60 bc 3d c5 b9 8b 3d
       -0.008561092 -0.11624776 0.091980346 0.06822542
000130 5f c0 2f bc d8 ad d3 bd da 51 64 3d 62 56 ba bc
       -0.010727017 -0.103358924 0.055742122 -0.022746269
000140 9f 88 38 3d a2 28 a0 bb 21 b1 38 b9 f2 e9 80 3e
       0.045052167 -0.0048876563 -0.00017613593 0.25178486
000150 b3 16 59 bb 1d cf a4 3d 03 aa 4e be d1 68 c3 3d
       -0.0033125102 0.08047316 -0.20182042 0.095414765
000160 f2 60 4a bc 86 58 32 3d 2e fc 01 be 79 93 de bd
       -0.012352215 0.043541454 -0.12693855 -0.10867972
000170 a1 c1 0e 3d aa 5b bc 3c 9e 28 50 be bb d8 21 be
       0.034852628 0.022992928 -0.20327994 -0.15805332
000180 2d 9c 66 be 10 c0 19 bd 1d 97 04 be 69 35 50 3d
       -0.22520514 -0.03753668 -0.1294827 0.050832186
000190 26 00 81 3d 3d 4f 04 3e f7 81 d8 bc 8a e7 93 bd
       0.062988564 0.12920852 -0.02642916 -0.07221897
0001a0 2d 97 be 3d 69 2a 43 3e f1 a0 dd 3d 00 cc a7 bc
       0.09306178 0.19059147 0.10821713 -0.020483017
0001b0 8a 11 8b 3d 35 fc b3 3d be ed 76 bd d8 52 29 3e
       0.06790455 0.08788339 -0.060285322 0.16535509
0001c0 6e 99 ac bc aa f0 a2 bb f3 83 89 3d 82 c5 a4 3d
       -0.021069255 -0.004972537 0.067146204 0.08045484
0001d0 a1 4d 33 bd 0b 8d 50 bd da 13 4f 3d b9 cc 93 be
       -0.043775205 -0.05091576 0.05055604 -0.28867128
0001e0 6e 80 5b 3e 23 8c d7 bd a3 7d ef bc 32 fb 35 3d
       0.21435711 -0.10524776 -0.029234713 0.04442901
0001f0 07 f1 31 be 91 dd 91 bd 4a 4e 08 be aa 6b 5d bd
       -0.17377101 -0.071223386 -0.13311115 -0.054057755
000200 b7 ab 12 be 2d e2 89 3d 91 50 2d 3e 70 50 1e be
       -0.14323317 0.06732593 0.16925265 -0.15460372
000210 84 99 17 bd 0e 5d 10 3d 49 b9 78 3d 91 d8 b6 bd
       -0.03701164 0.035244994 0.060723577 -0.089280255
000220 f4 2d 91 bc 43 20 1f be 81 c6 05 be 3a 52 42 3c
       -0.017722107 -0.1553965 -0.13064004 0.011860425
000230 74 47 2e 3d 36 8c 3a be 4e 69 38 3c 2e 44 d5 bd
       0.04254861 -0.18217549 0.011255575 -0.10413395
000240 55 19 84 bd 68 1e 1f be b9 81 c4 3d ce b6 12 3d
       -0.06450144 -0.15538943 0.09595055 0.035818867
000250 1e 8a 65 3d 05 cc 72 be 90 0e 00 3e b8 e0 47 bc
       0.056039922 -0.2371064 0.12505555 -0.012199573
000260 48 65 e2 bc 6d d7 aa bd e1 56 8b bd 98 7c 63 3e
       -0.027636185 -0.083418705 -0.0680368 0.22215497
000270 df 69 fc bc ef 13 5f 3e 8f 16 5a 3e 37 a5 0a 3e
       -0.030812202 0.21784948 0.21297668 0.13539587
000280 0e 33 1f bd eb fe cf 3d 5e da f1 bc f6 64 45 3e
       -0.03886705 0.101560436 -0.02952307 0.19276795
000290 c6 ce 57 be 4d aa a6 3d e5 8a 48 3d 82 e8 97 bd
       -0.21074972 0.08137951 0.048960585 -0.07417394
0002a0 13 30 44 3d 78 76 ec bd 0d 58 18 3e dc 4f 71 bd
       0.04789741 -0.115460336 0.14877339 -0.05891405
0002b0 5a ad cc bd 38 1e d0 3d a9 7a 04 3e dc c3 c8 3d
       -0.09994002 0.10162014 0.12937416 0.09802982
0002c0 5d 3d c7 3d bf c5 8c bd af be 84 3e 6a bb 87 bd
       0.09728501 -0.068736546 0.2592673 -0.06627543
0002d0 40 8b 84 bc 3d 5e f6 3d 7e b7 d4 bd a4 46 c5 3d
       -0.01617968 0.12029693 -0.10386561 0.09632614
0002e0 11 56 e5 bd aa f2 28 3c 8a 84 e8 bd 07 d0 24 3e
       -0.111980565 0.010311762 -0.11353405 0.16094981
0002f0 14 37 49 3d fb f8 64 bd 6d 0e 7e 3d f9 f3 c6 3d
       0.049124792 -0.05590151 0.062025476 0.09714503
000300 b0 b7 e1 bd b6 a8 4e be 24 54 6e 3c 4d 20 e4 3c
       -0.11021364 -0.20181546 0.014546428 0.027847433
000310 83 e8 97 3d 10 f9 c4 bd be c6 1b 3e cd 1b 44 3e
       0.07417395 -0.096178174 0.15212533 0.1915123
000320 7f d6 a5 bd 53 2f f1 bc e8 20 7e 3e 17 b2 c0 bc
       -0.080975525 -0.029441511 0.2481724 -0.02352242
000330 66 02 85 3d 9d e9 04 3e 48 bd 2b 3c 61 a7 f9 bc
       0.06494598 0.12979741 0.01048214 -0.03047532
000340 8a e2 61 3d 43 ab d3 bd 38 27 cf 3d 9d 90 8a 3d
       0.055147685 -0.103354 0.10114902 0.06765864
000350 5f ed 2f be d1 7d a1 bc 93 d1 56 3e ac e3 b1 3d
       -0.17180394 -0.019713314 0.20978384 0.08686003
000360 59 06 cd 3d d4 e5 a9 3d 62 1f e1 3d 47 0f d5 bd
       0.10010976 0.08295789 0.10992314 -0.104033045
000370 c5 8f 2f be 08 2e 32 bd ed 53 0f 3d 29 8b 03 3e
       -0.17144687 -0.04350093 0.034992147 0.12846054
000380 85 d4 8c be 8e c8 8c be 35 9a 4f bd c0 6f 78 3e
       -0.2750589 -0.2749676 -0.050684173 0.24261379
000390 9f c5 8f 3d cc 48 0a 3e b9 26 4e bd 94 af 3d 3e
       0.07020115 0.13504332 -0.050329898 0.18524009
0003a0 03 37 4b 3c a5 47 75 bd 38 9c 74 3e 80 e7 3a be
       0.012403253 -0.05988278 0.23887718 -0.18252373
0003b0 39 48 fd bd 3d 5e 61 be fb 34 76 3e 72 e3 d6 bc
       -0.12367291 -0.22008605 0.24043648 -0.026231501
0003c0 0f 1e a5 3e fe 10 4c 3d 11 fd 90 3c 9a 86 c8 3d
       0.32249495 0.049820893 0.017698796 0.09791298
0003d0 0f 93 01 3d 37 6f 26 bb f5 89 81 bb e8 17 8a 3c
       0.031634387 -0.002539588 -0.0039532133 0.016857103
0003e0 b1 ab 88 3d 0c 08 2d be 48 99 32 be 62 84 a8 3d
       0.066733725 -0.16897601 -0.17441285 0.08228375
0003f0 a9 5d 5e 3d 74 43 20 3e 97 9b a0 bd 25 72 40 3d
       0.05428854 0.15650731 -0.078421764 0.046983857

backbone.0.bias f4 [16]
000000 2f 32 c5 37 28 20 06 39 42 ad 29 38 64 f5 85 b8
       2.3507599e-05 0.00012791215 4.04541e-05 -6.387642e-05
000010 26 4b db b9 ba f2 88 b9 81 94 aa b7 dc 0d 11 b8
       -0.00041826925 -0.00026120787 -2.0334732e-05 -3.45836e-05
000020 32 3f 97 b7 9f b8 67 b8 20 b8 d0 b9 93 b3 00 b9
       -1.803003e-05 -5.5246634e-05 -0.00039810035 -0.00012273928
000030 b1 8c 36 b9 86 97 e6 35 90 f2 00 b9 35 5c 8c 39
       -0.00017409284 1.7180434e-06 -0.00012297393 0.0002677158

backbone.1.weight f4 [16]
000000 0f f9 7d 3f ea a5 7d 3f 39 0e 80 3f 3b 91 82 3f
       0.9920816 0.9908129 1.000434 1.0200571
000010 ad 70 82 3f 41 20 81 3f f9 04 82 3f 45 0b 7f 3f
       1.0190636 1.0087968 1.0157768 0.9962657
000020 01 f7 7a 3f 09 b3 7e 3f ba 48 80 3f d1 34 80 3f
       0.9803315 0.99491936 1.0022194 1.0016118
000030 05 37 7d 3f 7c c2 7d 3f 9b d8 7e 3f 0b 50 7d 3f
       0.9891208 0.99124885 0.99549264 0.9895026

backbone.1.bias f4 [16]
000000 df 3e bf 3c c7 fe b9 bc 7e 7e 88 3c 62 ad e5 3c
       0.023345409 -0.022704495 0.016661879 0.028036777
000010 66 3f 5d 3c 34 55 1b 3b 9c 13 d0 3c 52 9f 08 3c
       0.013503885 0.0023701908 0.025399975 0.008338766
000020 dc 8d 0a 3c 85 e2 fb bb 5e 30 6a 3c cf 1f 12 3c
       0.0084566735 -0.0076869153 0.014293758 0.008918717
000030 39 79 dd bc 2d d0 2b bb cd 8e 72 bc 5d 63 2d bb
       -0.027035343 -0.0026216612 -0.014804554 -0.002645693

backbone.1.running_mean f4 [16]
000000 b1 bf a1 3e af 2f df bf ae b1 f8 3e 1c 98 b6 bd
       0.3159156 -1.7436427 0.4857306 -0.08915731
000010 18 3f eb be 26 b8 53 3d 9d 4f 80 3f 8e 9e 94 3f
       -0.45946574 0.05168929 1.0024296 1.1610887
000020 31 05 21 3f 1e 16 12 40 49 a0 11 bf 9e 15 fb 3e
       0.62898546 2.2826 -0.568852 0.4903993
000030 4b 3c 2f bf 79 66 b0 3f 71 87 04 be 06 a5 9d bf
       -0.68451375 1.3781272 -0.12942292 -1.2315986

backbone.1.running_var f4 [16]
000000 13 3d c6 3d 3c ec d4 3f 96 71 31 3e 9b 8c 8a 3e
       0.09679618 1.6634593 0.17328486 0.27060398
000010 cc 6a 81 3e 23 11 1f 3e a0 69 25 3f a5 a6 6d 3f
       0.25276792 0.15533881 0.64614296 0.92832404
000020 36 f5 6e 3e b4 68 1f 40 65 fd d4 3e e7 e3 02 3e
       0.23335728 2.4907656 0.41599575 0.1278225
000030 03 0a 66 3e 96 54 98 3f 83 81 3e 3d d7 99 60 3f
       0.22464757 1.1900814 0.04651023 0.8773474

backbone.4.weight f4 [32, 16, 3, 3]
000000 fe 95 9e 3d f0 13 7f bd c7 2b b2 3d 62 a4 83 bd
       0.077434525 -0.062274873 0.08699756 -0.06427838
000010 27 13 e5 3d ff 83 c5 bd e5 89 14 3b 4b 78 7b bb
       0.11185294 -0.09644317 0.00226652 -0.003837126
000020 09 ca fb 3d ec 58 18 3e b6 36 38 bd f3 04 9a bc
       0.122943945 0.14877671 -0.04497405 -0.018801188
000030 6f 8e 33 be de 5b 88 bd 08 f8 43 3d 35 f2 51 bc
       -0.17534803 -0.06658147 0.047843963 -0.012814094
000040 82 81 ac 3b 55 c9 ce bc 8b e7 c8 bc 09 d2 fe 3d
       0.005264462 -0.025242487 -0.02452447 0.12442405
000050 78 14 fa bd 6d 91 83 bd 38 d4 f6 bd cc c0 0a be
       -0.12210935 -0.06424222 -0.12052196 -0.13550109
000060 1c c6 c8 bb 5d a5 8d 3d 60 28 0c bd 2b ca bb 3d
       -0.006127132 0.06916306 -0.034218192 0.0916942
000070 53 c6 04 3e 36 0c 7a 3d 57 a5 77 bc b0 85 1a bd
       0.1296628 0.0610468 -0.015115104 -0.03772515
000080 a9 2c 46 bd c2 b8 99 bc 59 eb 20 3e e2 6d ce 3d
       -0.048382435 -0.018764857 0.15714778 0.10079552
000090 2c 89 ea 3c 03 cc 19 3d 03 cc 30 3a 77 8e 24 3d
       0.028629862 0.037548076 0.00067442673 0.040174928
0000a0 e5 9a 7b 3d 2c d4 d9 bd 29 cb c9 bd a2 a1 03 be
       0.061427016 -0.10636172 -0.09853203 -0.12854627
0000b0 e9 6c 37 3e 8d a8 e3 bd d6 40 f0 3c ee dd c2 3d
       0.1791264 -0.11116133 0.029327791 0.09514986
0000c0 cd 85 19 bd bb bc 7a 3d 62 67 e0 3d 66 af a4 3d
       -0.037481118 0.061215144 0.10957219 0.08041267
0000d0 4f f9 d3 3a be a8 b0 bb 02 6a e8 3d 2c 67 08 3e
       0.0016172322 -0.0053912094 0.113483444 0.13320607
0000e0 56 c4 39 3d 96 fe 98 3d 4b 17 c1 bd 86 6b ec 3c
       0.045353256 0.074704334 -0.09428271 0.028859865
0000f0 ab c3 37 3c 2a 01 e4 3d 28 42 a7 bc 0e 98 2f 3c
       0.0112160845 0.111330345 -0.020417288 0.010717405
000100 a4 3c 4d be c2 58 37 bc 23 3c 6b 3d 4b b3 f0 3c
       -0.20042664 -0.011190595 0.057430398 0.029382369
000110 91 70 83 3d 0b 4b b8 3d 30 de 38 3d 2e de 99 bd
       0.06417955 0.08998688 0.04513377 -0.075130805
000120 20 c0 3b bd c5 1a 2f be be 67 cf bc ff 99 81 3d
       -0.04583752 -0.17100056 -0.025318023 0.063282005
000130 1a 9e 62 bd a3 40 da 3d a5 ac 9e bd 1e 4a f3 3d
       -0.05532656 0.1065686 -0.07747773 0.11879371
000140 31 f0 31 bd dd 6f ba bd b8 e0 47 3d 0b 3a 02 bd
       -0.043441955 -0.091033675 0.048798293 -0.031793635
000150 74 f9 dc bd ff 53 16 3d 88 2d 0d be a2 20 d1 bc
       -0.10789767 0.0367012 -0.137869 -0.025528256
000160 28 a3 89 bd 1b 06 0e be 89 3f ef bd ae da de 3d
       -0.06720573 -0.13869517 -0.1168204 0.108815536
000170 7b ba b4 3c bb 4b 33 3e d9 5c 5f 3c 1c d8 4e bc
       0.022061577 0.17509358 0.013632976 -0.012624767
000180 f8 86 7f bd 86 f2 73 3c b0 68 58 bd e7 29 0c be
       -0.062384576 0.014889365 -0.052834213 -0.1368786
000190 4f ef d5 bc 31 ff 3b bd a3 43 79 3c b3 e6 9d bd
       -0.026115088 -0.045897666 0.01521388 -0.07710018
0001a0 80 ea a8 3d 9f aa 02 be d2 20 e7 3d 89 83 4b 3d
       0.08247852 -0.127604 0.11285557 0.04968599
0001b0 2b fd 31 bd b8 ae 19 bd 20 7d 8f 3b 75 fc 30 3e
       -0.04345433 -0.03752014 0.0043789297 0.17283805
0001c0 78 90 1d 3c 65 7f 7f bd 4d b9 a0 3c b3 c9 14 3e
       0.009616964 -0.062377352 0.019619608 0.14530067
0001d0 c5 f7 1b bc 5e 5f a5 bc 42 14 df 3d c4 14 4c bb
       -0.009519522 -0.020187076 0.10892536 -0.0031140307
0001e0 b9 2a 0b bd ad 7c 54 3b 76 4a 33 bd a1 97 2d bc
       -0.03397629 0.0032422945 -0.043772183 -0.010595233
0001f0 94 38 08 bc e6 e1 87 bd 7f 80 1a 3e 0a 99 f7 3c
       -0.0083142705 -0.066348836 0.1508808 0.030224342
000200 d3 37 82 bc 6d 6b 38 bd c8 d1 9c 3c b6 1c 0b bd
       -0.01589576 -0.045024324 0.019143 -0.033962928
000210 af f0 ae bc 71 a4 72 3b c4 f4 4f 3d d5 e2 47 3d
       -0.021355001 0.0037024284 0.050770536 0.04880031
000220 98 72 f4 3d b3 57 da 3c e8 1e d0 3d b8 f0 d3 bc
       0.119359195 0.026653146 0.10162145 -0.02587162
000230 78 ec 6a bd 71 bd 56 3d e9 02 24 bd bd 09 d4 3c
       -0.05735442 0.05242676 -0.040041838 0.02588355
000240 f6 bc f8 3d 09 57 84 bd 2f 8f 1a be 66 a2 e5 bc
       0.121454164 -0.06461913 -0.15093683 -0.02803154
000250 34 98 e9 bb a6 a9 cc bd f4 2b f1 bd ce 7d 18 3d
       -0.0071287397 -0.09993295 -0.117759615 0.03722935
000260 e2 f8 e3 bc 76 aa 90 bd af 78 6a 3d 8b 0b 28 be
       -0.027828638 -0.07063763 0.057244 -0.16410653
000270 a0 17 9e bb a3 19 68 3d 5c b5 a3 3d 91 fe 26 bd
       -0.0048245937 0.056665074 0.07993576 -0.040770117
000280 94 fc c9 3c 9f 0d cf bd 39 be b6 bc b0 f3 29 3a
       0.024656571 -0.1011002 -0.022307502 0.00064831506
000290 34 70 41 3e 93 46 5d bd ad e6 21 3e 77 2a 06 be
       0.18890458 -0.054022383 0.15810652 -0.13102137
0002a0 44 ce 0a 3e 26 b5 e3 bc 7b 5d f3 3c 54 cd 96 3c
       0.13555247 -0.02779634 0.02970766 0.018408455
0002b0 20 27 d2 3d ae d5 f1 3b 68 85 53 3d ad e5 9d 3d
       0.10261369 0.007380209 0.051640898 0.07709823
0002c0 cb 04 0e 3e 67 b3 86 bd 96 47 a7 3c 03 a4 51 bd
       0.13869016 -0.06577187 0.020419877 -0.051181804
0002d0 f3 09 b6 bd a9 70 1d be f1 fb 09 3d fd 7e cd 3d
       -0.088886164 -0.15375008 0.033687536 0.10033987
0002e0 ef aa 0b bd c8 e3 32 bd 15 ba 68 3d 18 e0 95 bc
       -0.03409856 -0.04367426 0.056818087 -0.018295333
0002f0 3b 6f 8d bc 5f 02 8e bd b8 91 cf 3d ed b6 88 3d
       -0.017264953 -0.06934046 0.101352155 0.06675515
000300 6b f0 82 3d 85 c0 1d 3e 79 ec c1 bc 97 78 a3 3d
       0.06393512 0.15405472 -0.02367233 0.07981985
000310 9d 16 b5 3d 2a cc 6d bd 88 a8 1c 3c c2 4f 41 ba
       0.08842204 -0.058056034 0.009561665 -0.00073742506
000320 84 92 d2 3b 2f 95 4c 3d 4a 0f 8b 3d 1c 6b 06 3c
       0.0064261574 0.04994696 0.067900255 0.008204248
000330 c8 e1 c4 3c c6 c7 bc bd 38 47 fa bc 0f c7 2d be
       0.024033442 -0.09217791 -0.030551538 -0.16970466
000340 59 7b 16 3b 2a 04 24 3e 29 e6 2a bd 29 06 f4 bd
       0.0022961705 0.16017213 -0.041723404 -0.119152375
000350 d6 b6 1f 3b b0 1e 83 3b 70 ef ba bd f5 92 9f bd
       0.0024370453 0.004001461 -0.091277 -0.07791702
000360 c8 73 00 be 5b d8 ae 3d dd fb b4 3d be 80 82 3c
       -0.12544167 0.0853736 0.088371016 0.01593053
000370 c5 f6 c7 bd d9 14 44 3d b8 c0 0e be cc 32 ba bc
       -0.097638644 0.047871444 -0.13940704 -0.0227293
000380 a2 be a1 bc 92 5d af bc 82 ec 9f bd 70 09 0c be
       -0.019744221 -0.021406922 -0.07808782 -0.13675475
000390 26 5e 5d 3d b6 60 8a bc ca 21 0f 3e 8e 34 dc 3c
       0.054044865 -0.016891818 0.13977733 0.026880529
0003a0 7b e2 6b 3d c0 23 ea 3d e9 04 b6 3d da 87 a1 bd
       0.057589035 0.114326 0.08887655 -0.0788724
0003b0 9e 6a 99 bd bc 3b 6f bd 72 4d 39 bd aa 94 e3 bc
       -0.07491039 -0.058406577 -0.045239873 -0.02778085
0003c0 f2 77 28 be 81 c5 a5 bd f6 00 57 3d 31 14 a8 3d
       -0.16452006 -0.080943115 0.05249115 0.08206976
0003d0 17 c4 55 3d 42 73 65 bd 66 c5 8c bd 25 77 7b 3d
       0.05218896 -0.05601812 -0.06873588 0.061392922
0003e0 ff 31 56 bd 6a 49 2d bd c7 b4 b2 3c c3 30 1b 3e
       -0.052293774 -0.04230634 0.021814717 0.1515532
0003f0 05 c2 04 be 0b de 86 3d c9 2e 8a 3d dc ec dc 3d
       -0.12964638 0.0658532 0.06747205 0.10787365

backbone.4.bias f4 [32]
000000 21 4d ff b7 1e 72 87 b8 e8 22 f9 38 b8 e9 3b b8
       -3.0434285e-05 -6.4585576e-05 0.00011879747 -4.4801942e-05
000010 f5 89 ea b7 86 85 b4 b8 06 b0 44 38 71 d7 a6 38
       -2.7959215e-05 -8.6079395e-05 4.6893976e-05 7.955626e-05
000020 5a 1f 1a b8 30 76 2b 38 f8 4e d5 38 c6 83 65 b7
       -3.674566e-05 4.0879648e-05 0.000101713405 -1.3680145e-05
000030 07 42 15 b8 e2 12 85 38 c5 02 a9 b8 38 65 62 37
       -3.558586e-05 6.3454514e-05 -8.059064e-05 1.3494217e-05
000040 53 01 9a b8 89 be 39 38 60 97 40 38 8f 13 be 37
       -7.343539e-05 4.4284887e-05 4.5917346e-05 2.2658873e-05
000050 f0 3c 05 38 c0 ff 73 b7 25 da eb 38 9c 82 45 36
       3.1766423e-05 -1.4543475e-05 0.00011246306 2.9431312e-06
000060 32 10 05 b8 19 26 62 b6 00 98 0b b8 96 c4 c4 b6
       -3.1724754e-05 -3.36988e-06 -3.3281744e-05 -5.864141e-06
000070 ae 09 08 b7 2d 37 cc 37 14 99 5c 38 48 c5 35 38
       -8.108485e-06 2.4344388e-05 5.2594653e-05 4.3337495e-05

backbone.5.weight f4 [32]
000000 9c 90 7b 3f 0d 94 82 3f 40 64 81 3f 1f f2 80 3f
       0.9826753 1.0201432 1.0108719 1.007389
000010 65 63 7c 3f bd 05 80 3f 3a fd 79 3f 35 58 7c 3f
       0.98589164 1.0001751 0.9765202 0.98572093
000020 0c 18 81 3f ca f3 7a 3f 89 a6 80 3f f7 6d 81 3f
       1.0085464 0.9802824 1.0050822 1.0111684
000030 f0 4f 7e 3f a8 e8 7c 3f e3 71 82 3f 78 ea 80 3f
       0.99340725 0.98792505 1.0191005 1.0071554
000040 97 16 7d 3f a1 6d 80 3f 6b f1 80 3f d1 b5 7d 3f
       0.98862594 1.0033456 1.0073675 0.99105555
000050 20 e8 7e 3f 85 f9 7c 3f ea ff 81 3f f9 34 7e 3f
       0.99572945 0.98818237 1.0156224 0.9929958
000060 0c 4f 7f 3f a4 cc 80 3f 92 cb 80 3f f6 22 80 3f
       0.9972999 1.0062451 1.0062125 1.0010669
000070 12 bd 7e 3f f1 76 7f 3f 2e c4 7c 3f e2 8d 80 3f
       0.9950725 0.99790865 0.98736846 1.0043299

backbone.5.bias f4 [32]
000000 31 b4 7a bc ba b8 d7 3c 5f e7 8d bc 90 96 27 bc
       -0.01530175 0.026333202 -0.01732224 -0.010228768
000010 b4 fb 6f bb ea a3 97 ba 62 69 d6 bb 07 2b dc bb
       -0.0036618533 -0.0011569236 -0.0065433243 -0.0067189964
000020 8e 7f 73 3b e6 ea c5 bc 0f 7c ae 3a 97 b8 c4 3c
       0.0037154886 -0.02415986 0.0013312119 0.0240138
000030 88 54 ec bb 81 11 9f bb 35 2c c4 3c 1b 05 bf 3a
       -0.0072122253 -0.0048543816 0.02394686 0.0014573665
000040 19 7f b8 3b c9 b0 57 3c e0 21 b2 3b 60 95 d0 3b
       0.0056303856 0.013164707 0.005436167 0.006365463
000050 19 f8 d2 ba 8d 45 12 bc d5 6c 90 bc f5 b3 e4 ba
       -0.0016095667 -0.008927715 -0.01763002 -0.0017448651
000060 7d 54 c9 3b d0 d1 7f 3c 21 30 54 3c cb 70 48 bb
       0.006144105 0.015613988 0.012950928 -0.0030584808
000070 17 21 b7 bb a5 ad 7f bb 73 2c 6b 3b eb b6 b3 3c
       -0.0055886614 -0.0039013412 0.0035884648 0.021937808

backbone.5.running_mean f4 [32]
000000 3c 5f 54 3e af 07 bd bd 2f ba 1e bf af c7 61 3f
       0.20739454 -0.09229981 -0.62002844 0.8819532
000010 f4 b2 d1 be ed 4b 2f 3e e4 68 0a bf 9d 18 b3 be
       -0.40956843 0.17118807 -0.540663 -0.34979716
000020 a7 69 57 bf 5e 14 92 3d 4b af 29 3c ec 3a c5 be
       -0.8414559 0.07132791 0.0103567345 -0.38521516
000030 88 72 05 bf e4 67 bf be 47 1d 52 be ac a9 b1 3f
       -0.52127886 -0.3738395 -0.20518981 1.3879905
000040 df b1 3b 3b a6 6c 4f bd b1 02 b5 3e 12 0f 80 3f
       0.0028639955 -0.050640725 0.35353616 1.0004599
000050 15 96 e9 bd d6 03 c2 bd 48 c6 2b be 33 b8 49 3d
       -0.11405579 -0.09473388 -0.16774857 0.04924793
000060 ba 60 be be 67 1b 61 be 29 af 8e be 1c 0b 1d bd
       -0.37183172 -0.2198311 -0.27868012 -0.038340673
000070 03 ea 3c 3e 6b 68 be 3e 66 c9 62 be c8 48 d2 be
       0.18448643 0.3718904 -0.2214714 -0.41071153

backbone.5.running_var f4 [32]
000000 ac e8 20 3f ee 3f 9a 3e 16 7d f1 3e 25 e2 c1 3f
       0.6285503 0.301269 0.47165745 1.5147139
000010 11 7b 2b 3f 09 03 37 3f 1d 78 00 3f 03 1b b0 3e
       0.6698466 0.71489006 0.5018328 0.34395608
000020 83 c8 a6 3f 78 7c e5 3e c8 95 bf 3e 45 40 17 3f
       1.3029941 0.44821525 0.37418962 0.5908244
000030 5a d9 69 3f bf f5 14 3f ff 12 ea 3d a3 09 97 3f
       0.9134728 0.5818748 0.114294045 1.1799816
000040 0d 92 44 3e 8e 2b 93 3e 64 47 26 3f 37 a8 95 3f
       0.19196339 0.28744167 0.64952683 1.169196
000050 47 3c a1 3f 1d d8 49 3e c5 d4 0d 3e 59 db dd 3e
       1.259652 0.19711347 0.13850696 0.4333141
000060 09 99 b1 3e 1c bb d8 3e bb 9e 53 3f af ef 89 3e
       0.3468707 0.42330253 0.8266408 0.26940677
000070 96 69 9c 3f 66 ee 94 3e df b1 ac 3e 75 1e 9c 3e
       1.2219722 0.29088134 0.33729455 0.30491987

backbone.8.weight f4 [64, 32, 3, 3]
000000 fb 77 a4 3d 61 72 b1 bc 5d 59 c4 3d 1c 02 6b bd
       0.08030697 -0.021660985 0.09587357 -0.05737506
000010 55 bb db bb bb 15 47 bd a5 ed ab bc 9d 2f 85 bc
       -0.0067056813 -0.04860471 -0.020987341 -0.016258055
000020 ed 6d d8 bb b4 af eb bd 1e 25 24 bc fa 18 01 3e
       -0.006604901 -0.11508122 -0.010018615 0.12607184
000030 21 8e 1a be 2e cd 96 bd 29 0d 0a be fd 2a 94 bd
       -0.1509328 -0.07363354 -0.13481583 -0.07234762
000040 c9 ac 42 3d 6d 8f d1 3d 62 e3 d2 3b 38 50 65 bd
       0.047528062 0.102324344 0.0064357975 -0.055984706
000050 13 e7 9a bc b9 30 38 bc cb 76 5b bd 71 14 a2 3d
       -0.018909013 -0.011242085 -0.053580087 0.07914055
000060 10 54 62 3d d9 ba 0b 3d 6b 10 3d bc 61 98 83 3d
       0.05525595 0.03411374 -0.011539559 0.06425548
000070 01 68 6d 3d df 6f 6a bc cf 26 a8 ba e0 a8 44 3d
       0.057960514 -0.014308899 -0.0012828949 0.048012614
000080 ab c8 54 bd de c7 62 bd b7 99 95 3d 2c e9 4b 3d
       -0.051949184 -0.05536639 0.073047094 0.049782917
000090 e0 0d b6 3b ca 58 31 be 2e 24 ca bc 4e fd 1f 3d
       0.0055558532 -0.17319027 -0.024675455 0.03905993
0000a0 27 5f 7a 3d 0f 2b d1 bb 77 04 46 bd 15 6c a9 bc
       0.0611259 -0.006383307 -0.0483441 -0.02068142
0000b0 2d 15 55 3d cf 82 f2 bd d0 fa 9a 3d d3 86 cd bc
       0.052022148 -0.11841356 0.0756737 -0.025088703
0000c0 61 bc 69 3d 7c 2b 83 bc 57 a0 a5 bc e1 62 18 bd
       0.057064418 -0.016011946 -0.020218058 -0.037203673
0000d0 85 a9 ad 3d b0 4d e5 3d 05 a3 71 3c f0 a5 5c 3d
       0.08479599 0.11196458 0.01474834 0.053869188
0000e0 ab 12 4b 3d 34 fa 4a bd 4a 05 54 bc 65 29 17 3d
       0.04957835 -0.04955502 -0.012940714 0.03690471
0000f0 35 bd f3 bd 09 6a 00 bc 9b 8a c0 bd 94 83 15 3d
       -0.11901323 -0.007837781 -0.09401437 0.036502436
000100 c9 47 6b 3d e3 03 0c 3c 7f 6a 69 3d 78 5f ce bc
       0.057441507 0.008545849 0.05698633 -0.025192007
000110 d8 90 38 bd 03 c1 c4 3c 31 9a 2b 3d 60 63 18 be
       -0.04506001 0.024017816 0.041895095 -0.14881659
000120 fa a2 59 bd 12 3b 90 bd ad 8f 78 bd ff ab 0d bb
       -0.053133942 -0.07042517 -0.060683895 -0.002161741
000130 fa bc a2 3c ce f8 12 be fe 4e 4b bc 8e dc 1c 3c
       0.019865502 -0.14352724 -0.01240897 0.009574069
000140 26 7d 01 bd 19 11 07 bd 6a 57 85 bd 60 b8 9a 3d
       -0.03161349 -0.03297529 -0.065108135 0.07554698
000150 f7 91 f8 bc 8a 44 5c 3b 7d 12 1a 3d 2f 76 20 3d
       -0.030343039 0.0033610188 0.037615288 0.03917521
000160 02 f0 09 3c 9a 5e ab bc bb 0e 95 3c 5a 63 7b 3c
       0.008419039 -0.020919133 0.0181955 0.0153435115
000170 db aa d9 3c b7 d3 03 be b0 67 86 3d f6 1e 46 3c
       0.026570728 -0.12873732 0.065627456 0.012092343
000180 c8 43 52 bc 20 37 ba bc 66 89 54 bd 81 3f 15 3d
       -0.012833543 -0.022731364 -0.051888846 0.036437515
000190 4d a0 55 3c 1d 47 dc bc 0b 5f 20 bd 05 f3 0e bd
       0.013038707 -0.026889378 -0.03915314 -0.03489973
0001a0 30 64 8a 3d 53 14 f5 bd d0 a4 9d 3d 56 ba 2a bd
       0.067573905 -0.11966767 0.07697451 -0.04168161
0001b0 f8 0f 5a 3d 4d cb 89 3c a9 98 15 bd 86 70 ab 3d
       0.053237885 0.016820574 -0.03652254 0.083710715
0001c0 39 c4 97 39 c7 e5 3a bc 57 f7 d2 3d 49 8a af 3d
       0.00028947162 -0.011407322 0.103010826 0.08571298
0001d0 54 f8 2c 3c f2 60 a3 3d 96 c6 fa 3c 19 e4 57 3d
       0.010557253 0.07977475 0.030612271 0.052707765
0001e0 d4 15 78 3c b7 46 f1 3c c9 42 a0 bc 1d c1 65 3c
       0.015141923 0.029452665 -0.019563096 0.014023093
0001f0 32 5f 03 be d7 dc b2 3d be c8 4f 3c 13 90 11 3d
       -0.12829283 0.08733528 0.012682138 0.03553779
000200 68 94 7e 3b b6 6d d1 bd 29 51 df bd 4b 4b d3 3d
       0.0038845781 -0.10226004 -0.10904152 0.10317095
000210 f2 54 8e 3d 1d f6 9a bc b9 66 3d bd 98 e8 82 bc
       0.06949796 -0.018916184 -0.046240542 -0.01598005
000220 de f6 8b 3d 3a e8 de 3b e9 35 6f bd 6b 2e b2 3d
       0.068341956 0.006802586 -0.058401022 0.0870026
000230 f3 b2 b8 3c 26 28 13 3d 02 94 8e 3b ee 2f 5f 3c
       0.022546267 0.03592696 0.00435114 0.013622267
000240 bc 21 cc bd 26 fd c7 bd 12 2f 88 3d d4 8d f9 3d
       -0.09967372 -0.09765081 0.06649603 0.12185255
000250 08 0b 0c 3d 37 bc cc bd 92 cf 6e bd 3b 4c 5d bc
       0.034190208 -0.09996837 -0.058303423 -0.013506944
000260 5a dd 88 3d af 99 f9 bd 21 54 66 bc 44 9e 29 bd
       0.066828445 -0.12187516 -0.014058144 -0.0414107
000270 b7 63 33 3d 04 e0 65 bd b5 6e 81 3b 11 6a bd bd
       0.043796267 -0.05612184 0.003949965 -0.09248746
000280 3f 14 e0 bb 97 e5 b4 bd 44 75 f5 bd 3d 5f 2f bd
       -0.006838351 -0.08832853 -0.11985257 -0.042815436
000290 8e 3d f4 3b 7f d6 79 bc 31 cf d7 3c 7d 06 bf bd
       0.007453627 -0.015248894 0.026343914 -0.093274094
0002a0 a9 57 4c bd 97 d4 d4 3d dd 4a ea 3d 01 cb a1 3d
       -0.049888287 0.10392111 0.1144006 0.07900048
0002b0 fd 10 de 3c 5d 98 af 3d bc c7 b2 bc 76 1c b2 bc
       0.02710771 0.08573983 -0.021823756 -0.021742087
0002c0 d8 3d 93 3d fc ce 81 3a 67 47 f2 3c cc 1b 2b bd
       0.0718953 0.0009903605 0.029575063 -0.041774556
0002d0 90 9d 56 3c 7f 76 42 bd 04 f8 87 bc 86 cf e4 3c
       0.013099089 -0.047476288 -0.016597755 0.027930986
0002e0 df ae 51 bd 2c d3 f0 3c f3 71 de bb bc 2b 3f bc
       -0.05119216 0.02939757 -0.006788486 -0.011668142
0002f0 51 d0 77 bd b0 01 dd 3c c5 c1 0a bc 78 24 a0 bc
       -0.0605014 0.026978344 -0.00846905 -0.01954864
000300 c5 2e ba 3d 92 f4 05 3b ba 4b 0b bd a3 8d 71 39
       0.09090952 0.0020439965 -0.034007765 0.00023036315
000310 6c 20 28 bd 14 62 b3 3d cf 99 c3 bd 9c a9 32 bd
       -0.041046545 0.08758941 -0.09550821 -0.043618783
000320 48 57 87 bc bb 2f c4 3d df 93 99 bd 53 28 bf bc
       -0.016521111 0.09579416 -0.07498907 -0.023334658
000330 45 73 97 bd e7 a2 39 bd 5f 12 1d bd 3e f0 ab 3d
       -0.07395033 -0.04532137 -0.0383476 0.08395432
000340 50 a9 98 bd aa 0c 36 bd c5 a7 80 3c f3 30 85 3c
       -0.07454169 -0.04444567 0.015704999 0.016258692
000350 4f 79 04 bd 3b d9 a3 bd f1 c8 9d bd 10 b8 2d 3d
       -0.03234225 -0.08000418 -0.07704342 0.042411864
000360 85 40 0d bd d1 52 a0 bd 5d 73 71 3d 8f 20 95 bd
       -0.03448536 -0.07828296 0.05894791 -0.07281601
000370 ce fb 50 bb 6c d1 9b 3d 6c e8 95 bb 8d 87 5d 3d
       -0.0031888369 0.076083034 -0.004574826 0.05408435
000380 85 ab 71 3c d3 4d 00 be c3 0a 11 3c 85 55 8e 3d
       0.014750366 -0.12529688 0.008852663 0.06949905
000390 ce 39 04 3e 2d 10 cb 3c 5e af 87 bd 19 66 66 bd
       0.12912676 0.024787987 -0.066252455 -0.05624971
0003a0 37 9c b5 bc 47 8f 85 3d fe 42 ef bc 86 2f 03 bd
       -0.022169216 0.065214686 -0.029206749 -0.032027744
0003b0 4f ad 97 3b e0 39 14 be fc 4f 21 bd 6b 0d 30 3d
       0.0046288143 -0.14475203 -0.03938292 0.042981546
0003c0 01 ce 32 3d 8b d8 4d 3c d2 5b b5 3c 75 1f d5 bc
       0.043653492 0.012563835 0.02213851 -0.026015976
0003d0 68 36 81 bd 83 c5 0f 3c 36 67 4c 3c 60 a4 bf 3c
       -0.06309205 0.008775118 0.012475779 0.02339381
0003e0 bd 01 ab 3b 8b c1 3b 3d c3 03 bd 3d 5b 50 8d 3c
       0.005218713 0.045838874 0.09229233 0.01725023
0003f0 42 63 6c bd a3 45 38 bd 74 b1 d6 3d 86 39 df 3c
       -0.057711847 -0.044988286 0.10483065 0.027249109

backbone.8.bias f4 [64]
000000 11 84 45 38 23 47 c1 b7 69 46 65 38 6e 3d 80 b8
       4.7091457e-05 -2.3040518e-05 5.466343e-05 -6.114958e-05
000010 4e f7 23 b8 83 8a 1d b7 42 76 02 38 ab 1d 86 39
       -3.909255e-05 -9.390179e-06 3.110455e-05 0.00025580576
000020 23 f6 6a 37 e5 b4 25 b7 43 47 91 38 0c 19 17 37
       1.4004795e-05 -9.876884e-06 6.927412e-05 9.006133e-06
000030 da fd d7 b7 7f 08 e7 36 20 e6 11 b8 65 04 d9 b4
       -2.5748206e-05 6.8853255e-06 -3.4785015e-05 -4.0422597e-07
000040 ec 31 04 b7 5e f4 00 38 1d 01 e2 37 38 6b 6a 36
       -7.879436e-06 3.0745163e-05 2.6941818e-05 3.4931127e-06
000050 ac 91 7e b7 17 16 b2 b6 01 0c 1b 38 04 80 28 38
       -1.5173497e-05 -5.307385e-06 3.696606e-05 4.0173545e-05
000060 6e d8 3e 38 40 8b 3d b8 18 ad 94 b8 a1 a7 2b 36
       4.5501096e-05 -4.5190798e-05 -7.089431e-05 2.5578559e-06
000070 f3 15 43 b8 7a d6 b5 37 f3 59 d7 b7 0c dc 32 38
       -4.6512065e-05 2.1676755e-05 -2.5671883e-05 4.264344e-05
000080 d0 48 ba b6 47 e0 77 b8 1d af be b8 c6 57 ad 37
       -5.5517085e-06 -5.9098264e-05 -9.0925234e-05 2.066408e-05
000090 df 83 7b b8 ed 83 14 b8 56 51 22 38 14 81 38 38
       -5.9965878e-05 -3.5408815e-05 3.869956e-05 4.3989232e-05
0000a0 ba e2 31 b7 23 3f 26 38 6a 18 0f 38 d3 4a 99 37
       -1.0602811e-05 3.9636285e-05 3.4116594e-05 1.8273864e-05
0000b0 33 a5 27 b8 92 44 3e b8 6b ae 3e 35 cd e3 4e 38
       -3.9969756e-05 -4.536339e-05 7.103433e-07 4.9326383e-05
0000c0 9f a1 15 37 40 e1 95 b8 12 57 0c b8 4c ed 3c b7
       8.918722e-06 -7.14683e-05 -3.345969e-05 -1.1260923e-05
0000d0 8f e5 66 38 a6 bd 6c 37 d5 b2 98 b8 6f cc e8 37
       5.5050066e-05 1.4110852e-05 -7.281235e-05 2.7751752e-05
0000e0 f7 25 ea b8 f0 dc f9 b7 06 ce dc 35 c3 cf a3 38
       -0.00011165061 -2.9785995e-05 1.6451238e-06 7.811144e-05
0000f0 f4 74 4d b8 97 89 e4 37 ef c6 8e b7 e4 d2 f9 b6
       -4.898473e-05 2.7243788e-05 -1.7020355e-05 -7.445329e-06

backbone.9.weight f4 [64]
000000 71 47 7d 3f e2 da 80 3f 30 01 7f 3f e8 0f 7d 3f
       0.98937136 1.0066798 0.99611187 0.98852396
000010 00 63 7c 3f 2c a5 80 3f de 90 7e 3f a1 0a 85 3f
       0.9858856 1.0050406 0.994398 1.0393869
000020 91 86 82 3f e5 77 82 3f 51 cf 7c 3f 32 0a 7c 3f
       1.0197316 1.0192839 0.9875384 0.98453057
000030 92 aa 7b 3f 44 a1 7b 3f ee 37 7c 3f ec c1 7d 3f
       0.98307145 0.98292947 0.9852284 0.99124026
000040 0c 4e 7f 3f a8 74 7e 3f 7b 8a 81 3f 77 10 7c 3f
       0.99728465 0.99396753 1.0120386 0.98462623
000050 1d b3 7f 3f f1 f1 7b 3f 23 48 85 3f 62 31 7b 3f
       0.9988268 0.9841605 1.0412639 0.9812223
000060 9d 78 7c 3f 8f 10 7e 3f 30 32 7f 3f 0f c3 80 3f
       0.9862154 0.99244016 0.99685955 1.0059527
000070 44 18 81 3f c1 71 80 3f 23 80 80 3f 33 3e 81 3f
       1.008553 1.0034715 1.0039104 1.0097107
000080 70 fb 7d 3f 69 db 7b 3f de 50 82 3f bb 7f 7b 3f
       0.9921179 0.9838167 1.0180929 0.98241776
000090 7e 0e 7f 3f 12 18 80 3f ba d6 7c 3f ea f0 82 3f
       0.9963149 1.0007346 0.98765147 1.0229771
0000a0 7a 94 80 3f 5e ed 7d 3f 8b 2d 7f 3f a9 89 7d 3f
       1.0045311 0.9919032 0.9967887 0.9903818
0000b0 c2 99 7e 3f 72 a9 80 3f a8 25 80 3f 24 6a 81 3f
       0.99453366 1.0051711 1.0011492 1.0110517
0000c0 d7 7e 81 3f e0 a0 7f 3f d4 07 80 3f c7 ad 7a 3f
       1.0116833 0.9985485 1.0002389 0.97921413
0000d0 e2 32 7e 3f 8c a2 7f 3f 07 20 80 3f 7d a1 7d 3f
       0.9929639 0.998574 1.0009774 0.99074537
0000e0 47 e9 80 3f f6 e5 7f 3f 66 ab 81 3f 42 8c 7b 3f
       1.007119 0.9996027 1.0130432 0.9826089
0000f0 35 86 80 3f 3f f8 80 3f 47 1d 7e 3f f8 82 7e 3f
       1.0040957 1.0075759 0.99263424 0.9941859

backbone.9.bias f4 [64]
000000 33 83 7f bc e8 01 83 3c e4 b9 d5 3a 78 97 03 3c
       -0.015595245 0.01599212 0.001630601 0.008031718
000010 71 c2 57 bc 27 4c b2 3b 09 f3 4d 39 3a 31 45 3b
       -0.013168917 0.005441207 0.00019640861 0.0030089156
000020 2c 15 89 bb df 76 d7 3b 43 df 39 bc 33 f5 06 bc
       -0.004183432 0.00657545 -0.011344734 -0.008237171
000030 bb c4 8d 3b 75 bc 45 bc 89 e6 76 bc 14 af 23 3c
       0.0043264306 -0.012068857 -0.015069612 0.009990472
000040 0e ba e5 ba bf 7e 40 bc f6 0f 66 3c 09 1c 25 bc
       -0.0017526762 -0.011748969 0.014041891 -0.010077485
000050 b6 9a 47 3c a3 ce c9 bb fa dd 0c 3c bb 6f 85 bc
       0.012182882 -0.006158666 0.008597845 -0.016288629
000060 3d f7 2a bc b3 2a cf 3b ec 52 c3 3b 3f 5b d2 3c
       -0.010434923 0.006322229 0.005960813 0.025678275
000070 fc 9b c8 3b 09 41 13 bc d2 ce 02 bc 99 c7 9b 3c
       0.0061221104 -0.008987674 -0.00798388 0.019016074
000080 c6 8d 13 bc df 84 57 3b 5e 70 10 bc dd 8c 3e bc
       -0.009005969 0.0032885594 -0.008815853 -0.011630264
000090 25 da 15 3c ff 1b 1d 3b 4e 3c 24 bc c9 51 23 bc
       0.009146248 0.0023972986 -0.010024143 -0.00996823
0000a0 8f e1 5f 3c 16 16 92 bb 45 46 5c 3c 88 66 1e bc
       0.013664617 -0.0044581993 0.013444488 -0.009668
0000b0 2b c8 52 3a 1c 12 0c bc 94 4a ba 3c f5 f6 cb 39
       0.00080406916 -0.0085492395 0.02274064 0.00038903175
0000c0 bb c4 36 3c 73 56 07 3c 19 50 60 3c 99 cf 9a bc
       0.011155303 0.008260357 0.013690972 -0.018897818
0000d0 08 92 a0 bc 22 32 3d 3c 8c 88 28 3b 7c 25 10 ba
       -0.019600883 0.011547597 0.0025716154 -0.00054987497
0000e0 fd 4a f7 3b 2d 80 07 bc c5 6d 44 3c 01 08 30 bb
       0.007546781 -0.008270306 0.011989062 -0.002686024
0000f0 77 a5 6f 3c 4e d3 d1 3c c5 ec 1d bb 74 a3 64 bc
       0.014626852 0.025613453 -0.0024097424 -0.013954986

backbone.9.running_mean f4 [64]
000000 4a a7 b0 be 7e c1 b3 be a1 2e e7 be c5 5e 49 3e
       -0.3450263 -0.3510856 -0.45152763 0.19665058
000010 3f df 3e 3e 1c 6a 55 bf 0a a2 56 bf a4 94 46 3e
       0.18639849 -0.83365035 -0.83841 0.1939264
000020 31 94 a1 be ec 83 26 bf 93 34 05 bf 66 aa 13 3f
       -0.31558374 -0.65045047 -0.52033347 0.5768188
000030 41 e6 a3 bf 29 2e 10 3e 63 fc 41 3d 75 57 5a bf
       -1.2804643 0.14080109 0.047359835 -0.852897
000040 9a 67 0e 3d 35 41 bd 3e 97 8b a8 bd a8 9f c9 3e
       0.03476677 0.36963812 -0.0822975 0.3937962
000050 89 f6 69 3f 86 8b 3e bf 24 f2 91 3d 74 5e bb be
       0.9139181 -0.74431646 0.07126263 -0.365955
000060 56 30 b8 3e 5e ae 69 3f 0f e7 83 3d 65 2b fe 3c
       0.35974377 0.9128169 0.06440555 0.031026551
000070 74 1c 90 bd 0e 64 6e be ec 96 54 3f b9 f9 bc 3d
       -0.07036677 -0.23280355 0.8304279 0.09227318
000080 1d 28 76 bf c9 4b b3 be f4 a0 63 bf 4b 4e 51 3e
       -0.9615496 -0.35018757 -0.8891747 0.20440023
000090 fa 85 8f 3e 77 a8 20 be 41 bc 15 3f 2e 1a 36 3e
       0.28031904 -0.15689264 0.5849038 0.17783424
0000a0 92 43 70 be 42 9b e2 be 6b b0 aa be 26 7a 9c 3e
       -0.23463276 -0.44259077 -0.3333772 0.30561942
0000b0 72 5b 80 bf eb c8 07 be 70 4d bd be 8b 99 f2 3d
       -1.0027907 -0.13260238 -0.36973143 0.11845692
0000c0 ff 39 8f bf ed e6 48 3e b0 2c e2 be 3e 63 52 3f
       -1.1189574 0.19619341 -0.4417472 0.8218268
0000d0 e2 99 91 3d 02 03 98 bd 32 9c 10 bd ef d4 22 bf
       0.07109429 -0.07422449 -0.03530521 -0.6360616
0000e0 f1 42 33 bf be 45 6c bf 3a ff 96 3e 7a a2 a3 3e
       -0.7002402 -0.9229392 0.29491597 0.31959897
0000f0 72 df c9 bd 83 69 45 3e f9 bd db be e8 b3 c6 bd
       -0.09857072 0.19278531 -0.42918375 -0.09702283

backbone.9.running_var f4 [64]
000000 41 15 46 3f a8 aa 2f 3f 2a ff 14 3f c0 c3 c4 3e
       0.7737618 0.68619776 0.5820185 0.38430595
000010 a3 41 1e 3f 9f f8 86 3f 1a a8 14 40 24 f8 71 3e
       0.61818904 1.0544623 2.32276 0.23629814
000020 ca fe a8 3e 77 25 55 3e 4c 39 ce 3f 1d af a2 3f
       0.3300689 0.20815073 1.6111236 1.270969
000030 3b 38 a4 3f 81 5b e2 3e 46 c1 4c 3f 67 05 35 3f
       1.282966 0.44210437 0.7998241 0.7071137
000040 8b 9f ff 3e 7e 03 1c 3f 21 11 f0 3e f7 ef d7 3e
       0.4992641 0.6094283 0.46888068 0.42175266
000050 35 7d 9e 3f 49 ba a3 3f 28 9d 62 3e 0d eb 90 3f
       1.238196 1.2791225 0.22130263 1.1321732
000060 1f a4 7d 3f 0c 6a ed 3f d7 1b f3 3e b3 f0 06 3f
       0.99078554 1.8547988 0.47482178 0.5271103
000070 74 cc fb 3e a7 ae 09 3f b3 e2 c5 3e b3 32 33 3f
       0.49179423 0.53782123 0.3864952 0.69999236
000080 ff 11 bd 3f 1e 63 ca 3e 6e 24 4e 3e 21 f6 83 3f
       1.4771117 0.39528745 0.20131084 1.0309488
000090 d4 06 79 3e f2 4f 33 3f 59 e2 50 3f 55 d6 3a 3f
       0.24319011 0.7004386 0.8159538 0.72983295
0000a0 93 f0 20 3f b8 a8 0f 3f 99 c5 91 3e ed 90 92 3e
       0.6286709 0.5611682 0.28471068 0.28626195
0000b0 38 b7 e5 3f a8 91 0f 3e 99 2c 7e 3f 35 83 79 3e
       1.7946539 0.14020407 0.992868 0.24366458
0000c0 8c b3 c2 3f 0e 4d 1b 3f 87 62 ba 3e 62 93 44 3f
       1.5211043 0.6066445 0.36403295 0.7678739
0000d0 c7 da b4 3e ec 5f b1 3e 8b 13 0f 3f 4e b1 95 3e
       0.35323164 0.34643495 0.55889195 0.29236835
0000e0 3e b1 ea 3e 4d 11 37 40 82 0b 33 3f d2 0d 02 3f
       0.4583835 2.860431 0.69939435 0.5080234
0000f0 d5 67 0a 3f 61 61 29 3f 1f 39 48 3f d7 01 36 3f
       0.54064685 0.66164213 0.7821216 0.7109656

backbone.12.weight f4 [128, 64, 3, 3]
000000 22 d5 b3 3d 08 22 8e 3b ca d1 24 3d b3 a6 92 bc
       0.08780886 0.004337553 0.040239133 -0.017901754
000010 87 33 0d 3d a2 ca ec 3c 38 ad e1 3b 68 02 7a bc
       0.03447297 0.028905217 0.0068871044 -0.015259363
000020 67 be 48 3d 1c 24 b8 3c 9e 21 fe 3b d2 95 9a bb
       0.049009707 0.022478156 0.0077554723 -0.004717567
000030 c9 17 a5 3c 4a 72 1c bb 4c 3d 45 bd 5d 04 cc 3b
       0.020152943 -0.0023871833 -0.04815416 0.006226106
000040 19 ad a9 bb 03 3a 7d 3d 43 b6 3c 3c 6b d1 0d bc
       -0.0051781056 0.061822902 0.011518064 -0.008655886
000050 16 7e ff 3c 3c 43 c9 bc 51 58 70 3c 10 52 14 bb
       0.031188052 -0.024568193 0.014669494 -0.002263192
000060 b3 2b 4e bd 6a 8a aa bc 70 a7 02 3d 6c 8d 92 bc
       -0.050334644 -0.020817954 0.031897962 -0.0178897
000070 85 4c f8 bd 27 da 32 bd c8 b6 22 bc 03 f8 2c bc
       -0.1212397 -0.043665078 -0.009931274 -0.0105571775
000080 fa c8 f0 bc c7 57 50 3b d1 63 ad bd a6 b6 0a 3d
       -0.029392708 0.00317906 -0.08466304 0.033865593
000090 d4 21 6a bd c1 dc c5 bb 4e 3e 7f 3b 76 f6 f1 bb
       -0.057161167 -0.006038279 0.0038947049 -0.0073841168
0000a0 74 14 43 3d fd 4a 5f bd 80 e2 c5 3c 60 79 b2 3c
       0.047626927 -0.054514874 0.024155855 0.021786392
0000b0 e2 4d af 3c 2d d3 9b bc 3b 18 72 bd 82 ef 99 3d
       0.021399442 -0.019021595 -0.05910514 0.075163856
0000c0 5e 74 f9 3c 39 bf 22 bd 3a 41 1e bc 1b ab bf bc
       0.030450996 -0.039733145 -0.009659106 -0.02339702
0000d0 2b 1a b9 3d c6 9f 8b bc 50 2f 06 3d ce df 32 bc
       0.09038194 -0.01704396 0.032759964 -0.010917617
0000e0 43 51 b9 3c aa 05 14 3d fb 62 da 3c 68 9b 4c bb
       0.022621756 0.036138214 0.026658526 -0.003122056
0000f0 f2 4d 56 bc 57 d2 e3 bc 00 e3 ca 3c 56 5e 1a bd
       -0.013080107 -0.027810259 0.024766445 -0.037687622
000100 a9 e5 d1 bc 73 6e f4 3c fc 6d 8f 3c 6d fa 90 3d
       -0.025622206 0.029837823 0.0175085 0.07079015
000110 7b 55 30 3d 4c 08 42 3c bb 7f 79 3d e4 e7 69 3c
       0.04305027 0.011842798 0.06091283 0.014276478
000120 4a 02 b3 bc ca ef 12 b9 4d a1 b0 3d 92 9d a1 3c
       -0.021851677 -0.00014012973 0.08624516 0.019728456
000130 e8 d8 aa 3d 8b 77 48 bc 4c 60 a8 3d ae 30 9e 3a
       0.08342153 -0.0122355325 0.08221492 0.0012068951
000140 2a 14 db 3c e6 e0 39 3c ef b3 6e 3d 89 71 36 bd
       0.026743013 0.011345124 0.058277067 -0.04454187
000150 97 98 94 bc e0 61 26 bc 83 bb 3e 3d 01 7b 4a bc
       -0.018139167 -0.010155171 0.046565544 -0.012358428
000160 de 42 b4 bc 6a 32 0d 3d 5f 46 8b bd 15 36 ce bb
       -0.022004541 0.034471907 -0.068005316 -0.006293068
000170 45 7a bc bd 89 70 c2 3c 3d 7b 19 bc de c8 9e 3c
       -0.092030086 0.023735302 -0.009367761 0.01938289
000180 92 57 01 bd 01 84 67 bd a5 b4 2b 3b 7f 97 1f bd
       -0.031577654 -0.056522373 0.0026200202 -0.038962837
000190 23 0d a5 bb 3f ad 07 3d 0c 4b ff 3a 97 de 24 bc
       -0.0050369664 0.033124205 0.0019477322 -0.010062835
0001a0 26 c1 bb bb e9 98 80 bd ea 13 11 bd 0b 09 6e 3d
       -0.005729812 -0.06279165 -0.035419382 0.058114093
0001b0 c2 b8 7b 3d dc 7a b7 3c ad 1e de bc e7 51 b0 bb
       0.061455496 0.022397451 -0.027114237 -0.0053808573
0001c0 27 11 6e 3c 87 26 10 bd 48 f0 9d bc 5e ee 8d 3d
       0.014530457 -0.035192993 -0.019279614 0.069302306
0001d0 f3 83 7d bd 60 b4 41 bd 27 f1 93 bc 0a 29 16 bd
       -0.061893415 -0.04729116 -0.018059326 -0.03666023
0001e0 0e 77 ae 3c 3b 4e 69 3c 3d 6e 60 bd 93 e9 13 bd
       0.021297004 0.014239843 -0.05479263 -0.036111426
0001f0 9c c3 5c bd d8 1d 5d bd ad ec 60 3d d3 0a b6 bb
       -0.053897485 -0.05398354 0.05491321 -0.0055554896
000200 85 ed 9a bc 36 d7 63 bd 81 b8 30 bd c4 40 0e 3c
       -0.018912086 -0.055625163 -0.043144707 0.0086824335
000210 38 1b 86 3d 0e 39 92 bd 0d 5d 6e bd 7c 56 7b 3d
       0.0654816 -0.071397886 -0.05819421 0.061361775
000220 26 9f 3d 3d 39 69 af ba 6b 9e 43 bd f3 26 e4 3c
       0.046294354 -0.0013382799 -0.0477585 0.027850604
000230 fa 60 98 bd 72 4c df 3c 23 78 b9 3c cc b1 3e bd
       -0.07440372 0.027258132 0.022640293 -0.04655628
000240 c4 0f 30 bc 84 bb 2d bc 39 a4 3b 3d 1c 18 82 bd
       -0.010745946 -0.010603789 0.04581091 -0.06352255
000250 ad 65 5f bd 0f c8 a7 3c 3a 83 5f bd f2 8f 39 3c
       -0.054540325 0.020481138 -0.054568507 0.011325823
000260 7d 5d 03 bd db c9 a3 bd 94 90 ef 3c 94 7c 49 3c
       -0.03207158 -0.07997485 0.029243745 0.012297768
000270 d3 c5 73 3d 31 65 91 3c 0f f9 80 ba 1c f9 f4 bb
       0.05951483 0.017748447 -0.000983985 -0.007475985
000280 5b 10 8e bd b8 47 09 bd f2 45 89 3a 73 13 6a 3c
       -0.06936713 -0.033515662 0.0010473116 0.014286864
000290 c3 ca 83 3d ba 62 db bc 76 2f 4b bc 18 3b 46 3d
       0.06435158 -0.026780475 -0.012401452 0.0483962
0002a0 2a ff db 3b 0b ad 8c 3d 99 1c df bc 85 81 07 bc
       0.0067137675 0.06868943 -0.027235316 -0.008270626
0002b0 ea e1 b5 bc 85 ed 76 3d 68 e9 25 3d 5a bc b6 bd
       -0.02220245 0.06028511 0.040505797 -0.08922644
0002c0 ff 8f 72 bd 43 00 96 bd 70 35 90 3d 18 67 b4 bc
       -0.059219357 -0.07324269 0.070414424 -0.022021815
0002d0 df f3 e6 bc 3b 5b 53 bd f4 2a 0b bb 63 d2 8a bd
       -0.028192459 -0.051600676 -0.002123532 -0.06778409
0002e0 2b 10 88 bc ac 3c 31 bc 80 c6 b6 3c bc ab e7 bc
       -0.016609272 -0.010817688 0.022311449 -0.028280132
0002f0 bf 45 e8 bd b8 1a 40 bb fc fe ee bd 59 a0 84 3c
       -0.11341428 -0.00293128 -0.11669728 0.016189741
000300 f6 76 38 bd 4e 1f e5 bd aa 92 cc bb 77 32 23 3c
       -0.045035325 -0.111876115 -0.0062430697 0.009960762
000310 0d 10 83 3d 8e 3f c6 bc a3 2d 57 3d ab ee 5a 3c
       0.06399546 -0.024200227 0.052533757 0.013362567
000320 1c 89 47 bd 35 1a 07 bc 0a 9d 8c bd 3a f5 fd 3c
       -0.048714742 -0.008245994 -0.0686589 0.031000722
000330 f6 48 a4 3a 0a 25 90 3d 3a e9 c1 bc 9e 1c 45 bc
       0.0012533951 0.07038315 -0.023670781 -0.012030749
000340 e2 e0 05 3c 1f b5 ef 3b f5 a7 83 3b 7b 49 49 bb
       0.008171292 0.0073152925 0.004017825 -0.0030713964
000350 f0 86 9f 3b 1b 32 25 3d 30 8a cf bc a0 cc bd bd
       0.0048683807 0.040330987 -0.025334448 -0.09267545
000360 12 a6 4b bd 52 88 25 3d f2 12 b5 bd a6 90 3a 3d
       -0.049718924 0.04041321 -0.08841504 0.045548104
000370 34 82 76 3d c6 72 a0 bd 52 1e 09 bd 08 2b 76 3d
       0.060182765 -0.07834391 -0.03347618 0.06009963
000380 90 43 c6 bb 07 f0 b4 bc d5 10 bd 3c 3c 4a 86 3c
       -0.0060505345 -0.02208711 0.023079315 0.01639282
000390 f4 9c 16 bd 02 23 90 bc ae 21 b6 3c cf fb bb bc
       -0.036770776 -0.017594818 0.022232857 -0.02294722
0003a0 dd 1c 01 bd 4d 8b 03 bb 2d 34 fb 3b 79 aa 97 bd
       -0.031521667 -0.0020072043 0.007666132 -0.07405562
0003b0 41 12 5e 3c cc 08 50 bc 1f 89 82 3d a7 4a 38 3d
       0.013554157 -0.01269741 0.0637381 0.04499307
0003c0 e6 c1 d9 3b dd 35 04 3d b3 53 05 3d 22 3c 70 bd
       0.006645429 0.03227793 0.032550525 -0.058651097
0003d0 43 9f 03 bd eb 5c ee 3a 48 f8 08 bd 2e 4d 26 bd
       -0.032134306 0.0018185651 -0.033439904 -0.040600948
0003e0 b5 f2 b9 3c 58 0b 85 3c 36 a1 cb bc 82 a4 6e 3d
       0.02269874 0.01624076 -0.024857145 0.058262356
0003f0 b6 81 51 3d 70 cd b6 3c 83 eb 89 bc 6b ec fc 3c
       0.051149093 0.022314757 -0.016835934 0.030874452

backbone.12.bias f4 [128]
000000 0f 78 f6 b5 90 ed a0 b6 fd 61 48 37 fe 18 14 36
       -1.836337e-06 -4.7960275e-06 1.1943744e-05 2.2068266e-06
000010 58 c1 89 36 d4 d7 51 b7 ce 79 1a b7 71 33 0e 37
       4.1054263e-06 -1.2507622e-05 -9.207475e-06 8.475837e-06
000020 47 5a 9a 35 0e 27 fd 34 c7 75 be 37 d8 e9 08 37
       1.1500168e-06 4.7153338e-07 2.270461e-05 8.160678e-06
000030 f0 9c 4f 36 dd 02 5f 37 21 e8 be b6 29 26 06 37
       3.0936753e-06 1.3292502e-05 -5.6894646e-06 7.995907e-06
000040 93 f7 59 b7 c1 a5 02 36 62 67 c9 35 15 59 ed b5
       -1.2991851e-05 1.946799e-06 1.5005755e-06 -1.7683802e-06
000050 48 d6 f5 b6 3b 7a 40 b7 c8 8b 85 b4 6e ef e5 36
       -7.3265146e-06 -1.1472551e-05 -2.4874885e-07 6.852605e-06
000060 d9 b7 c8 b7 c1 21 f0 b6 d9 64 e4 b5 f4 cd db 36
       -2.3927469e-05 -7.156487e-06 -1.7016674e-06 6.5506847e-06
000070 6b 0b 0d b7 e8 03 1a 37 6d 4b 00 37 d8 7d bc b6
       -8.406913e-06 9.180025e-06 7.646956e-06 -5.6174867e-06
000080 50 71 9e 36 bd 00 c2 35 eb f4 27 b6 b2 be 6b b7
       4.7219582e-06 1.4454341e-06 -2.50275e-06 -1.4051491e-05
000090 76 45 85 35 ec e3 10 37 d0 eb 5d 37 84 f0 3f b6
       9.929488e-07 8.636136e-06 1.3227531e-05 -2.8601216e-06
0000a0 a4 87 b9 36 4e e1 82 37 73 70 01 37 e5 42 52 35
       5.5292203e-06 1.5602123e-05 7.715181e-06 7.832844e-07
0000b0 eb 8d d8 b7 fc a8 35 b6 46 09 a0 37 bb db 12 37
       -2.5815292e-05 -2.7069464e-06 1.9077805e-05 8.753438e-06
0000c0 e8 1b b8 b4 4f 5a 04 b7 4e a8 83 36 8b 01 6f b6
       -3.4292975e-07 -7.88884e-06 3.9236975e-06 -3.5614673e-06
0000d0 69 f1 e3 b6 d3 2c 84 37 2b 27 6b 36 16 d7 22 b7
       -6.793231e-06 1.57565e-05 3.5040528e-06 -9.706031e-06
0000e0 9f e3 df 37 a3 3b 29 37 d9 bf 8e 37 50 ee 0a 37
       2.6689666e-05 1.008707e-05 1.7017055e-05 8.280927e-06
0000f0 01 b7 87 b7 6a 78 02 37 48 66 ed 35 63 6b 74 b6
       -1.6178472e-05 7.77664e-06 1.7687644e-06 -3.642134e-06
000100 37 a4 24 37 8c 20 ad 36 f4 71 25 b5 c5 a7 b1 b6
       9.813396e-06 5.1595907e-06 -6.1633114e-07 -5.294542e-06
000110 db 2d 0f 36 29 79 88 36 d0 40 86 35 85 37 3c 36
       2.1335352e-06 4.0672207e-06 1.0002641e-06 2.80465e-06
000120 1f 40 f1 37 16 00 b8 37 2e c8 e3 b6 12 37 7b 37
       2.8759297e-05 2.193455e-05 -6.788431e-06 1.4973588e-05
000130 8c 88 8e 35 5d e2 0d 37 b6 69 8b 36 e7 3a 42 b6
       1.0619565e-06 8.456959e-06 4.154829e-06 -2.8942538e-06
000140 b8 99 50 37 73 28 08 b7 7b a5 5e 36 f5 68 7b 37
       1.2433557e-05 -8.1156495e-06 3.31769e-06 1.4985203e-05
000150 7b 95 52 37 37 b7 39 36 c7 ec c5 35 2b d3 a3 36
       1.2551779e-05 2.7673793e-06 1.4746555e-06 4.8823617e-06
000160 32 82 54 b6 f4 4f c4 b6 83 ee 0e 37 11 5d 0d 37
       -3.1666245e-06 -5.850563e-06 8.519392e-06 8.425924e-06
000170 6c 2c 60 37 4d d5 79 b6 af f5 41 36 88 fa b3 36
       1.3361783e-05 -3.7228049e-06 2.8902248e-06 5.3637814e-06
000180 fd c0 4b b7 73 aa 13 b7 4d 46 07 36 41 26 07 37
       -1.21446765e-05 -8.801569e-06 2.0157488e-06 8.055534e-06
000190 6c 8a 6d b6 c9 6c 2a 35 88 44 a7 35 16 8e 08 b7
       -3.5396324e-06 6.348824e-07 1.2462415e-06 -8.139314e-06
0001a0 e9 11 8d 36 a1 a2 26 36 2a f5 75 37 19 1e 02 b7
       4.2042125e-06 2.483059e-06 1.466022e-05 -7.7556115e-06
0001b0 f9 fc 91 b7 fd e1 be 35 99 44 24 37 f6 de 36 37
       -1.7403147e-05 1.4221874e-06 9.791133e-06 1.08999575e-05
0001c0 5d ed f7 35 d0 35 69 b6 ee fc 7a 37 4a 09 c8 b5
       1.8472016e-06 -3.4751029e-06 1.4960051e-05 -1.4903865e-06
0001d0 9a ce 1b b4 6a ad 80 36 bb f7 7f b7 cd 77 b1 36
       -1.4510661e-07 3.8348853e-06 -1.5256864e-05 5.2889577e-06
0001e0 91 ea 51 36 56 01 c2 37 7b a0 67 37 06 bf 87 b7
       3.1279963e-06 2.3127224e-05 1.3806038e-05 -1.6182206e-05
0001f0 e5 e5 78 b5 0b 6f bc 36 aa ac 18 37 1c 29 39 b7
       -9.272174e-07 5.6157637e-06 9.1001075e-06 -1.1036431e-05
