models/osu_model_temp.pth (torch, 439117 bytes, 28 tensors)

backbone.0.weight f4 [16, 3, 3, 3]
0	0xbe1b75e5	-0.15181692
1	0x3cc80a3d	0.024418944
2	0xbe1db494	-0.15400916
3	0xbde2611c	-0.110536784
4	0xbe2159da	-0.15756932
5	0xbd2390f3	-0.039933156
6	0xbe0b58c9	-0.13608088
7	0x3e37e5ba	0.17958727
8	0xbd927873	-0.0715188
9	0xbcd5a5b7	-0.026079996
10	0xbe965c90	-0.29367495
11	0xbde3fff2	-0.11132802
12	0xbe2cac51	-0.16862608
13	0xbd6a99f8	-0.057275742
14	0x3d2aec81	0.041729454
15	0xbdf67588	-0.12034136
16	0x3d3dc0e3	0.04632653
17	0x3d615870	0.05501598
18	0xbd9ff4ce	-0.07810365
19	0xbe24f18b	-0.16107766
20	0xbdc9f637	-0.09861415
21	0x3e14a9ad	0.14517851
22	0x3d85dbe5	0.06536082
23	0xbadadd65	-0.0016698061
24	0x3dc0e427	0.094185166
25	0x3d768c83	0.060192596
26	0x3d0967bb	0.03354619
27	0xbe2cd31a	-0.16877404
28	0xbe43ad04	-0.19108969
29	0x3c9d8d19	0.01923232
30	0xbe75bd79	-0.2399806
31	0xbd499d78	-0.04922244
32	0x3dbf8a0c	0.09352502
33	0xbba8f87c	-0.005156575
34	0xbd7e3fb4	-0.06207247
35	0x3e1099e5	0.14121206
36	0x3e3d3cc9	0.18480219
37	0xbd404197	-0.04693755
38	0xbc3ed8e6	-0.011648392
39	0xbb6925c1	-0.0035575482
40	0xbd12f9de	-0.035882823
41	0xbda5da9a	-0.080983356
42	0x3d84b013	0.06478896
43	0x3e4684ad	0.1938655
44	0x3ddbf3c4	0.10739854
45	0x3e94552b	0.28971228
46	0x3e21bfa5	0.15795763
47	0xbd4fcb60	-0.050731063
48	0x3d07316a	0.03300611
49	0x3e226c6f	0.15861677
50	0x3caf9f62	0.021438304
51	0x3d41c5bc	0.047307715
52	0x3de0d798	0.10978621
53	0x3e197d8d	0.149893
54	0x3d12bc64	0.035824195
55	0x3e19d5b1	0.15022923
56	0x3d77bb56	0.06048139
57	0xbd726186	-0.059175037
58	0x3df7a689	0.12092311
59	0x3af0933a	0.0018354424
60	0xbceac465	-0.028658101
61	0x3e998330	0.299829
62	0x3c3b87dd	0.011445967
63	0xbdc86a2e	-0.09785877
64	0x3c7a25f7	0.015267841
65	0xbdb028fb	-0.086015664
66	0xbd8ded8e	-0.069300756
67	0xbe4731a0	-0.19452524
68	0x3d5e5d68	0.054288298
69	0x3ad8c3ec	0.0016537881
70	0xbe25d006	-0.16192636
71	0x3dc6f9c1	0.097156055
72	0xbc16617c	-0.0091785155
73	0xbd11e15d	-0.035615314
74	0x3dee35c6	0.1163135
75	0xbd897716	-0.06712167
76	0x3cd6ca23	0.026219433
77	0xbd089359	-0.033343647
78	0xbdc5cf52	-0.09658684
79	0x3dc057bb	0.09391733
80	0xbc14d375	-0.009083618
81	0xbe3b556a	-0.18294302
82	0xbd1e5bd0	-0.038661778
83	0xbd9f3b33	-0.07774963
84	0x3afe10fb	0.0019383723
85	0x3ceaae1a	0.028647471
86	0x3cd44cf3	0.025915598
87	0xbd02e6dc	-0.031958446
88	0x3d2f53b7	0.042804446
89	0xbd9a3939	-0.075304456
90	0xbce0c4fb	-0.027437678
91	0x3c2fd092	0.010730879
92	0x3d1a45e1	0.037664298
93	0x3e15de34	0.14635545
94	0xbaebea6f	-0.0017998944
95	0x3d898a29	0.06715805
96	0xbc9a32af	-0.018822996
97	0x3e08aedf	0.13347958
98	0xbd8c6823	-0.068558
99	0x3e2c11c5	0.16803654
100	0xbe2f07c7	-0.1709281
101	0xbdd03ef1	-0.10168255
102	0x3d8a1ce6	0.06743793
103	0x3cfb9d14	0.03071455
104	0x3cf63f10	0.030059367
105	0x3dd60edc	0.10452053
106	0x3d899037	0.0671696
107	0x3c8a9170	0.016915053
108	0x3e2713d5	0.16316159
109	0xbccea175	-0.025223473
110	0xbe491473	-0.19636707
111	0xbe157903	-0.14596944
112	0x3d00c2f1	0.03143591
113	0xbe45f9ea	-0.19333616
114	0x3df2c581	0.11854077
115	0x3e4e65cf	0.20156024
116	0x3d8c89c2	0.06862213
117	0xbcaeb0fc	-0.021324627
118	0xbcedce83	-0.029029137
119	0xbe30543a	-0.1721963
120	0xbddd1caa	-0.10796483
121	0x3dac1ab2	0.08403529
122	0x3de63986	0.112414405
123	0xbe308d88	-0.1724149
124	0x3e38b4cf	0.18037723
125	0x3c34f02d	0.0110435905
126	0x3d4682f2	0.048464723
127	0x3ca05a45	0.019574294
128	0x3e915706	0.28386706
129	0x3d74315c	0.059617385
130	0xbc8ba24a	-0.017045159
131	0xbd0457e2	-0.032310374
132	0xbe060f9f	-0.13091896
133	0xbd0ba500	-0.034092903
134	0x3e055f11	0.13024546
135	0x3d25f3e1	0.040515784
136	0xbd821db8	-0.06353325
137	0xbde55eee	-0.11199747
138	0xbe77fd19	-0.24217643
139	0x3d1cfc22	0.03832639
140	0x3e3fc897	0.18728863
141	0x3d8a0be5	0.0674055
142	0x3c50d9e3	0.012747261
143	0xbd3d37cc	-0.04619579
144	0xbdab5b3d	-0.08367012
145	0x3e24b814	0.16085845
146	0x3da90863	0.08253553
147	0x3cd1106b	0.025520524
148	0xbcf9a116	-0.03047232
149	0xbe2ad5a8	-0.16683066
150	0xbe0f9f5e	-0.14025638
151	0x3e4d49d0	0.20047688
152	0xbe41f158	-0.18939722
153	0xbdeadcd9	-0.114679046
154	0x3e3ca872	0.18423632
155	0x3cc40468	0.023927882
156	0xbe34cdac	-0.17656583
157	0xbaa5fdad	-0.0012664102
158	0x3dbdd07c	0.09268281
159	0x3b275a33	0.002553594
160	0x3dcba04b	0.09942683
161	0xbd084dc0	-0.033277273
162	0x3e104923	0.140904
163	0xbe0c3d41	-0.13695242
164	0x3dbb8b3d	0.09157417
165	0x3d292a8b	0.041300338
166	0x3df8ede1	0.12154747
167	0xbd36dd13	-0.044644427
168	0x3e06d099	0.13165511
169	0x3ce3115a	0.027718235
170	0xbb1e1c0a	-0.00241256
171	0xbe0a190b	-0.13486116
172	0x3c6521a9	0.013985076
173	0x3e56300b	0.20916764
174	0x3e826dd1	0.25474408
175	0xbe127a99	-0.1430458
176	0xbdfb70c3	-0.12277367
177	0xbe2ff366	-0.17182693
178	0x3d87cbfb	0.06630703
179	0xbe0eb96a	-0.13937917
180	0xbe06afc1	-0.13152982
181	0xbdf108bf	-0.11769246
182	0xbe0d6bcf	-0.13810657
183	0xbd5efe0a	-0.05444149
184	0x3d012210	0.031526625
185	0xbcbdf583	-0.023188358
186	0x3da13a95	0.07872502
187	0x3d95ef09	0.07320983
188	0xbde3ff65	-0.11132697
189	0x3dafec57	0.0859
190	0x3d15dab9	0.036585543
191	0xbd17ce01	-0.037061695
192	0x3e20ac3f	0.15690707
193	0xbd87a29e	-0.06622814
194	0xbdd9aca3	-0.10628631
195	0xbd67bf00	-0.056578636
196	0xbd886aa7	-0.06660967
197	0xbd1164e7	-0.03549662
198	0xbd003ec9	-0.031309877
199	0x3e1f3835	0.15548785
200	0x3c92e4e7	0.017931415
201	0x3e10f59b	0.14156191
202	0x3c29188e	0.010320796
203	0xbcafde13	-0.021468198
204	0x3c1cefef	0.009578689
205	0xbd05f282	-0.032701977
206	0xbd8d5a43	-0.06901982
207	0xbe22fd70	-0.15916991
208	0x3d18e49d	0.037327398
209	0x3c8a2b2f	0.016866295
210	0xbdb3a92e	-0.08772503
211	0xbe1e5a14	-0.1546405
212	0xbb0c3f30	-0.0021399967
213	0x3e089396	0.1333755
214	0xbdf5cca4	-0.12001923
215	0xbd6d986a	-0.05800668
216	0xbd8b394e	-0.067980394
217	0xbec3c14e	-0.38233417
218	0xbd764a9b	-0.060129743
219	0x3e333c82	0.1750355
220	0x3cb0db0d	0.021588827
221	0x3cffe796	0.031238358
222	0xbddcc75c	-0.10780212
223	0xbc60bcc4	-0.01371688
224	0xbe7a7359	-0.24458064
225	0x3d834246	0.06409125
226	0x3cfca52a	0.030840475
227	0xbd584e4d	-0.05280905
228	0x3df22977	0.11824315
229	0xbead7ba2	-0.33883387
230	0x3df3ce59	0.11904592
231	0x3d8ef9c3	0.06981232
232	0x3d747b3a	0.05968783
233	0xbc6b2a72	-0.0143533815
234	0x3e1acb08	0.15116513
235	0xbe00b839	-0.12570275
236	0x3d72c1af	0.059266742
237	0x3e64d05a	0.22345105
238	0xbde16e26	-0.11007337
239	0x3d801ff0	0.062560916
240	0xbe4db8b7	-0.20089994
241	0xbd5985e9	-0.053106222
242	0x3d4c191c	0.049828634
243	0x3d5ed64b	0.054403584
244	0x3da5d88e	0.08097945
245	0xbde7f1ce	-0.113254175
246	0x3dbcab11	0.09212316
247	0x3e185184	0.14874846
248	0xbe693604	-0.22774512
249	0x3dfe691c	0.12422392
250	0x3da8cb4a	0.08241899
251	0xbdbb4641	-0.09144259
252	0x3c9a5e3b	0.01884376
253	0x3df29dbf	0.11846494
254	0xbc07840a	-0.008271227
255	0xbe048a5a	-0.12943402

backbone.0.bias f4 [16]
0	0xb64b72f8	-3.0316278e-06
1	0xb7302f70	-1.0501462e-05
2	0x37e95a81	2.7817909e-05
3	0x380813b4	3.2443277e-05
4	0x37ea02f8	2.7896356e-05
5	0x37a7e09e	2.0012547e-05
6	0x377eb309	1.5181265e-05
7	0xb7b1905f	-2.1167272e-05
8	0xb7288a83	-1.004583e-05
9	0x3798cb5d	1.821451e-05
10	0xb792fbec	-1.7521867e-05
11	0x37c0aa79	2.2967566e-05
12	0xb78da199	-1.688376e-05
13	0xb738cae9	-1.1014498e-05
14	0x3883c6a0	6.2835636e-05
15	0xb5c75af2	-1.4853124e-06

backbone.1.weight f4 [16]
0	0x3f8054a2	1.0025828
1	0x3f6d9e33	0.9281952
2	0x3f7a8924	0.9786551
3	0x3f729d79	0.94771534
4	0x3f7fd632	0.9993621
5	0x3f74cb42	0.95622647
6	0x3f77ec38	0.96844816
7	0x3f70526d	0.9387577
8	0x3f6ff7ec	0.93737674
9	0x3f948b81	1.1605073
10	0x3f7c0161	0.98439604
11	0x3f7621d4	0.9614537
12	0x3f862665	1.0480467
13	0x3f6e4ff9	0.9309078
14	0x3f887a40	1.0662308
15	0x3f88c3e6	1.0684783

backbone.1.bias f4 [16]
0	0x3c871373	0.016488766
1	0xbd653df9	-0.055967305
2	0xbd2698e5	-0.040673155
3	0xbd1dddfd	-0.038541783
4	0x3cea0282	0.028565649
5	0x3c2b9055	0.010471423
6	0xbcc6d62d	-0.024272049
7	0xbd0e8e7f	-0.034803864
8	0xbd3231e7	-0.04350462
9	0x3cbd850d	0.023134733
10	0x3d476158	0.04867682
11	0x3cdaf49a	0.026727963
12	0x3e03e9bd	0.12882133
13	0xbd1b0cd1	-0.03785402
14	0xbce40e62	-0.02783889
15	0xbbb9378e	-0.0056523746

backbone.1.running_mean f4 [16]
0	0xbfdb20d7	-1.7119397
1	0x3fc3db37	1.5301274
2	0x3ded369f	0.11582684
3	0x3ebb02b3	0.36525497
4	0x3edcdc56	0.43136853
5	0xbe70691c	-0.23477596
6	0xbeddb088	-0.43298745
7	0xbf08882e	-0.53332794
8	0xbf372379	-0.715385
9	0xbc79d1e4	-0.015247796
10	0xbf3442b2	-0.7041427
11	0x3d4851a5	0.048905987
12	0xbe904a01	-0.2818146
13	0x3fcf759b	1.6207765
14	0xbb518168	-0.0031968001
15	0xbeaa5929	-0.3327115

backbone.1.running_var f4 [16]
0	0x40066212	2.0997357
1	0x3f83a637	1.02851
2	0x3d37b50b	0.04485039
3	0x3d973c0f	0.07384502
4	0x3dbf5797	0.09342878
5	0x3d94d33d	0.07266853
6	0x3d8fcbc5	0.07021288
7	0x3e1c410d	0.1525919
8	0x3edfd74c	0.43718946
9	0x3d4eb118	0.05046186
10	0x3eb16e7a	0.346546
11	0x3d480904	0.048836723
12	0x3d725676	0.059164487
13	0x3fc5286b	1.540296
14	0x3cc43243	0.023949748
15	0x3dde9d83	0.10869887

backbone.4.weight f4 [32, 16, 3, 3]
0	0xbb01eb0a	-0.0019823932
1	0xbc0a3a97	-0.0084368205
2	0x3d7bea83	0.061502945
3	0x3cf71056	0.030159157
4	0x3d4436ce	0.04790383
5	0xbe141e9a	-0.14464799
6	0x3e4b6f99	0.1986679
7	0xbc5ccebb	-0.013477023
8	0xbdd4c7c6	-0.10389666
9	0x3cacf4bf	0.021112798
10	0xbcf2c2fe	-0.029633995
11	0x3db14829	0.086563416
12	0xbcb71f0d	-0.022353673
13	0x3d83ba82	0.06432058
14	0xbd4f1198	-0.050553888
15	0xbdb7bfc0	-0.0897212
16	0xbd4562b6	-0.04818984
17	0x3dce0316	0.10059182
18	0x3d25d9ac	0.04049079
19	0xbd9bf8c7	-0.0761581
20	0xbdeb9434	-0.11502877
21	0x3d64e465	0.055881876
22	0x3c4f20a3	0.012642059
23	0x3dd50a58	0.104023635
24	0x3dca41b3	0.098758124
25	0x3e059866	0.13046417
26	0xbc66ff18	-0.014098905
27	0x3c8fc303	0.017549044
28	0xbd61f96f	-0.05516952
29	0x3d546c2a	0.051860966
30	0x3d344eed	0.044020582
31	0xbe00dc86	-0.12584123
32	0xbccbe8b0	-0.024891227
33	0x3e4fa9b4	0.2027958
34	0xbd50399a	-0.050836183
35	0x3b980ad6	0.0046399636
36	0xbd1ea72e	-0.038733654
37	0x3ce8ba9e	0.028409299
38	0xbc16e6c3	-0.009210291
39	0x3d9fac96	0.0779659
40	0xbd89450c	-0.06702623
41	0xbe1607e2	-0.14651445
42	0x3d9f417e	0.077761635
43	0x3d2bac01	0.041912083
44	0xbde13279	-0.10995955
45	0x3d6f735f	0.058459636
46	0xbce8df96	-0.028426927
47	0x3d105a2d	0.03524225
48	0xbd61d5a9	-0.055135403
49	0x3d12ace9	0.03580943
50	0xbbced0e5	-0.0063115233
51	0x3d069646	0.032858156
52	0xbcbc18f4	-0.022961117
53	0xbe2d2b96	-0.16911158
54	0xbc7eb961	-0.015547127
55	0x3d92ed5c	0.07174179
56	0x3d7ab56a	0.061208166
57	0xbcd84ca2	-0.026403729
58	0xbd8525a2	-0.065013185
59	0xbc3f315c	-0.011669483
60	0x3dc2f08d	0.09518538
61	0xbdea0fe2	-0.11428811
62	0xbdb6bd22	-0.08922793
63	0x3d05ef72	0.032699056
64	0xbe29e797	-0.16592251
65	0x3ca763b6	0.020433288
66	0xbc892869	-0.016742902
67	0xbdb0d4bf	-0.08634328
68	0xbd90d734	-0.07072297
69	0xbda93df5	-0.082637705
70	0xbdc7fe90	-0.09765351
71	0xbd086cdf	-0.033306953
72	0x3dd77d1d	0.1052191
73	0xbdb3c2ed	-0.087774135
74	0x3b08036a	0.0020753988
75	0x3c8818dc	0.016613416
76	0x3ce0bb97	0.0274332
77	0x3a14563c	0.0005658602
78	0x3d85bc5b	0.065300666
79	0x3c40b676	0.011762252
80	0xbd8e3ce5	-0.069452085
81	0x3d997b14	0.074941784
82	0x3d0ad5c6	0.033895276
83	0xbdc9a62c	-0.09846148
84	0xbe08accc	-0.13347167
85	0x3cb063fd	0.021532053
86	0x3c1334b0	0.00898473
87	0xbd3de3e7	-0.046359923
88	0x3d6f7e5a	0.058470108
89	0x3d49210f	0.049103793
90	0xbda44210	-0.08020413
91	0x3da3b480	0.07993412
92	0xbc872556	-0.016497295
93	0x3bf996a4	0.0076168347
94	0xbb95f755	-0.0045766034
95	0xbe0872cc	-0.13325042
96	0x3dc19d8e	0.09453879
97	0x38f34eaf	0.00011601799
98	0xbd5341c8	-0.051576406
99	0x3bd427a2	0.006474451
100	0x3d6f6a1d	0.058450807
101	0xbd21b2d8	-0.0394772
102	0xbda3ed14	-0.080042034
103	0xbde0595e	-0.109545454
104	0x3d526994	0.05137022
105	0x3d6e7a09	0.05822185
106	0xbe5f8ca0	-0.21830988
107	0x3dfeb997	0.12437742
108	0x3dbe1846	0.092819735
109	0x3e156462	0.14589074
110	0x3d5c9056	0.053848587
111	0x3e1ac0a7	0.15112554
112	0xbb374f81	-0.0027970972
113	0x3d89981d	0.067184664
114	0x3da2c93c	0.07948539
115	0x3d9a54a4	0.07535675
116	0xbd24515f	-0.040116664
117	0x3e384b40	0.17997456
118	0xbcfb7116	-0.030693572
119	0xbdb2d0d8	-0.0873124
120	0xbd5f7909	-0.054558787
121	0xbd1cf858	-0.038322777
122	0xbdc93868	-0.09825212
123	0x3e3118f1	0.1729467
124	0xbc9a57fe	-0.018840786
125	0x3d0e366a	0.034719862
126	0xbe24ff20	-0.16112947
127	0x3cf4ae8d	0.029868389
128	0xbb4e7fb0	-0.0031509213
129	0x3dc5ccd1	0.09658206
130	0x3e361ede	0.17785212
131	0x3dacd414	0.08438888
132	0x3d9aceef	0.07559001
133	0x3d01b35c	0.03166519
134	0xbe030c1e	-0.12797591
135	0xbd741639	-0.059591506
136	0x3d5b1497	0.053486433
137	0xbc6b995b	-0.0143798245
138	0x3da88f20	0.08230424
139	0x3d0735ce	0.033010297
140	0xbdbe4322	-0.09290148
141	0x3dd7b274	0.10532084
142	0x3cf1bfaa	0.029510338
143	0xbc9589b0	-0.018254131
144	0xbd3ad4ff	-0.045613285
145	0xbe0432d9	-0.12910022
146	0xb966e446	-0.00022019548
147	0x3d86bbbb	0.065787755
148	0x3de6c135	0.1126732
149	0x3d817f6e	0.063231334
150	0xbdfee541	-0.124460705
151	0x3e01334d	0.12617226
152	0x3d44dfdd	0.048065055
153	0x3c480ae8	0.0122096315
154	0xbdc19742	-0.09452678
155	0xbd2585bf	-0.040410753
156	0x3cc9d589	0.024637954
157	0x3d44eea8	0.048079163
158	0xbc58d6d2	-0.013234811
159	0x3deae729	0.114698716
160	0xbc8007eb	-0.015628776
161	0x3a004c7a	0.00048942084
162	0xbe09ab54	-0.13444263
163	0x3992ee9b	0.00028025065
164	0xbd23e4e3	-0.040013205
165	0xbd05bada	-0.0326489
166	0x3d62f430	0.055408657
167	0xbc826d40	-0.015921235
168	0xbd651b98	-0.05593452
169	0x3dbc9b20	0.09209275
170	0xbe135817	-0.14389072
171	0x3aa481ae	0.0012550855
172	0x3cb565dc	0.022143297
173	0xbd5f9b29	-0.05459133
174	0x3c67b037	0.014141134
175	0xbd7d380b	-0.061821025
176	0x3c366280	0.011131883
177	0x3d13a5cc	0.036046788
178	0xbd071aa0	-0.032984376
179	0xbda7fcef	-0.0820254
180	0x3dd56bea	0.104209736
181	0xbe1891b6	-0.14899334
182	0xbe23b17c	-0.15985674
183	0x3dafc3b3	0.085822485
184	0xbccd9922	-0.025097433
185	0x3bf104c0	0.0073553026
186	0x3dbba05e	0.09161447
187	0xbdbbcce3	-0.091699384
188	0xbceaa7b9	-0.02864443
189	0xbcfc8073	-0.030822968
190	0xbddfa434	-0.10919991
191	0xbc6c6a92	-0.014429705
192	0xbcf637aa	-0.03005584
193	0x3e0575df	0.13033246
194	0x3d18a126	0.037263058
195	0xbd7808a6	-0.060555123
196	0xbd5f5964	-0.05452861
197	0x3e10f875	0.14157279
198	0xbcd52fcc	-0.026023768
199	0xbdcf5168	-0.10122949
200	0xbe0e4e3c	-0.13897032
201	0x3e485597	0.195639
202	0xbc05f159	-0.008175218
203	0xbbd357ae	-0.006449661
204	0xbe0e0381	-0.13868524
205	0xbde81151	-0.11331428
206	0xbd9fdbfd	-0.07805631
207	0xbdc89f34	-0.097959906
208	0xbd620dce	-0.055188946
209	0x3c647e62	0.013946148
210	0xbd3ed6c7	-0.046591546
211	0x3d458548	0.04822281
212	0x3dafedf7	0.0859031
213	0x3d8ab4ff	0.067728035
214	0x3c43bfe4	0.011947606
215	0x3bf8121e	0.007570519
216	0x3c4d05c2	0.01251358
217	0x3c969fab	0.018386682
218	0x3bf8e9d4	0.007596234
219	0xbda8b73b	-0.082380734
220	0x3cf2aa38	0.029622182
221	0x3d90a85e	0.070633635
222	0xbd8d9873	-0.06913843
223	0xbd0345b0	-0.03204888
224	0x3e46a5aa	0.19399133
225	0xbcfefb00	-0.031125546
226	0x3e177855	0.14791997
227	0x3c7715d4	0.015080888
228	0xbd802c56	-0.062584564
229	0x3e4edc68	0.20201266
230	0x3c3eefdb	0.011653866
231	0xbd1ea61d	-0.038732637
232	0xbd709321	-0.058734063
233	0xba6f36aa	-0.0009125272
234	0xbdd0f57c	-0.102030724
235	0xbdb4cf34	-0.08828583
236	0xbb93ee89	-0.0045145196
237	0xbd5a97e7	-0.05336752
238	0xbbff1d8c	-0.0077855047
239	0xbcf0af16	-0.029380362
240	0xbe21995f	-0.15781163
241	0xbcda235e	-0.026628193
242	0x3cd4b722	0.02596623
243	0x3d00a655	0.031408627
244	0x3ca64f7b	0.020301571
245	0x3c4b8f97	0.012424371
246	0x3dc2df19	0.09515209
247	0xbd0c45cd	-0.034246255
248	0x3caae82d	0.020862663
249	0xbdab42ce	-0.08362351
250	0x3de8b2e8	0.11362249
251	0x3e139eab	0.14415996
252	0x3dc68010	0.09692395
253	0x3da6d0be	0.08145283
254	0x3d561535	0.05226632
255	0x3d62db4b	0.055384915

backbone.4.bias f4 [32]
0	0x37214b3a	9.613863e-06
1	0xb66ff3f2	-3.575577e-06
2	0x372d0c88	1.0314521e-05
3	0xb6e2f243	-6.763528e-06
4	0x338edc54	6.652468e-08
5	0x368f09ea	4.2628863e-06
6	0xb6199397	-2.2884685e-06
7	0xb5630be7	-8.458141e-07
8	0x3745236b	1.1750361e-05
9	0xb5658010	-8.5495503e-07
10	0xb6c800aa	-5.960542e-06
11	0xb74d1a72	-1.22251095e-05
12	0x36a35a49	4.868289e-06
13	0x3776c592	1.4708743e-05
14	0x37172d16	9.010799e-06
15	0xb73756a9	-1.0927827e-05
16	0xb62221fc	-2.4159663e-06
17	0xb7596dc5	-1.2959766e-05
18	0xb6a23182	-4.8337397e-06
19	0xb6c4b1b7	-5.861944e-06
20	0xb6a5b2c2	-4.9381933e-06
21	0x360273a9	1.9438833e-06
22	0xb64f674d	-3.0905533e-06
23	0xb1f8627c	-7.2289463e-09
24	0x364f864d	3.0923577e-06
25	0xb7a26478	-1.935869e-05
26	0xb690bfa5	-4.313845e-06
27	0x371bc110	9.283671e-06
28	0xb6f2bc0a	-7.2340526e-06
29	0xb6888b38	-4.069323e-06
30	0xb65a9973	-3.257385e-06
31	0x3727aac4	9.993735e-06

backbone.5.weight f4 [32]
0	0x3f7ab42f	0.9793119
1	0x3f7341f4	0.9502251
2	0x3f845ae5	1.0340239
3	0x3f7f86a9	0.9981485
4	0x3f86875f	1.0510062
5	0x3f71b636	0.94418657
6	0x3f7f5da4	0.9975226
7	0x3f8c2708	1.0949411
8	0x3f73ed45	0.9528392
9	0x3f81676a	1.0109684
10	0x3f6c280a	0.92248595
11	0x3f78170e	0.9691018
12	0x3f727da3	0.94722956
13	0x3f684da6	0.9074348
14	0x3f7f4d7c	0.99727607
15	0x3f6e63ef	0.93121237
16	0x3f6d8fb1	0.9279738
17	0x3f869ae4	1.0516019
18	0x3f8297f9	1.0202628
19	0x3f82c2a7	1.0215653
20	0x3f80a7de	1.0051229
21	0x3f775f10	0.9662943
22	0x3f70fa9d	0.94132406
23	0x3f802f39	1.0014411
24	0x3f8460a4	1.0341992
25	0x3f8b75b1	1.0895292
26	0x3f77d791	0.96813303
27	0x3f671f1b	0.9028184
28	0x3f7d1e73	0.98874587
29	0x3f78d560	0.97200584
30	0x3f7121ab	0.94192
31	0x3f838395	1.0274531

backbone.5.bias f4 [32]
0	0x3ce9ab01	0.028523924
1	0x3d01b8d2	0.0316704
2	0xbc9b2a0f	-0.018940954
3	0x3c21034e	0.009827448
4	0x3c536133	0.012901592
5	0xbd28aa78	-0.041178197
6	0xbc58f802	-0.013242723
7	0x3b6b091d	0.0035863586
8	0xbd188838	-0.037239283
9	0x3ddf9db4	0.10918751
10	0xbd886268	-0.066593945
11	0x3b691bb5	0.0035569493
12	0xbd8e0bf0	-0.06935871
13	0xbcb19ed2	-0.021682177
14	0x3db6e6b0	0.08930719
15	0xbd9a1515	-0.07523552
16	0x3c904b61	0.017614068
17	0x3d5f9a9f	0.054590818
18	0x3db65647	0.08903175
19	0xbbe97447	-0.007124457
20	0x3c161aab	0.009161632
21	0xbd9aa045	-0.075501
22	0x3cb65f28	0.02226217
23	0xbda0fafd	-0.07860372
24	0xbd45bab2	-0.04827375
25	0x3d2a55db	0.041585784
26	0xbceeb2f8	-0.029138073
27	0xbdf4ff0e	-0.1196271
28	0x3c9d5fe9	0.019210773
29	0x3c9ccd19	0.019140767
30	0xbd09eb42	-0.033671625
31	0x3d888757	0.06666439

backbone.5.running_mean f4 [32]
0	0x3e0a2d03	0.13493733
1	0xbe06c947	-0.13162719
2	0xbd4bc2b6	-0.049746238
3	0x3e44ab81	0.19206049
4	0xbe957ba5	-0.29195896
5	0xbe844654	-0.25834906
6	0xbc831fd0	-0.01600638
7	0x3b8cad46	0.0042931167
8	0x3e0e4d52	0.13896683
9	0xbfc428d2	-1.5324957
10	0x3e00f459	0.12593211
11	0x3f1e83bf	0.6191978
12	0xbd77e6e6	-0.060522936
13	0xbe3bf497	-0.18355022
14	0xbf2c19b3	-0.67226714
15	0xbd7179cf	-0.058954056
16	0xbf0d915c	-0.55299926
17	0xbe92042f	-0.28518817
18	0x3d883c4b	0.06652125
19	0xbe959c77	-0.29220936
20	0xbeb762ec	-0.3581766
21	0x3f4d7220	0.80252266
22	0xbf2d77fd	-0.6776121
23	0x3f82f4aa	1.0230916
24	0xbe13519c	-0.143866
25	0xbe22257e	-0.15834615
26	0x3cfb2193	0.030655658
27	0xbf17645b	-0.59137505
28	0xbecce3a1	-0.40017417
29	0xbf44610a	-0.7671057
30	0xbb810d5c	-0.00393836
31	0xbee39607	-0.444504

backbone.5.running_var f4 [32]
0	0x3f3992f4	0.7248986
1	0x3f43e17f	0.76515955
2	0x3e913278	0.28358817
3	0x3faa4480	1.3302155
4	0x3f4c9daf	0.79928106
5	0x3f115552	0.56770813
6	0x3f853946	1.0408103
7	0x3f1dc40d	0.61627275
8	0x3f3a52ce	0.727826
9	0x40553760	3.3315048
10	0x3f180395	0.59380466
11	0x3fd38a79	1.6526634
12	0x3f17ffb7	0.59374565
13	0x3ebbed62	0.36704546
14	0x3f85d3be	1.0455244
15	0x3f31ca62	0.69449437
16	0x3f26a7ea	0.65099967
17	0x3f09cd45	0.5382884
18	0x3f15b52e	0.58479583
19	0x3f06e071	0.5268622
20	0x3f1327ac	0.5748241
21	0x3f5bd537	0.85872215
22	0x3fb49cd6	1.4110363
23	0x3f8504f7	1.039214
24	0x3f0af200	0.5427551
25	0x3f125831	0.5716582
26	0x3f171c8c	0.59027934
27	0x3f88c56d	1.068525
28	0x3f67a292	0.9048244
29	0x3f6c2e86	0.9225849
30	0x3f0e02fd	0.5547331
31	0x3f91ff4a	1.1406033

backbone.8.weight f4 [64, 32, 3, 3]
0	0x3d99d323	0.07510974
1	0xbd5e17e6	-0.05422201
2	0xbc035867	-0.008016682
3	0xbb1e37e0	-0.002414219
4	0xbcc960b2	-0.02458224
5	0x3c8a9c0a	0.016920108
6	0xbd448e65	-0.04798736
7	0xbd67a912	-0.056557722
8	0x3df8e169	0.121523686
9	0x3d590206	0.052980445
10	0x3dd47aa5	0.10374955
11	0x3d9d1500	0.07670021
12	0xbbb5c06a	-0.005546619
13	0x3d37252e	0.04471319
14	0x3dae1ef7	0.08502
15	0xbd2e404b	-0.042541783
16	0x3c0d9cc5	0.008643334
17	0xbd99c913	-0.07509055
18	0xbd86534e	-0.06558858
19	0xbd3b766c	-0.045767233
20	0x3cbdc250	0.023163944
21	0x3dee4dc5	0.11635927
22	0x3d54c651	0.05194694
23	0x3c0a4976	0.008440366
24	0x3da964a0	0.08271146
25	0x3cffc53f	0.031221984
26	0x3d19d601	0.037557606
27	0x3e294db8	0.16533554
28	0x3bb92ead	0.005651316
29	0xbc86d8d8	-0.016460821
30	0x3d370d30	0.04469031
31	0x3cdd918f	0.027046947
32	0x39bd15ea	0.00036065216
33	0xbd5e0801	-0.054206852
34	0x3d0a02c2	0.033694036
35	0xbd1a2390	-0.03763157
36	0xbd20c7bc	-0.03925298
37	0x3cc5b18d	0.024132514
38	0xbc54f831	-0.012998627
39	0xbdbb4505	-0.09144024
40	0x3daddd6d	0.08489499
41	0xbd3afca1	-0.045651082
42	0xbd9cc8c9	-0.07655484
43	0xbd24879b	-0.040168386
44	0x3d2fe10c	0.04293923
45	0xbce6052a	-0.028078634
46	0x3db41b5d	0.08794282
47	0x3da1e4c7	0.07904964
48	0xbd03da1b	-0.032190423
49	0xbcbb2d67	-0.022848798
50	0x3d51828c	0.05114989
51	0x3c7fda2c	0.015615981
52	0x3cffa73c	0.031207673
53	0xbca757b5	-0.020427564
54	0xbd6b7208	-0.057481796
55	0x3c2e0080	0.010620236
56	0xbd2b1e68	-0.041777045
57	0xbd65eb07	-0.056132343
58	0x3ddf36e1	0.10899139
59	0xbcb4939c	-0.022043042
60	0xbcff46d8	-0.03116171
61	0xba6ef0ab	-0.0009114842
62	0x3dac16ab	0.08402761
63	0xbce2fddd	-0.027708942
64	0x3c8ef760	0.017451942
65	0xbc036765	-0.008020257
66	0xbd67137a	-0.05641506
67	0x3dad1cd0	0.08452761
68	0x3d001236	0.031267367
69	0xbc02dfaa	-0.007987896
70	0x3d02b323	0.03190912
71	0x3d714ab4	0.058909133
72	0xbd4313b3	-0.04762621
73	0x3d30dbc8	0.04317835
74	0xbd404cda	-0.04694829
75	0xba887a3e	-0.0010412408
76	0x3d487669	0.04894105
77	0xbd847eaf	-0.064694755
78	0x3d8b5148	0.068026125
79	0x3d029be5	0.031886954
80	0xbd028106	-0.031861328
81	0x3c95b05e	0.018272575
82	0x3c404ed3	0.011737543
83	0x3c04bdb7	0.008101872
84	0xbcf14415	-0.02945141
85	0xbdb8abcd	-0.090171434
86	0xbc000abf	-0.007815062
87	0x3c3343ca	0.010941455
88	0xbd13451d	-0.035954583
89	0x3ccd18d5	0.025036255
90	0xbd3e7f1c	-0.04650794
91	0x3d0013ba	0.031268813
92	0x3c54d37b	0.012989874
93	0xbda7d03d	-0.08194015
94	0x3c88974a	0.016673703
95	0x3da694b9	0.08133835
96	0xbd2ccef2	-0.042189546
97	0xbd27b978	-0.04094836
98	0xbd0a5e7b	-0.03378151
99	0xbe0548de	-0.13016078
100	0xbd5bc56c	-0.053655073
101	0x3d15330a	0.036425628
102	0xbdaf97a1	-0.08573843
103	0x3c869306	0.016427528
104	0xbc8ef2e6	-0.017449807
105	0xbe175576	-0.14778695
106	0xbc8d4799	-0.017246054
107	0xbd9caa82	-0.07649709
108	0x3cbbce13	0.022925412
109	0xbc3a8c5a	-0.0113860015
110	0xbd5d22b2	-0.053988166
111	0xbc117bec	-0.008879643
112	0x3ac82b0f	0.0015271622
113	0xbd5209a6	-0.051278733
114	0xbb3b7855	-0.002860566
115	0xbd86c3cb	-0.06580313
116	0xbd08c31a	-0.03338919
117	0x3d4c8e72	0.049940534
118	0x3cefa1fb	0.029252043
119	0xbd7bb209	-0.061449084
120	0xbc1dca75	-0.009630789
121	0xbd6ab07f	-0.057297226
122	0xbd8c452d	-0.06849132
123	0xbd0f952c	-0.03505437
124	0x3c8c3af6	0.017117959
125	0xbd70654e	-0.05869036
126	0xbd491767	-0.049094584
127	0x3a8585c8	0.0010186965
128	0xbd27dec2	-0.040983923
129	0xbced07d9	-0.028934406
130	0x3c8565d8	0.016283914
131	0xbd6ca592	-0.057775088
132	0x3d0b5a49	0.03402165
133	0xbdb9fc61	-0.090813406
134	0xbd031289	-0.0320001
135	0xbe0788a5	-0.1323572
136	0xbce27880	-0.02764535
137	0x3cb51ec3	0.022109395
138	0xbc81b1c0	-0.015831828
139	0x3dd913c2	0.10599472
140	0x3d1ab985	0.03777458
141	0xbc235c0e	-0.009970678
142	0xbdadeedf	-0.08492827
143	0x3d318662	0.043341048
144	0xbb801d63	-0.003909753
145	0xbd039e91	-0.032133643
146	0xbc1a79cd	-0.009428454
147	0xbd7d14b1	-0.06178731
148	0x3d4f39e2	0.05059231
149	0xbcbb23c3	-0.022844201
150	0xbd638ea8	-0.05555597
151	0x3da25042	0.07925464
152	0xbdee9d34	-0.11651078
153	0xbd64f738	-0.05589983
154	0x3d486471	0.048923913
155	0x3d48d1d7	0.049028244
156	0xbd588c96	-0.05286845
157	0xbde39991	-0.11113275
158	0xbdcd8b71	-0.10036362
159	0xbc0b4c3c	-0.008502062
160	0xbe13d09b	-0.14435045
161	0xbd47e4b8	-0.048802108
162	0xbcb3b459	-0.021936582
163	0x3df7188f	0.12065231
164	0x3d396279	0.045259926
165	0x3d3f1497	0.046650495
166	0xbcd7b9b9	-0.026333677
167	0x3d96b46f	0.07358634
168	0xbd794fbd	-0.06086706
169	0xbd433436	-0.047657214
170	0x3d6ba3d4	0.057529286
171	0xbc3735c0	-0.011182249
172	0xbce2dd05	-0.027693281
173	0x3c796e2d	0.015224022
174	0x3dc30df0	0.09524143
175	0x3c95b6a4	0.018275566
176	0x3dbbcfff	0.091705315
177	0x3c0eab9d	0.008707908
178	0xbc303439	-0.010754638
179	0xbb4d1430	-0.003129255
180	0x3d0f84a1	0.035038594
181	0xbd882510	-0.06647694
182	0x3bae9f5d	0.005329056
183	0x3dcc2898	0.0996868
184	0x3e2b86bd	0.16750617
185	0x3d0f1093	0.034927916
186	0x3d6be833	0.05759449
187	0xbc583268	-0.013195612
188	0x398cde0b	0.00026868316
189	0x3e003e2e	0.1252372
190	0xbcaa20e4	-0.020767637
191	0xbc665a69	-0.014059641
192	0xbd3af49e	-0.04564344
193	0xbd0e70a4	-0.03477539
194	0xbd005756	-0.03133329
195	0xbc07045a	-0.008240784
196	0xbd382798	-0.044959635
197	0xbd0c5937	-0.03426477
198	0xbca7b724	-0.02047307
199	0x3db21879	0.08696074
200	0xbca99940	-0.020702958
201	0xbc9a1312	-0.018807922
202	0xbbd310cd	-0.006441212
203	0xbc026e0e	-0.007960809
204	0x3c8d6519	0.017260121
205	0x3d01f671	0.031729165
206	0xbcc360bd	-0.02384984
207	0x3e0753d0	0.13215566
208	0x3b6c6811	0.003607277
209	0x3d17e951	0.037087742
210	0x3d9f4f4b	0.07778796
211	0xbcdb5eb5	-0.026778558
212	0x3c26921f	0.010166674
213	0xbd185a1f	-0.03719532
214	0xbc2a4508	-0.010392435
215	0xbdb80948	-0.08986145
216	0x3dce6c08	0.10079199
217	0xbd901c3d	-0.07036636
218	0xbd239750	-0.039939225
219	0x3cbe5b13	0.023236787
220	0xbb95115c	-0.0045491885
221	0x3c4a930c	0.01236416
222	0xbd3e16a1	-0.0464083
223	0x3df97a08	0.12181479
224	0xbd039ab2	-0.03212995
225	0xbc10cda0	-0.008838087
226	0x3e107ec8	0.14110863
227	0xbd21a51c	-0.0394641
228	0x3cf5e20a	0.03001501
229	0x3d5967c3	0.05307747
230	0xbe03b93b	-0.12863629
231	0x3d94ea72	0.072712794
232	0x3d34cdf2	0.044141717
233	0x3dc36919	0.0954153
234	0x3d023ad2	0.031794377
235	0xbafc7e5e	-0.0019263735
236	0x3d3bf1b0	0.045884788
237	0xbd81da05	-0.06340412
238	0x3d961acb	0.07329329
239	0x3d10f1dd	0.03538691
240	0xbd528a39	-0.05140135
241	0xbd2d3812	-0.0422898
242	0xbdec6fe9	-0.11544783
243	0xbcdb2499	-0.02675085
244	0x3c7d6b16	0.015467426
245	0x3dc7abd0	0.097495675
246	0x3d8c3f34	0.068479925
247	0x3be0d566	0.0068613766
248	0xbd5432da	-0.05180631
249	0xbd85b459	-0.06528539
250	0xbdbf8078	-0.09350675
251	0x3d82214c	0.06354007
252	0x3d84ed53	0.064905785
253	0x3d5a2c66	0.053264998
254	0x3abfa6e9	0.0014621887
255	0x3df3b2c9	0.11899335

backbone.8.bias f4 [64]
0	0x353e04f5	7.078773e-07
1	0xb4c78f2d	-3.7170813e-07
2	0x369279f8	4.365338e-06
3	0x372df020	1.0367512e-05
4	0x3784e93c	1.5844234e-05
5	0xb6317a87	-2.6446376e-06
6	0x35a2c4db	1.2127233e-06
7	0xb560c1aa	-8.372832e-07
8	0x3587b4b2	1.0110873e-06
9	0x34b86148	3.4343452e-07
10	0xb5b60c68	-1.3563667e-06
11	0xb5f57a74	-1.8289561e-06
12	0xb7363657	-1.0860697e-05
13	0x3729a953	1.0112609e-05
14	0x34c0dfe7	3.5925697e-07
15	0xb6102129	-2.1476974e-06
16	0x3690a6c7	4.31095e-06
17	0x36e456b5	6.8050235e-06
18	0xb75d09fc	-1.3174951e-05
19	0xb4388902	-1.7186179e-07
20	0xb739d0d4	-1.1075481e-05
21	0xb63335d1	-2.6704404e-06
22	0xb5aeed6c	-1.3033109e-06
23	0x36821254	3.8764356e-06
24	0x362feaaa	2.6213625e-06
25	0x36162774	2.2374707e-06
26	0xb6d08580	-6.2144245e-06
27	0xb60e30c1	-2.1188027e-06
28	0x348a4e0c	2.576129e-07
29	0x363a61fa	2.777319e-06
30	0x350c35c6	5.2232315e-07
31	0xb68c62af	-4.1838134e-06
32	0xb5b51424	-1.3491413e-06
33	0xb47b1374	-2.3383274e-07
34	0x371098fa	8.6186865e-06
35	0xb5dce9ff	-1.6459379e-06
36	0x34bc841a	3.5113845e-07
37	0x339e3c08	7.368368e-08
38	0x35d339b6	1.5737521e-06
39	0x36842816	3.938573e-06
40	0x3682e2be	3.900698e-06
41	0xb6308d3a	-2.6308248e-06
42	0xb4d6d47e	-4.0015215e-07
43	0x36db3f01	6.534043e-06
44	0x36896f81	4.095899e-06
45	0xb79154d0	-1.732484e-05
46	0x339e9de1	7.386166e-08
47	0xb58b5036	-1.0379651e-06
48	0x35b06c33	1.3144512e-06
49	0x349cfa0d	2.92392e-07
50	0xb563e2de	-8.4894225e-07
51	0xb56f2bfc	-8.9098444e-07
52	0x346643a4	2.1445027e-07
53	0xb642941e	-2.8994468e-06
54	0xb4f82f57	-4.6228044e-07
55	0xb1134bf1	-2.1434483e-09
56	0xb5d3b458	-1.5773212e-06
57	0xb6ae1ec7	-5.189187e-06
58	0xb39b4b20	-7.231415e-08
59	0x3610c6dc	2.1573424e-06
60	0x34dcd248	4.1131193e-07
61	0xb65265f3	-3.135178e-06
62	0xb3d4989a	-9.899777e-08
63	0x36f148dc	7.1908416e-06

backbone.9.weight f4 [64]
0	0x3f6ac7da	0.917112
1	0x3f797ba5	0.9745429
2	0x3f82a375	1.0206133
3	0x3f82503a	1.0180733
4	0x3f80644c	1.0030608
5	0x3f7bba91	0.9833155
6	0x3f80a53f	1.0050429
7	0x3f6f1673	0.9339363
8	0x3f613915	0.87977725
9	0x3f858775	1.0431963
10	0x3f69888e	0.9122399
11	0x3f7a7e33	0.97848815
12	0x3f7e3819	0.9930435
13	0x3f7ce9b0	0.9879408
14	0x3f75c9e7	0.96011204
15	0x3f64ccb4	0.8937485
16	0x3f79166a	0.97299826
17	0x3f8405f6	1.0314319
18	0x3f7a962a	0.9788538
19	0x3f73b081	0.951912
20	0x3f830cb1	1.0238248
21	0x3f7ce6af	0.98789495
22	0x3f84662a	1.0343678
23	0x3f73bc64	0.95209336
24	0x3f740117	0.9531416
25	0x3f616685	0.8804706
26	0x3f83eb2c	1.0306144
27	0x3f79d380	0.9758835
28	0x3f7b09d4	0.9806187
29	0x3f77426a	0.96585715
30	0x3f85ab9a	1.0442994
31	0x3f83a29b	1.0283998
32	0x3f81d50a	1.0143139
33	0x3f861d26	1.0477645
34	0x3f7b4c4e	0.98163307
35	0x3f72c61c	0.9483354
36	0x3f698f77	0.91234535
37	0x3f6fdc43	0.9369547
38	0x3f5ec92e	0.87025726
39	0x3f74caf2	0.9562217
40	0x3f7d4139	0.98927647
41	0x3f65770d	0.8963478
42	0x3f7cb963	0.9872038
43	0x3f788a78	0.97086287
44	0x3f7dd4a3	0.9915258
45	0x3f8aae9f	1.083454
46	0x3f7bddd7	0.98385376
47	0x3f5d1a95	0.86368686
48	0x3f82628b	1.0186323
49	0x3f722552	0.94588196
50	0x3f80c958	1.0061445
51	0x3f726971	0.9469214
52	0x3f6eb2c4	0.93241525
53	0x3f6ece13	0.93283194
54	0x3f88eaf5	1.0696703
55	0x3f6fbffe	0.9365233
56	0x3f695517	0.9114546
57	0x3f82f17e	1.0229948
58	0x3f7fea69	0.99967057
59	0x3f8a2d0e	1.0795
60	0x3f699b34	0.91252446
61	0x3f82d7ab	1.0222067
62	0x3f72a464	0.9478209
63	0x3f7dcc13	0.9913952

backbone.9.bias f4 [64]
0	0xbd9b4acb	-0.07582625
1	0xbd821e17	-0.063533954
2	0xbc80e753	-0.015735304
3	0xbca14b36	-0.019689184
4	0xbd1bb7f8	-0.038017243
5	0xbb2ea8c4	-0.0026650885
6	0xbd8bd876	-0.06828396
7	0xbd350b60	-0.0442003
8	0xbda5ecfd	-0.081018426
9	0xbdded220	-0.10879922
10	0xbdec384f	-0.115341775
11	0xbe0c670b	-0.13711183
12	0xbda7efa5	-0.082000054
13	0xbd87cea9	-0.06631214
14	0xbd0d5b35	-0.03451081
15	0xbe06d9f8	-0.13169086
16	0xbdb46c44	-0.088097125
17	0xbd6009e7	-0.054696944
18	0xbd914bbb	-0.070945226
19	0xbe3d061f	-0.18459366
20	0xbdb0cef6	-0.08633225
21	0xbcb8bf11	-0.022552045
22	0x3c8c7d30	0.017149538
23	0xbda65e49	-0.08123452
24	0xbd85403a	-0.06506391
25	0xbd868f9e	-0.065703616
26	0xbd886ea3	-0.06661727
27	0xba8b8bba	-0.00106465
28	0xbd8e0285	-0.06934074
29	0xbd368c39	-0.04456732
30	0xbd8fc5fb	-0.07020184
31	0xbcd47750	-0.025935799
32	0xbda614fe	-0.08109473
33	0xbdf863bc	-0.12128398
34	0xbd6904a6	-0.0568892
35	0xbd850397	-0.06494825
36	0xbcd100d2	-0.025513086
37	0xbd1b0abf	-0.037852045
38	0xbe0a14c3	-0.13484482
39	0xbd0ebf7f	-0.034850594
40	0xbd9d8225	-0.07690839
41	0xbdc2e55f	-0.09516405
42	0x3bf3ac29	0.0074362946
43	0xbdf53ad2	-0.1197411
44	0xbd8c0200	-0.06836319
45	0xbdbef3d1	-0.09323848
46	0xbdf826be	-0.121167645
47	0xbdb2cd03	-0.08730509
48	0xbd57519d	-0.052568067
49	0xbddb4619	-0.107067294
50	0xbde3f26c	-0.11130223
51	0xbe088cf7	-0.13335024
52	0xbbc93812	-0.0061407173
53	0xbde0c7a7	-0.10975581
54	0xbd933e40	-0.071896076
55	0xbdb5ab17	-0.088705234
56	0xbe00a640	-0.1256342
57	0xbd4d456c	-0.050115034
58	0xbd769b43	-0.060206663
59	0xbcfb0ae4	-0.030644841
60	0xbdf7294b	-0.12068423
61	0xbd2ff44c	-0.04295759
62	0xbd9db22e	-0.07700001
63	0xbde53776	-0.11192219

backbone.9.running_mean f4 [64]
0	0x3e9a94e1	0.3019171
1	0xbf1fc3be	-0.62408054
2	0x3e7df154	0.2479909
3	0xbf6a39a6	-0.91494215
4	0xbed4167b	-0.414234
5	0xbf925de0	-1.1434898
6	0xbf247e7a	-0.6425549
7	0x3f9aff7c	1.2109218
8	0x3ed51195	0.41614977
9	0xbf89a1ee	-1.0752542
10	0xbf3b1ea3	-0.7309362
11	0x3fdf5a47	1.7449425
12	0x3f255ca5	0.6459449
13	0x3c2bed97	0.010493658
14	0xbf0184a9	-0.5059305
15	0x3f83b76f	1.0290354
16	0xbf4ce0ec	-0.80030704
17	0xbeefa6da	-0.46806985
18	0x3e15ebd3	0.14640741
19	0xbffb9d7f	-1.9657439
20	0xbef89834	-0.48553622
21	0xbea17559	-0.31534842
22	0xbeffff1a	-0.49999315
23	0xbeaa90af	-0.3331351
24	0xbf197054	-0.59937024
25	0x3d5a11d8	0.053239673
26	0xbe2126b5	-0.15737422
27	0xbf957a1f	-1.1677893
28	0x3cf80f6f	0.030280797
29	0xbf008904	-0.5020907
30	0xbebb41d9	-0.36573675
31	0xbe688689	-0.22707571
32	0x3f5cfc9a	0.8632294
33	0xbe5ef018	-0.21771276
34	0xbf1a52d0	-0.6028261
35	0xbd58573f	-0.05281758
36	0xbf84f40f	-1.0386981
37	0xbf75fc0b	-0.9608771
38	0xbf33c592	-0.70223343
39	0xbe9abb32	-0.30220944
40	0xbeff52a4	-0.49867737
41	0xbe0864d6	-0.13319716
42	0xbf5eb87d	-0.87000257
43	0x3f0b4427	0.5440087
44	0xbe2bcfb0	-0.16778445
45	0xbe2fd5a4	-0.17171341
46	0x3eecb25a	0.4622982
47	0xbef4d9ac	-0.4782232
48	0xbed84e92	-0.42247444
49	0xbe7507dd	-0.23928781
50	0xbf32d004	-0.69848657
51	0xbef5eef0	-0.48033857
52	0xc005a884	-2.0884104
53	0xbf79f189	-0.9763418
54	0xbe0a2cb3	-0.13493614
55	0x3f66f845	0.9022258
56	0x3f0c7630	0.5486784
57	0xbf59eed3	-0.8513004
58	0xbe21492e	-0.15750572
59	0xbe9e0c09	-0.30868557
60	0x3d0eb94e	0.03484469
61	0xbeb7fd39	-0.3593538
62	0x3ed1d74c	0.4098457
63	0xbee8154b	-0.45328745

backbone.9.running_var f4 [64]
0	0x3f82756a	1.0192082
1	0x3f4cfdfc	0.8007505
2	0x3fd16176	1.6357868
3	0x3f26ec88	0.6520467
4	0x3f3ea6b2	0.74473107
5	0x4007231d	2.1115181
6	0x4006b143	2.1045692
7	0x4058c813	3.3872116
8	0x3fae4c15	1.3616968
9	0x3f86b58f	1.0524157
10	0x3ed8f32b	0.42373022
11	0x3fb3e13b	1.405311
12	0x3f796881	0.97425085
13	0x3eceb334	0.40371096
14	0x3f9c6a48	1.2219934
15	0x3febce0f	1.8422259
16	0x3f24c61d	0.64364797
17	0x3f938c8d	1.1527268
18	0x3f06251e	0.52400386
19	0x3f3a3bbf	0.72747415
20	0x3fd11f46	1.6337669
21	0x3eee35c8	0.46525407
22	0x3f901138	1.1255255
23	0x3f55f57a	0.8357769
24	0x3f730348	0.9492688
25	0x3f1f965c	0.62338805
26	0x3f284552	0.65730774
27	0x3f636fdb	0.8884255
28	0x3f5787d5	0.8419164
29	0x3f85fc50	1.0467625
30	0x3f77055e	0.96492565
31	0x3f4094e5	0.75227195
32	0x3f9631cd	1.1733948
33	0x3fbbe158	1.4678144
34	0x3f32e318	0.6987777
35	0x3f570bd7	0.8400244
36	0x4027079e	2.60984
37	0x3f99f5d2	1.2028143
38	0x3f9fb441	1.2476884
39	0x3f757c1b	0.95892495
40	0x3f8c3efb	1.095672
41	0x3f8049a7	1.0022477
42	0x401d4314	2.4572191
43	0x3f6f8315	0.9355939
44	0x3f914451	1.1348974
45	0x3f4968fa	0.78675807
46	0x3fccfc8e	1.6014574
47	0x3f9a3754	1.2048135
48	0x3f9ed0ab	1.240743
49	0x3f618453	0.88092536
50	0x3f7f8cba	0.99824107
51	0x3f1876e7	0.5955643
52	0x408b41d5	4.351786
53	0x3efc5a92	0.4928785
54	0x3febd88f	1.8425463
55	0x3ff87c49	1.9412929
56	0x3f2fffce	0.687497
57	0x3fe4b868	1.7868776
58	0x3f56e2b1	0.83939654
59	0x401f0d06	2.48517
60	0x3fe65010	1.7993183
61	0x3ec93798	0.39300227
62	0x3fdf3f65	1.7441221
63	0x3f63d520	0.8899708

backbone.12.weight f4 [128, 64, 3, 3]
0	0xbd4e3a10	-0.05034834
1	0xbc620e52	-0.01379736
2	0x3d1441a8	0.036195427
3	0x3cde59e5	0.027142474
4	0x3b156703	0.0022796995
5	0x3d026284	0.031832233
6	0xbcf2bc84	-0.029630907
7	0x3cb13f49	0.021636622
8	0x3ac7c1a3	0.0015240203
9	0xbd4d52b1	-0.05012769
10	0x3d394926	0.045235775
11	0x3dac18d0	0.0840317
12	0xbbedfe87	-0.007263008
13	0x3d074c7c	0.033031926
14	0x3aa26d84	0.0012392257
15	0x3d304566	0.043034934
16	0x3d15aa11	0.03653914
17	0xbd50e3d8	-0.05099854
18	0x3c644ee1	0.013934822
19	0xbc67a44e	-0.014138294
20	0xbd0c9417	-0.034320917
21	0x3bfe8f34	0.007768536
22	0xbc8d2038	-0.017227277
23	0x3d6c9a27	0.0577642
24	0x3cc8bae2	0.024503175
25	0xbc88d700	-0.016704082
26	0xbc74a611	-0.014932171
27	0xbc571f95	-0.013130088
28	0x3c9baab2	0.019002292
29	0xbd79724f	-0.06090003
30	0xbd53897d	-0.05164479
31	0x3d07052f	0.032963928
32	0xbd3b04e2	-0.045658953
33	0xbd295785	-0.04134323
34	0x3cc109ba	0.023564208
35	0xbdbdbe08	-0.09264761
36	0xbdc7e919	-0.09761257
37	0x3d263801	0.040580753
38	0x3a1bd20c	0.000594408
39	0xbc179f28	-0.009254254
40	0x3cf57ba5	0.029966185
41	0xbd5e9f47	-0.054351117
42	0xbc182a52	-0.009287434
43	0x3ada8840	0.0016672686
44	0xbcd965e6	-0.026537847
45	0xbacdc4e1	-0.0015698933
46	0x3d543693	0.05180986
47	0xbd4de69c	-0.050268754
48	0xbc207911	-0.0097944895
49	0x3cb30570	0.021853179
50	0xbae9afff	-0.001782894
51	0xbc83458a	-0.01602437
52	0xbcbf342e	-0.02334031
53	0xbd377b8d	-0.04479556
54	0xbdd96c9f	-0.10616421
55	0xbdca5d07	-0.09881025
56	0xbbbaedcd	-0.0057046176
57	0xbd391d47	-0.045193937
58	0xbd4c515a	-0.04988227
59	0xbc1a9e67	-0.00943718
60	0xbb4e9d3e	-0.003152683
61	0xbd0d2fda	-0.034469463
62	0x3d497bb3	0.049190234
63	0x3d270e76	0.040785275
64	0xbd12235a	-0.035678245
65	0xbd5d4a64	-0.054026023
66	0x3cac099a	0.021000672
67	0xbb7075f1	-0.0036691392
68	0xbcd53052	-0.026024017
69	0x3d7be0ee	0.061493807
70	0xbd419ce9	-0.04726878
71	0x3c1451e2	0.0090527255
72	0xbc3018ae	-0.010748072
73	0xbcf21fa5	-0.029556105
74	0xbd2ba8a9	-0.041908894
75	0x3c6ebd4e	0.014571501
76	0xbb01f2a4	-0.0019828463
77	0xbaae771e	-0.0013310646
78	0x3d39632c	0.045260593
79	0xbcd18eee	-0.02558085
80	0xbcf30487	-0.029665245
81	0x3b51f101	0.0032034519
82	0xbb8ca6ae	-0.0042923307
83	0x3cf29a44	0.029614575
84	0x3d407668	0.04698792
85	0x3c8d1b5e	0.017224964
86	0x3cec4a4d	0.028844023
87	0x3d6103ed	0.054935385
88	0x3cc4fe87	0.02404715
89	0xbb9e9fa8	-0.00484081
90	0x3d048a59	0.0323585
91	0x3d3db87a	0.04631851
92	0xbd708ce3	-0.05872811
93	0x3c596032	0.013267564
94	0xbc9dbd58	-0.019255325
95	0xbd240046	-0.040039323
96	0xbca19d39	-0.01972829
97	0xbbbae3a2	-0.0057034055
98	0xbd1dc8c8	-0.038521558
99	0x3db010e7	0.08596974
100	0xbd11ccad	-0.035595585
101	0xbd20630e	-0.039156966
102	0x3d9d7f9e	0.07690357
103	0x3db07c5d	0.086174704
104	0x3d9faaa1	0.07796217
105	0xbbfc0d00	-0.0076919794
106	0xbc5f681c	-0.013635661
107	0x3a9dd86e	0.001204265
108	0x3c11dd5f	0.008902877
109	0xbbb50614	-0.005524406
110	0x3cdb249d	0.026750857
111	0xbd0542c6	-0.032534383
112	0xbca451ab	-0.020058474
113	0xbd1d81d5	-0.038453896
114	0x3d04f088	0.03245595
115	0xbd295673	-0.04134221
116	0xbd2c1586	-0.042012714
117	0xbd242b88	-0.040080577
118	0x3d57cd10	0.052685797
119	0xbddd4c09	-0.10805518
120	0xbd027878	-0.03185317
121	0xbc32b527	-0.010907448
122	0x3b830b1f	0.0039991285
123	0xbd1d5fa0	-0.038421273
124	0xbc7d12e2	-0.015446397
125	0xbd1187dc	-0.035529956
126	0x3c99a6d4	0.018756308
127	0x3d769cde	0.060208194
128	0x3b592768	0.003313506
129	0xbca80461	-0.0205099
130	0x3d76f309	0.06029037
131	0xbc89e11b	-0.016830971
132	0x3d1f70b5	0.038925845
133	0x3d6f898c	0.058480784
134	0xbd48cf7a	-0.04902599
135	0x3d0fc15e	0.03509652
136	0xb9bed8c6	-0.00036401133
137	0x3b375834	0.0027976157
138	0x3c4abf37	0.012374691
139	0x3c57e5b2	0.013177322
140	0x3d43d83a	0.04781363
141	0xbc56f23b	-0.013119276
142	0xbb77bfad	-0.0037803457
143	0x3c0a30c4	0.008434478
144	0xbcf1dd39	-0.029524432
145	0x3cc6562c	0.024211012
146	0x3d5e6f3b	0.054305296
147	0x3c94b227	0.018151356
148	0xbd26f4a3	-0.040760648
149	0xbc98b470	-0.018640727
150	0x3c8f053f	0.017458556
151	0x3ca27495	0.019830981
152	0xbd184e7b	-0.03718422
153	0xbba9f9ac	-0.005187234
154	0x3c87e0ab	0.016586622
155	0x3cb17f41	0.021667125
156	0x3d518a07	0.051157024
157	0xbc3d1dfd	-0.011542794
158	0xbc68df2a	-0.014213363
159	0xbcc7231b	-0.024308732
160	0xbc9df187	-0.019280208
161	0xbd480dc3	-0.04884125
162	0x3c3a82ed	0.011383754
163	0xbca6ece6	-0.020376634
164	0xbc3d43a5	-0.011551772
165	0x3cc71366	0.024301242
166	0x3cc4e9f5	0.02403734
167	0xbd9a4adf	-0.07533812
168	0x3cdee135	0.027206996
169	0x3d1496f7	0.036276784
170	0xbc5746d1	-0.013139443
171	0xbd4121c0	-0.047151327
172	0x3d777438	0.06041357
173	0xbcb1b8c3	-0.021694547
174	0xbca41b49	-0.020032542
175	0x3d3f72fc	0.046740517
176	0x3cc739cc	0.024319552
177	0x3d79f9cc	0.06102924
178	0x3b3abb6b	0.0028493057
179	0x3d8a271f	0.06745743
180	0xbd92ee19	-0.0717432
181	0xbc71e523	-0.014764103
182	0xbda270d9	-0.0793168
183	0xbd8556b9	-0.06510682
184	0xbd090b3a	-0.033457972
185	0xbcfa271d	-0.030536229
186	0xbdf0b37e	-0.117529854
187	0xbd59dc1b	-0.053188425
188	0xbdd92a3f	-0.10603761
189	0xbc9d8d8d	-0.019232536
190	0xbcef541d	-0.029214913
191	0xbd2facd2	-0.042889424
192	0x3d08a947	0.03336456
193	0xbd626bad	-0.05527847
194	0xbcab9610	-0.020945579
195	0x3b025f85	0.001989336
196	0x3d207728	0.039176136
197	0x3b440fbe	0.002991661
198	0x3c682534	0.014169026
199	0xb867fa1f	-5.5307635e-05
200	0xbd9e8b68	-0.077414334
201	0xbcbbee4b	-0.022940775
202	0x3d184b08	0.03718093
203	0xbd86c4d2	-0.06580509
204	0x3d78435c	0.060611114
205	0xbcf3af8c	-0.029746793
206	0xbdb08c64	-0.086205274
207	0xbd273e3e	-0.040830843
208	0x3cf8efd6	0.0303878
209	0xbdd93dd1	-0.10607494
210	0x3ca9115c	0.02063816
211	0x3d63acb6	0.05558463
212	0xbb8cc3ba	-0.0042957934
213	0x3adb924d	0.0016751975
214	0x3c548ac9	0.012972542
215	0xbd7aa873	-0.061195802
216	0x3cc37c23	0.023862904
217	0x3d6c65a4	0.05771412
218	0xbbe2f348	-0.006925974
219	0xbc326d45	-0.01089031
220	0xbd8e3172	-0.06943025
221	0xbccb00e8	-0.024780706
222	0xbc0f67af	-0.008752747
223	0xbbad33db	-0.0052857227
224	0x3c06681b	0.008203532
225	0xbbf3b5f3	-0.0074374615
226	0x3d16d77f	0.036826607
227	0xbcbfeffb	-0.023429861
228	0x3c7c83f6	0.015412321
229	0xbcebfa0d	-0.028805757
230	0x3d2d1b8d	0.042262603
231	0xbd74ecb9	-0.05979607
232	0x3b62798d	0.0034557313
233	0xbd34d9dc	-0.04415308
234	0xbaf0c727	-0.0018369899
235	0x3d8c3ea0	0.06847882
236	0xbd27c76d	-0.04096167
237	0x3c415b75	0.01180159
238	0xbba65247	-0.005075726
239	0xbba229c9	-0.004948829
240	0x3c02196a	0.0079406295
241	0x3d9b6b43	0.07588818
242	0x3ca0c559	0.019625353
243	0xbd400735	-0.046881873
244	0x3c068861	0.008211226
245	0x3bc42db8	0.0059868954
246	0x3d329672	0.043600507
247	0x3d1d401e	0.038391225
248	0x3d41fa5b	0.0473579
249	0x3d660d8d	0.056165267
250	0x3d3e4bbb	0.04645894
251	0xbce88ee8	-0.028388456
252	0x3d63c9c6	0.055612348
253	0x3bf6ea16	0.0075352294
254	0x3cbdb5c1	0.023157956
255	0x3c794b6b	0.015215735

backbone.12.bias f4 [128]
0	0xb49185c9	-2.7105696e-07
1	0x3397306d	7.040294e-08
2	0xb50e8f5c	-5.310774e-07
3	0x340c9a13	1.3094568e-07
4	0xb58fa8b6	-1.0703432e-06
5	0x358e6c75	1.061139e-06
6	0x3584241a	9.845273e-07
7	0xb5050ec1	-4.956783e-07
8	0xb498113b	-2.8324743e-07
9	0x357e0fae	9.464519e-07
10	0x34c84d57	3.7309175e-07
11	0x34a0f8cb	2.9983343e-07
12	0x34c1df7c	3.6111658e-07
13	0xb553d1cf	-7.8908937e-07
14	0xb3e6816c	-1.0733751e-07
15	0xb60319cc	-1.9535537e-06
16	0x3593d2ea	1.1013738e-06
17	0x3550f85c	7.784745e-07
18	0xb5751008	-9.129294e-07
19	0xb4a593f3	-3.0841292e-07
20	0xb5c5889c	-1.4717402e-06
21	0xb4468a52	-1.8490508e-07
22	0x358e4414	1.0599638e-06
23	0x331df1ad	3.6774214e-08
24	0x354bb377	7.588455e-07
25	0x361977f7	2.2868605e-06
26	0x3682c163	3.896815e-06
27	0xb4441966	-1.8263162e-07
28	0xb5a5713c	-1.2326414e-06
29	0xb37d9d81	-5.9049402e-08
30	0xb38dcdbb	-6.603246e-08
31	0x34f39975	4.5373932e-07
32	0xb5fb9474	-1.8744163e-06
33	0x34cf1417	3.8571372e-07
34	0xb61b706b	-2.3162236e-06
35	0xb5ab72ee	-1.2773942e-06
36	0x354cca9c	7.629076e-07
37	0xb58d9b39	-1.0550494e-06
38	0x3657edc2	3.217589e-06
39	0x34d85caf	4.030057e-07
40	0xb4328301	-1.6625201e-07
41	0xb5473ea6	-7.422444e-07
42	0x35b9d81b	1.3846469e-06
43	0xb4aee402	-3.2575923e-07
44	0x34aa9e55	3.178017e-07
45	0x34cd2d05	3.8216982e-07
46	0xb5f51482	-1.8259891e-06
47	0x33d64336	9.977377e-08
48	0xb5065c52	-5.0053234e-07
49	0x3634333d	2.6851915e-06
50	0x35bc9419	1.4050194e-06
51	0x34f97616	4.6465783e-07
52	0x34dbd5ae	4.09474e-07
53	0x34ebdaad	4.3931269e-07
54	0x3615abd6	2.2302752e-06
55	0xb3548d9c	-4.948889e-08
56	0x32a52835	1.9226812e-08
57	0x3397fcd3	7.077474e-08
58	0xb59783c5	-1.1288727e-06
59	0x34eb661b	4.3846453e-07
60	0xb3aecd6f	-8.1398746e-08
61	0xb4cdd361	-3.8338024e-07
62	0xb6055af3	-1.9871484e-06
63	0xb3fad6ee	-1.1680628e-07
64	0xb5f95d6a	-1.8579133e-06
65	0xb59163d4	-1.0832396e-06
66	0xb3260c14	-3.8660872e-08
67	0x3487bcb2	2.5283003e-07
68	0x34c67d1d	3.6971406e-07
69	0x366f9187	3.5698483e-06
70	0x3563a957	8.481051e-07
71	0x34dcf0a5	4.1153285e-07
72	0x34a60449	3.0923027e-07
73	0x35c623fe	1.4762625e-06
74	0xb49e9a50	-2.954207e-07
75	0xb5d331a6	-1.5735175e-06
76	0xb689cddf	-4.1068847e-06
77	0x359e7c20	1.1808042e-06
78	0xb63f1004	-2.847054e-06
79	0xb5f2b2eb	-1.8082477e-06
80	0xb4301f86	-1.6402745e-07
81	0xb5082527	-5.071801e-07
82	0xb54d08d4	-7.63813e-07
83	0xb4b22c36	-3.318725e-07
84	0xb64eff58	-3.0845022e-06
85	0x338332ec	6.1094255e-08
86	0x34d9db6e	4.0579056e-07
87	0xb319d44d	-3.5816175e-08
88	0x34f818a9	4.6211542e-07
89	0xb4e205c7	-4.2099984e-07
90	0x351d1a3f	5.852525e-07
91	0x34be03d4	3.5393043e-07
92	0x342d1b32	1.6121774e-07
93	0xb4dca340	-4.1096973e-07
94	0xb5b8397a	-1.3725796e-06
95	0xb44c9a6d	-1.905516e-07
96	0xb593cdd5	-1.1012258e-06
97	0xb4033696	-1.2220184e-07
98	0xb4edd289	-4.4297875e-07
99	0x33c6f4d4	9.2646275e-08
100	0x339c0485	7.265138e-08
101	0x36561843	3.1902607e-06
102	0xb559de82	-8.116259e-07
103	0xb183b601	-3.8332932e-09
104	0xb4c83d19	-3.7297357e-07
105	0xb497a9fd	-2.8249625e-07
106	0x349308ff	2.738743e-07
107	0x368eaffc	4.252417e-06
108	0x356e4a53	8.8770065e-07
109	0x34aa323d	3.170152e-07
110	0x3531ddfb	6.626066e-07
111	0x3500807f	4.78707e-07
112	0x34c4e27e	3.667264e-07
113	0xb29019cc	-1.6775537e-08
114	0x35b1fe1d	1.3261484e-06
115	0x34b0228c	3.280769e-07
116	0x343d108a	1.7608014e-07
117	0xb54ace77	-7.555131e-07
118	0x34ebce1e	4.392213e-07
119	0x3517fb28	5.6617364e-07
120	0x34e40806	4.2474147e-07
121	0x35a9b7d5	1.2644983e-06
122	0xb28cfdf0	-1.6413622e-08
123	0xb4dc62af	-4.1049995e-07
124	0xb580863c	-9.57581e-07
125	0xb57da534	-9.4490247e-07
126	0x33b94f80	8.629195e-08
127	0xb506f30f	-5.0272587e-07

backbone.13.weight f4 [128]
0	0x3f849f43	1.0361103
1	0x3f80580f	1.0026873
2	0x3f914369	1.1348697
3	0x3f8647cf	1.0490664
4	0x3f8a3c86	1.079972
5	0x3f84e9be	1.0383832
6	0x3f86a1c0	1.0518112
7	0x3f7d2493	0.9888393
8	0x3f7f37d7	0.9969458
9	0x3f841092	1.0317557
10	0x3f87249d	1.0558048
11	0x3f895c86	1.0731361
12	0x3f7a5241	0.9778176
13	0x3f8aedf2	1.0853865
14	0x3f890782	1.0705416
15	0x3f8528ee	1.0403116
16	0x3f87e8ff	1.061798
17	0x3f84f1e0	1.0386314
18	0x3f7c4776	0.9854654
19	0x3f7b8070	0.98242855
20	0x3f94c14f	1.1621493
21	0x3f7f32af	0.9968671
22	0x3f8c0abc	1.0940776
23	0x3f85fbad	1.046743
24	0x3f89d20d	1.0767227
25	0x3f8e6a0b	1.1126112
26	0x3f8b8043	1.0898517
27	0x3f967613	1.1754783
28	0x3f886baf	1.0657862
29	0x3f87e27b	1.0615991
30	0x3f7d6dbc	0.98995566
31	0x3f81e704	1.0148625
32	0x3f881361	1.0630914
33	0x3f83a37a	1.0284264
34	0x3f868dd1	1.0512029
35	0x3f851a3b	1.039863
36	0x3f86097b	1.0471643
37	0x3f84f76d	1.0388008
38	0x3f83b957	1.0290936
39	0x3f7feee1	0.99973875
40	0x3f874f7e	1.0571134
41	0x3f8396e9	1.0280429
42	0x3f8e89af	1.1135768
43	0x3f84cc01	1.0374757
44	0x3f943e92	1.1581595
45	0x3f8a2a10	1.0794086
46	0x3f842e3f	1.0326613
47	0x3f84972c	1.0358634
48	0x3f7ad895	0.9798673
49	0x3f8e1538	1.1100225
50	0x3f81fad7	1.0154675
51	0x3f87ae17	1.0600003
52	0x3f8b74e0	1.0895042
53	0x3f7b7fe8	0.98242044
54	0x3f875bf3	1.0574936
55	0x3f872301	1.0557557
56	0x3f8901ff	1.0703734
57	0x3f7fa268	0.9985719
58	0x3f87e443	1.0616535
59	0x3f88640c	1.0655532
60	0x3f861265	1.0474364
61	0x3f967fef	1.1757792
62	0x3f8805e4	1.0626798
63	0x3f90ba44	1.1306844
64	0x3f8d07dc	1.1018023
65	0x3f8ccea0	1.1000557
66	0x3f867cdb	1.0506853
67	0x3f88bb35	1.0682131
68	0x3f7de99c	0.99184585
69	0x3f85307b	1.040542
70	0x3f859804	1.0437016
71	0x3f878bab	1.0589498
72	0x3f81f66d	1.0153328
73	0x3f8b813d	1.0898815
74	0x3f8214e7	1.0162629
75	0x3f8ba870	1.0910778
76	0x3f8fa1a4	1.1221204
77	0x3f8ade65	1.084912
78	0x3f8728a3	1.0559276
79	0x3f819640	1.0123978
80	0x3f8dc841	1.1076738
81	0x3f8ede14	1.1161523
82	0x3f91841f	1.1368445
83	0x3f8ed1c9	1.1157771
84	0x3f916188	1.1357889
85	0x3f8454e2	1.0338404
86	0x3f972cd3	1.1810554
87	0x3f92149c	1.141254
88	0x3f826964	1.0188413
89	0x3f854d99	1.0414306
90	0x3f839b18	1.0281706
91	0x3f863a0c	1.0486465
92	0x3f6c2a94	0.9225247
93	0x3f8498f6	1.035918
94	0x3f875e64	1.0575681
95	0x3f8b1a88	1.0867472
96	0x3f7b4e7a	0.9816662
97	0x3f84bb8f	1.0369738
98	0x3f836bdd	1.0267292
99	0x3f88619f	1.0654792
100	0x3f7d51a7	0.98952717
101	0x3f86e069	1.0537235
102	0x3f840c25	1.0316206
103	0x3f83dca0	1.0301704
104	0x3f83c6f5	1.0295092
105	0x3f8348ef	1.0256633
106	0x3f83d871	1.0300428
107	0x3f87b5ea	1.0602391
108	0x3f840fd4	1.031733
109	0x3f870d5a	1.055095
110	0x3f8391be	1.0278852
111	0x3f8ae283	1.0850376
112	0x3f80b66d	1.0055672
113	0x3f8afb27	1.0857896
114	0x3f84f452	1.0387061
115	0x3f909fc0	1.1298752
116	0x3f82d238	1.0220404
117	0x3f8c6dce	1.097101
118	0x3f926021	1.1435586
119	0x3f8b7564	1.08952
120	0x3f864ec3	1.0492786
121	0x3f833889	1.0251628
122	0x3f96f749	1.1794215
123	0x3f83037b	1.0235437
124	0x3f8560d6	1.0420177
125	0x3f88851c	1.0665622
126	0x3f853284	1.0406041
127	0x3f847899	1.0349303
