models/osu_model_temp.pth (torch, 439117 bytes, 28 tensors)

backbone.0.weight f4 [16, 3, 3, 3]
00000000: 0589 83bd 79c6 ed3d 5403 4dbe 9724 ebbd
00000010: 5e8f 86bd b31a 1b3e ff58 1a3c 3b8d 55be
00000020: 1fff 863d a986 ebbc 1a12 43bd 0402 053e
00000030: 8190 16ba 3332 a9bd cb5d a8bc 0c83 8ebd
00000040: a512 5fbe 636e 61bb c222 213e a575 dbba
00000050: 4ee0 1abc 64e4 7cbd 30c4 bbbd c807 343c
00000060: 16b2 403d 026f 013e 3a58 633d c9c0 853a
00000070: ffe2 133a 6420 123d bd62 90bd fb65 b3bc
00000080: 5f92 12be 1987 e63d 9022 44bd cb45 503c
00000090: 87b5 c03d 3fbd 083e 52af 603c e8aa eb3c
000000a0: 186c 77bc bedd 9dbd cc3f 5cbd f3f6 55bd
000000b0: 356b 873d 1015 a0bd 702f b4bd f462 953b
000000c0: b096 dbbc 56b7 f4bd 18db b0bd 403f 233d
000000d0: f2c2 16be 9637 a6bc f759 a3bb 0da8 3abb
000000e0: 6366 acbd ee6d a33e c7a6 043e ef77 5f3d
000000f0: 7f6c 5a3e 94dd 383d f097 a4bd 2175 bcbb
00000100: 98ea f13d 57a2 b5bd b9f0 e7bd b3fd 48bd
00000110: e981 ab3d 0a18 783d 5871 25be 2137 42be
00000120: 2697 d33d ad9f 8f3c 1c16 b0bd 85a8 c83d
00000130: 7e12 30be 9708 243d 1b0d b53c 559d 97bc
00000140: ca25 50be 78cd 53bd c4d9 ce3c 902b 0e3d
00000150: b382 21bd a9ac a2bd 0728 213d 8a4e 3e3c
00000160: e8fb 0ebd 54e4 acbd e42d d7bd 5f5f 8bbd
00000170: 7fa0 83bc da8c d9bc 1e5f 9dbd 9c52 283d
00000180: 1a47 6abd 4f65 a03c 0f32 44bb d3fb 49bc
00000190: 8ca9 d93d c6e9 abbc fca1 2fbd cfde c8bc
000001a0: abbf f83b 3b88 a9bc 792c fcbc 9837 18bd
000001b0: 5e01 05be b81b 1d3e 1d81 2a3e a720 2c3e
000001c0: 505a 833b 0f29 873d a117 b7bd 2c72 8d3d
000001d0: 86c4 92bd e9fe 8d3d 90b0 3c3d 5d03 64bd
000001e0: 1701 e8bd c4f2 a43d 4a31 26bc 2018 28be
000001f0: b4b6 97bc f99d 1d3d 8102 5e3e be10 e1bd
00000200: 1181 a93d 600e 1cbd e0a0 67bd 5d71 abbd
00000210: 9cbb 7cbe 7402 f1bd e591 163e c4a0 bebc
00000220: be77 1e3e 7581 893e 08b8 55be 8681 3cbb
00000230: 6ae4 48be 4cb7 51bc 285c f0bc d19c 353e
00000240: 5dc4 e6bd 9f30 acbc 61b4 71bd c44f 4f3d
00000250: d867 c43d 4ccf 223d df35 cbbd 113b 96bc
00000260: 2420 ec3d d498 a6bd d3bc 3a3d c500 fabb
00000270: 6d43 eabc 1db1 f7bd 4f72 3e3c e26a d8bd
00000280: 7766 40bc defe 5f3e 5472 1fbd 3c6f 32be
00000290: 4788 11be 4d7c b2bd b76b e63d a939 b6bd
000002a0: 00d6 423d e1d7 2c3c acf3 5c3d d39f ac3e
000002b0: e578 eb3d 0083 6dbe 21f9 3bbe ffab 0f3d
000002c0: 624a b7bd 3577 663d 0c1d 4c3e 77b9 003d
000002d0: 4921 97bd 1c2f 19bc 7c6a 09bd f7ad 4c3e
000002e0: d7a4 5a3d dd23 0fbe 1083 bc3d afcc 77be
000002f0: 089f 943d fd7e 0d3e 2d8a ebbc 6a2a 933d
00000300: d8dc 83bd fca7 a3b9 1770 873d cc66 4fbd
00000310: 3853 7dbd b78e dabc 78e3 713e ba02 7cbd
00000320: 3031 133e 53fa 873c 6a9c e33c 7b44 25bd
00000330: 211b 1e3c 0b9d c0bd b771 863d 94b0 d6bc
00000340: 5dc9 053e 1fc0 fd3c f958 c5bc 8f90 cf3b
00000350: 510a e33d c808 d6bd 7268 603d 79f9 8e3d
00000360: 544d cb3d 994d bc3b 7012 12be ad9a b63c
00000370: 1ff1 003e 55a0 9abe 0fc7 783e efa9 013e
00000380: f3da 983c 884a aa3c a90f 5bbe 0996 0abe
00000390: 27b9 0a3c 636a be3d ad95 203e 432b 83bd
000003a0: 449c 32bd e1c7 5ebe 175a 903d 87e7 81be
000003b0: b305 45be 4c8c ff3c 177e 143d 9c09 b7bc
000003c0: 7dbf 15bc f3ef 073d 03d4 ae3d 0a26 c73c
000003d0: ff6f 4cbe 3624 813c f156 e63c fa0d a33d
000003e0: 8abf 23be 9bb4 223d 612c e6bd 3e22 eabd
000003f0: 0e07 eb3d c5fc 213e bc5e cf3d 6e33 1b3c
-0.06422619 0.11610121 -0.20020801 -0.11481588 -0.06570314 0.15146904 0.009420632 -0.20854656
0.06591629 -0.028750734 -0.047624685 0.1298905 -0.00057435787 -0.08261528 -0.020552536 -0.06958589
-0.21784456 -0.003439807 0.15735915 -0.0016743435 -0.0094528925 -0.061741248 -0.09168279 0.010988183
0.047044836 0.12640002 0.05550406 0.0010204549 0.000564143 0.03567542 -0.07050083 -0.021899214
-0.14313649 0.112562366 -0.047884524 0.012711952 0.094096236 0.13353442 0.013713675 0.028768018
-0.015101455 -0.077083096 -0.05377178 -0.052237462 0.06612245 -0.07816517 -0.087981105 0.0045589153
-0.026805252 -0.11949031 -0.08635539 0.03985524 -0.14722803 -0.020290177 -0.00498509 -0.0028481514
-0.08417966 0.31919807 0.12954246 0.054557737 0.2133045 0.04513319 -0.08036792 -0.0057512675
0.11812323 -0.088688545 -0.11325211 -0.04907007 0.08374388 0.0605698 -0.16156518 -0.18966343
0.10331564 0.017532194 -0.08597967 0.097977675 -0.17194554 0.040047254 0.022100976 -0.018507639
-0.20326915 -0.051709622 0.025250323 0.034709513 -0.039431285 -0.079430886 0.039344814 0.011615405
-0.034908205 -0.08441988 -0.105068 -0.068053 -0.016067741 -0.026556421 -0.07684158 0.041094407
-0.057196714 0.019579558 -0.0029937064 -0.012328106 0.106280416 -0.020985495 -0.04287909 -0.024520306
0.007591208 -0.020694843 -0.030782925 -0.037162393 -0.12988803 0.15342605 0.16650815 0.16809331
0.004008569 0.06599628 -0.08940054 0.06906542 -0.0716639 0.06933386 0.04606682 -0.05566727
-0.11328333 0.08054116 -0.010143587 -0.16415453 -0.018519737 0.038480733 0.21680643 -0.109895214
0.082765706 -0.038099647 -0.056549907 -0.08371232 -0.24680942 -0.11768046 0.14704092 -0.023270018
0.15475366 0.2685658 -0.20870984 -0.0028763725 -0.19618383 -0.012800049 -0.029340819 0.17735602
-0.11267922 -0.021019278 -0.059009913 0.05061318 0.09590119 0.039748475 -0.099223845 -0.018338712
0.11529568 -0.081346184 0.045590233 -0.0076294863 -0.028596604 -0.120943286 0.011623933 -0.10567261
-0.0117431795 0.21874568 -0.03892739 -0.17425245 -0.14212142 -0.08715115 0.11251014 -0.088977166
0.047567368 0.010549516 0.05394332 0.33715686 0.11497668 -0.23194504 -0.18356754 0.035076138
-0.08949734 0.05626603 0.19932956 0.031426873 -0.073793955 -0.009349611 -0.033548817 0.19988237
0.05337986 -0.13978525 0.09204686 -0.24199174 0.07256895 0.13817973 -0.02875241 0.07185824
-0.06438607 -0.0003121494 0.06613176 -0.050635144 -0.06184694 -0.02667938 0.23621929 -0.061526038
0.14374232 0.016598856 0.027784545 -0.04034851 0.009650023 -0.094049536 0.06564658 -0.026207246
0.13065095 0.0309754 -0.024090277 0.0063343714 0.11085952 -0.10450894 0.054787107 0.06981177
0.099268585 0.005746555 -0.14264846 0.022290552 0.1259198 -0.3020045 0.24294685 0.12662481
0.01865909 0.020787492 -0.21392693 -0.13533796 0.008466995 0.092976354 0.15682097 -0.06404736
-0.043606058 -0.21755935 0.07048433 -0.25371954 -0.19240455 0.031194828 0.03625306 -0.02234345
-0.009139893 0.033187818 0.08536532 0.02431013 -0.19964598 0.015764337 0.028117629 0.0796165
-0.15991035 0.03972302 -0.11238933 -0.114323124 0.11475955 0.1581908 0.10125491 0.009472711

backbone.0.bias f4 [16]
00000000: ea66 c137 2831 fd38 da58 a238 f0d4 6f38
00000010: 5306 0a3a 3a1d 6fb9 e049 9138 f486 d3b8
00000020: 2de9 b136 a169 4d39 3672 05b9 6e7b 11b9
00000030: e0e7 ddb7 d1cc 5f39 0479 1939 056a c5b8
2.3055316e-05 0.00012073136 7.741312e-05 5.7180354e-05 0.00052652246 -0.00022803704 6.927899e-05 -0.00010086401
5.3021563e-06 0.00019589673 -0.00012726415 -0.00013874259 -2.6453228e-05 0.00021343237 0.00014636299 -9.41344e-05

backbone.1.weight f4 [16]
00000000: da7b 7c3f 2f86 6d3f 4671 813f 14a9 683f
00000010: 29eb 7d3f 8518 7c3f ff77 773f 55f6 723f
00000020: 717b 783f 592f 653f 8703 693f 4af2 8a3f
00000030: 30c5 753f 269a 733f 23b1 653f 93b0 6a3f
0.9862648 0.9278287 1.0112693 0.9088299 0.9918695 0.98474914 0.96667475 0.9490712
0.97063357 0.8952537 0.9102101 1.0855191 0.9600401 0.95157087 0.89723414 0.9167568

backbone.1.bias f4 [16]
00000000: 2a30 9139 a208 d3bd 1a14 983d d6e1 1ebd
00000010: 09d2 183c c34f 733d 7f5d 673d 5b3d fa3c
00000020: ab95 233b c675 aebb 82ab 5c3c 02c8 633d
00000030: 5c95 d53c 086b 80bd 209e 28bd fa18 193d
0.0002769244 -0.10304381 0.07425709 -0.038789593 0.00932742 0.05940224 0.05648565 0.030546835
0.0024961035 -0.0053240983 0.013468625 0.055610664 0.026072197 -0.062704146 -0.041166425 0.037377335

backbone.1.running_mean f4 [16]
00000000: cc33 d43e ba66 8d3e 4572 2cbe 2e48 e73e
00000010: ea4e ecbd a1ce cebd 3e82 d73d e061 f4be
00000020: 4a5c 523e 6ac2 e4be 77ee 183e bf64 8cbc
00000030: 8c68 1fbf 1825 4d3d 406e 453d 80fe aabe
0.41445768 0.27617437 -0.16840465 0.45172256 -0.11538489 -0.10098005 0.105228886 -0.47730923
0.20543018 -0.44679576 0.14934717 -0.017137883 -0.622689 0.050084203 0.048200846 -0.33397293

backbone.1.running_var f4 [16]
00000000: eff5 ae3e 9a3d e53e 9772 303e 5692 1d3f
00000010: c1bb 9d3d b8a7 243e f662 073e b30e 643f
00000020: 5d40 d73e 499c 683f dd34 603e 3ca6 af3e
00000030: 9400 db3f 43a8 a63d 77a7 e13d 92d3 4d3e
0.34172007 0.4477356 0.17231213 0.61551416 0.07701827 0.16079605 0.13221344 0.8908493
0.42041293 0.9086347 0.21895166 0.34306514 1.7109551 0.08137562 0.110182695 0.20100239

backbone.4.weight f4 [32, 16, 3, 3]
00000000: 05dd d43a deb2 723d 2527 a33c fb12 f93d
00000010: e0e8 a9bd 9d3c 81bd ed1e aa3c efaf 053d
00000020: 57bf d2bd c32f ac3c 55ca a1bd c3e1 1bbc
00000030: cedb 61bd caa9 db3d bc92 9e3d 695d 313d
00000040: 0acf 753d 0175 723d c597 993d 48ba 20bc
00000050: 595c 893b eeb9 c83c 4b4a ff3c 5aac e4bd
00000060: 84b3 923d 4911 60bd 6b2f ffbd 4f4a ebbd
00000070: a5f4 2abc 2dbb bb3d 7368 27bd bd95 77bc
00000080: d0d9 41bd 651f f03c 850e 8ebd 6d39 a0bd
00000090: 17cc 31bd dfba c0bd 9d39 323d 2c30 e93d
000000a0: 8ee5 02be 5d5c cfbd 5f74 51bd 962d e1bd
000000b0: e801 fdbd 15e8 383d 4903 bd3d 37b4 033c
000000c0: b2c5 ac3d c4ce 71bd 754c ddbd 1637 19bd
000000d0: cdea 27bd f547 b7bd 8edb db3d 3fb7 46ba
000000e0: f309 ec3d f4b5 db3d 1aa0 a5bb c19e 62ba
000000f0: 1e60 083e fc7b 04be 3d00 22be 576d a5bd
00000100: b7c4 033c eba5 be3d 60f5 803d 9946 a33d
00000110: 94d3 c2bc 289b 3c3d 3319 af3b dcf4 903c
00000120: 09b2 19be 245d 82bb 8137 9ebc a6f7 c33d
00000130: 5c90 ca3c c3d4 c7bd e279 d5bd 95b0 0b3c
00000140: 5236 87bc 88c8 4f3d 1b75 5cbc 6a03 423d
00000150: cb1a e9ba 8ede 283c d004 623d 687b 9abd
00000160: 2923 a5ba 11ea e2bd 2b14 89bd 7906 7a3c
00000170: ab4c 493d 955f e6bd 412f 36be 9a49 9ebd
00000180: 1b7f f8bd bae3 083d 869c d03c 23ca b4bd
00000190: 6f4c 78bc 351f a9bc ace6 eebd 7ce9 d6bd
000001a0: 912b 17be 18b6 0dbd e8a7 40bd fab7 33be
000001b0: fe3b 833c 6ca2 e6bd 9fd9 ac3d 042e 93bd
000001c0: 5494 db3d 3265 923d 3b86 f13c e5da 70bc
000001d0: 1097 81bd 1f1c f53d 8821 723c 3ba2 70bd
000001e0: 7370 fe3d f2c4 6c3d 8557 b7bd aebb 45bc
000001f0: ee82 0abc 93b4 0cbe 307a fdbd c49b 94bd
00000200: b61d 0c3a ebbe 473d 5cc6 443d e516 8b3d
00000210: 5377 2dbd af9a c6bc 98e0 0e3d 9e29 3d3e
00000220: 9f96 7bbc 3872 7abd b96e 0ebd c1d6 b6bd
00000230: abcb 303c d6d6 45bb e101 bfbd e695 a13c
00000240: 00a7 a9bd 2414 27bd 94bc 26be 3a31 443d
00000250: e4fe 483e 44fa e7bb 3466 dfbc c296 d5bd
00000260: 11af 48bd 3e31 813c b2bd a038 966b cd3c
00000270: 9753 09be a15e 163d 8dc5 373e 0e86 b8bd
00000280: 07b5 f73d fe2e 1c3e 87bc 2cbd adb9 4fbb
00000290: 403a 9e3d 4370 09be d083 b63d 6c86 30bb
000002a0: 7a0c d23d f3eb 063e 5e32 6b3d 65d7 ecbd
000002b0: 1ceb 743d b2fa 28bc 674f 36bd 3ff2 853c
000002c0: 4f9c 05bd 0895 2e3d ea30 d0bc 06db d0bd
000002d0: 70f9 ccbd 457f 78bd 7bf2 7bbd 7fd7 2cbd
000002e0: 389d e4bd 4811 b3bd 5fa4 a5bd 9401 0ebe
000002f0: 0cf5 5d3c cbff 9e3d 2497 943d 6d70 683d
00000300: 569f a23d 4c9f 1cbd 6b28 22bd ad81 913c
00000310: 7a80 55bd fe14 45bd ef64 acbd 230b 1dbe
00000320: a791 393c c763 d83c a80d 45bd ac0b 27be
00000330: 49bc a53d 791a 313e b25f 173d df4d c93b
00000340: 9a48 4fbd 115c 1bbd c5c2 983c fc62 023d
00000350: fa11 93bd 226a 1dbd d78d 233d e5fc 8abc
00000360: ce5c acbc e9ba 9abc 5469 0ebd 3a4b cbbc
00000370: 443d 08bc 0b5e 3f3d ed85 04bd 0961 bb3c
00000380: 7227 a63d 266d a3bd f456 55bd 955c acbd
00000390: d106 e1bd a1e3 fdb8 9d4a b53d d9c8 003d
000003a0: 42c1 bf3b 72da cc3c 2c0c 1abc 5d61 0c3d
000003b0: 02ad caba 0a02 303d beda 66bd bac8 99bc
000003c0: 19d8 3e3d 0387 60bc 1c9a 343d 06d7 593c
000003d0: 5e4f e1bd 5a04 d8bd fbd4 f63d bfdc 753c
000003e0: 075e 86bd bfad bc3d d62c 683c e570 bbbc
000003f0: a5f6 cebd ab01 b33d 43c2 533c 0593 d3ba
0.0016240185 0.059252612 0.019916127 0.12161823 -0.082963705 -0.06310389 0.0207667 0.032638486
-0.102904014 0.021018868 -0.0789992 -0.009514275 -0.055141263 0.10725744 0.07742831 0.043301973
0.0600119 0.059193615 0.07499651 -0.009810038 0.004191917 0.02450272 0.031163355 -0.11165686
0.07163146 -0.054703984 -0.12460216 -0.114887826 -0.010434304 0.0916656 -0.040871095 -0.015111384
-0.047326863 0.029311845 -0.06936363 -0.07823453 -0.043407526 -0.09410643 0.043511976 0.11386141
-0.1278288 -0.10125039 -0.05113637 -0.10995023 -0.12353879 0.045143206 0.09229142 0.008038572
0.08436145 -0.059035078 -0.10805599 -0.03740605 -0.040995408 -0.089492716 0.10735236 -0.00075804064
0.11525335 0.10728064 -0.005054486 -0.0008644872 0.13317916 -0.12937921 -0.15820403 -0.080774955
0.008042506 0.0930899 0.062968016 0.0797245 -0.023782529 0.046046406 0.00534358 0.017694883
-0.15009321 -0.0039783884 -0.019313576 0.095687196 0.024727039 -0.09757378 -0.10423638 0.008525987
-0.016505394 0.05072835 -0.0134556545 0.047366537 -0.0017784474 0.010306967 0.05518037 -0.07543069
-0.001259898 -0.11079801 -0.066933 0.015260332 0.049145382 -0.112486996 -0.17791463 -0.07728882
-0.121336184 0.033420302 0.025465261 -0.08827617 -0.015154942 -0.020644763 -0.11665091 -0.10493752
-0.14762713 -0.034597486 -0.047035128 -0.1755065 0.016019817 -0.11261448 0.084399454 -0.07186511
0.10721651 0.07148208 0.029482951 -0.014700626 -0.06327641 0.11968254 0.014778502 -0.058748465
0.12423792 0.05780501 -0.0895224 -0.012068672 -0.008454068 -0.13740759 -0.12376821 -0.072562724
0.00053450034 0.048766058 0.048040733 0.06791476 -0.042350125 -0.02424368 0.034882158 0.18472907
-0.015355735 -0.061144084 -0.034773562 -0.0892768 0.010790746 -0.0030187867 -0.0932653 0.019724797
-0.08283806 -0.040790692 -0.16282874 0.04789851 0.19628483 -0.0070793945 -0.027270414 -0.104291454
-0.04899508 0.01577055 7.664728e-05 0.025075715 -0.13410793 0.03671134 0.17946453 -0.09009944
0.12095075 0.15252301 -0.04217198 -0.0031696365 0.07725954 -0.1342173 0.0891186 -0.002693559
0.10256286 0.13175945 0.05742108 -0.11564521 0.05979453 -0.010313677 -0.044509318 0.016350864
-0.03261977 0.042622596 -0.025413949 -0.101980254 -0.10008514 -0.06066825 -0.061510544 -0.0421977
-0.111627996 -0.087435305 -0.08087992 -0.1386779 0.013547193 0.077636324 0.0725539 0.056747843
0.07940547 -0.038237855 -0.039589327 0.01776203 -0.052124478 -0.048115723 -0.08417689 -0.1533628
0.01132623 0.026414765 -0.048108727 -0.16313046 0.08092553 0.17295255 0.036956497 0.006143316
-0.050606348 -0.0379296 0.01864756 0.03183268 -0.07181163 -0.038431294 0.03993019 -0.016966293
-0.021040346 -0.018887954 -0.034768417 -0.024816144 -0.008315388 0.046720546 -0.032354284 0.022873418
0.08112992 -0.07979803 -0.052084878 -0.08416096 -0.10987628 -0.00012106379 0.08852122 0.031441543
0.0058518955 0.025006507 -0.009402316 0.03427254 -0.0015462937 0.042970695 -0.056360953 -0.018772472
0.046592806 -0.013704064 0.044092283 0.0132958945 -0.11001466 -0.10547705 0.120523416 0.015006243
-0.06560903 0.09212827 0.014170846 -0.02288098 -0.101056375 0.087405525 0.012924734 -0.0016141838

backbone.4.bias f4 [32]
00000000: 4e2d fbb7 bcf7 bc38 eba0 e3b7 0c1a 4e38
00000010: b9c9 8ab7 5b48 97b8 1186 70b7 bbf5 e5b8
00000020: 6ec5 02b8 8a9f 0138 a9c4 4eb7 0e6d 6c38
00000030: 1ab0 0db8 bb2a e636 dac5 dfb7 400f b6b7
00000040: 0929 08b6 7bfe eab7 98cc edb8 4bbe c434
00000050: 7f3e a037 6863 3838 0932 b136 eb1f 91b8
00000060: 1d6b 1bb6 d5d0 26b8 9a68 d336 9a6a e5b7
00000070: 39cc 17b7 5eeb 35b8 a795 9638 f640 9a38
-2.9942628e-05 9.010683e-05 -2.7135442e-05 4.9138485e-05 -1.6544816e-05 -7.213718e-05 -1.43363295e-05 -0.00010965342
-3.1178286e-05 3.090458e-05 -1.2324345e-05 5.636835e-05 -3.3781027e-05 6.8595086e-06 -2.6675803e-05 -2.1703192e-05
-2.0289465e-06 -2.8013475e-05 -0.00011339149 3.66463e-07 1.9102588e-05 4.3961598e-05 5.280836e-06 -6.920084e-05
-2.3159148e-06 -3.9771974e-05 6.3004672e-06 -2.7348568e-05 -9.047851e-06 -4.3372966e-05 7.180432e-05 7.355392e-05

backbone.5.weight f4 [32]
00000000: 5b2e 743f 04b0 693f db5f 6b3f b4a9 7d3f
00000010: 0e0e 753f 6546 773f e126 5d3f e6be 5b3f
00000020: 3cc6 753f f04e 613f 7159 6f3f fb98 633f
00000030: a183 613f 59a7 693f 8f1f 5e3f d0c3 623f
00000040: 09d9 593f 05d1 653f 7f26 7d3f c01a 6e3f
00000050: df9f 793f 3a8a 7f3f f004 793f eae7 7d3f
00000060: f589 6a3f 4647 813f b49b 833f 7983 463f
00000070: 266d 6e3f ead9 6b3f b092 753f 74c5 633f
0.9538323 0.91284204 0.9194314 0.9908707 0.9572457 0.9659179 0.8638745 0.8583816
0.96005607 0.88011074 0.9349585 0.88905305 0.88091475 0.9127098 0.86766905 0.88580036
0.85096794 0.89772063 0.98886865 0.9300957 0.9750957 0.9982029 0.9727316 0.99182
0.91616756 1.0099876 1.0281892 0.7754436 0.931353 0.92129385 0.9592695 0.88973165

backbone.5.bias f4 [32]
00000000: bc34 993d d6be cebc aad9 96bd 48ab 1f3d
00000010: 3236 033d f737 893d 6810 90bd 571f 2d3c
00000020: 8d35 3abd 1f8f 5cbd a31a abbd 54e2 2ebd
00000030: 5b85 44bd 9055 47bd c2e6 f7bc 1790 dabc
00000040: 5996 d83b 0469 80bd 804c 013c 76a0 c5bd
00000050: ccea 6a3c 757d 7dbc 0f32 dcbc ef9a 083d
00000060: 3081 5fbd cd89 fd3c 2fd8 9c3d e64b 07bd
00000070: 55ac a0bd a0f7 883d 4c10 51bd 4de8 fb38
0.074807614 -0.025237482 -0.07365735 0.038981706 0.032034107 0.067001276 -0.07034379 0.010566554
-0.045461226 -0.05384743 -0.0835469 -0.042696312 -0.04797874 -0.048665583 -0.030261401 -0.026680036
0.0066097197 -0.0627003 0.007891774 -0.09649746 0.0143382065 -0.015471806 -0.026879339 0.03335088
-0.054566562 0.030949498 0.07658421 -0.033031367 -0.0784537 0.06687856 -0.051040933 0.00012011882

backbone.5.running_mean f4 [32]
00000000: 1b1c 44bf ae04 e9be 1ef1 df3c 8678 40bf
00000010: 45e4 b1be 1557 02bf 40a5 23bf 0763 18bf
00000020: 5505 0fbf b217 61bf a5d6 843c 183f 07bf
00000030: 7d3a 40bf 0489 c8bf f851 d4be 9ba0 e1be
00000040: 8807 0dbf 1ed4 90be 47f1 6abe 8d74 d03f
00000050: fed2 7dbe 8372 1bbf da2e ac3f 5c10 dabe
00000060: 241b 3d3f 219d 3abf af80 67bf 2683 3abf
00000070: 1fe7 b4bf 9c27 bfbf a123 143f 0796 273f
-0.76605386 -0.45511383 0.027336653 -0.75183904 -0.34744468 -0.50914127 -0.63924026 -0.59526104
-0.5586751 -0.8792678 0.016215632 -0.5283065 -0.75089246 -1.5666814 -0.41468787 -0.44067845
-0.55089617 -0.28286833 -0.22943603 1.6285568 -0.24787518 -0.60721606 1.3451798 -0.42590606
0.7386954 -0.7289601 -0.9043073 -0.72856367 -1.4133033 -1.4933963 0.57866865 0.654633

backbone.5.running_var f4 [32]
00000000: 0649 a83f 3b0b ff3e 9c82 d23e 999d 0a3f
00000010: 7b24 2a3f ac6a ab3e 7cb1 1e3f 59ee 393f
00000020: 4d1c 993f d88b 353f 025c 783f 1898 143f
00000030: 413e 763f bb30 463f c180 5a3f 26ea 583f
00000040: edd7 043f 3b8c e43e aa88 403f 4023 853f
00000050: b97e cb3e fc38 103f 59e5 0540 8327 ee3e
00000060: 74b2 1b3f 415c d73e bc35 643f 844e 793f
00000070: d5d3 0240 8c70 b83f 5f2c 883f 0125 813f
1.3147285 0.49813256 0.41115272 0.54146725 0.66461915 0.33479822 0.6198957 0.72629315
1.1961762 0.7091651 0.9701539 0.58044577 0.9618874 0.77418107 0.8535271 0.8473228
0.51891977 0.44638237 0.7520853 1.0401382 0.3974512 0.5633695 2.0921233 0.4651452
0.6081917 0.42062572 0.8914449 0.9738543 2.0441792 1.4409347 1.0638541 1.0089418

backbone.8.weight f4 [64, 32, 3, 3]
00000000: a3e7 8f3c a179 0cbd 4560 5439 2f76 d03d
00000010: 5dd6 ebbb f479 ab3c dd0e 42bc df22 503c
00000020: bdd5 da3c 4dd2 f5bc 046d 023d 3b8f e83c
00000030: 55ee 14bd 609f 5abd 9b11 0c3d fc47 b8bd
00000040: 50f6 f53c 339c a93c a6d9 8d3d 9c23 8f3c
00000050: b476 fe3c 2954 99bd 69be 8d3c 82f6 e3bd
00000060: 2e74 99bd 70bc 35bd 1c1a d5bd 2abc cbbb
00000070: fdf4 a03d c25a f53c f320 8fbd 35c8 88b9
00000080: 379f e13c 5818 9cbd 9784 90bd 0350 ff3c
00000090: ca88 373d 79e6 883c c277 81bd 52dc b23c
000000a0: 80f8 8d3c a4d3 5a3b 4acb edbd 55d2 953c
000000b0: 9afe 01bd daa0 1f3e ade8 0a3e 9bcd 883c
000000c0: 24be d03d 4c24 ca3c 446c 173d 8556 91bc
000000d0: 23a5 94bb 4d23 563d b9ac 2a3d f623 b6bc
000000e0: f476 27bc 6ad7 89bc 3a46 50bd b77b 473d
000000f0: d8f4 8cbd 627a dcbd bb80 afbc 8fbe 0bbe
00000100: 0dcd ac3c a116 973b d5b4 973c 2638 4ebd
00000110: 90d1 81bb da0f 4cbd 9401 343d 7bf8 ae3d
00000120: ff0a 673b 2f1e cb3d bf74 8c3d 9e35 0ebd
00000130: ec5f 0b3c a937 6b3d 1a2e 87bc 65a6 303c
00000140: e036 683c 51c1 9abc 75ea ae3d ecb1 073e
00000150: a37e 743d fa17 bcbd 850f 9abd e1f1 b53d
00000160: 0ace 81bd c49b 823c 757b 02bb de87 08bb
00000170: 074f 2fbc 8332 af3c 0d27 143d 1b93 513c
00000180: 17e3 3f3d c521 503d f23e 56bc 1d55 063c
00000190: f2f8 d23b 5603 69bb 3bc5 87bd d0da 603d
000001a0: 4021 b03d f0ad 92bc 12d3 62bd 042e 783c
000001b0: b356 98bd 33e3 393d bb42 b8bb f4f8 3f3d
000001c0: bd26 15bd d534 b0bd 751f 283d 62c0 653c
000001d0: 5326 d5bc 8a55 033e 4218 4fbb ab5c 9ebc
000001e0: 1d4e 033d 8e6d 2abd e0b5 85bd fcdd 9bbc
000001f0: e429 a63d 63bd 72bd e4db 3f3d 11e9 dd3c
00000200: 9dc9 19bd e24e 2a3d 2a7e 883d 2c3d 5f3c
00000210: 6b44 2a3d 30cd d3bc e4fc 143d 289c f63b
00000220: 3e35 ee3c 19f6 d7bc a5f8 2b3d 2e68 63bd
00000230: 75d2 59bd 2ce1 863d fa37 08bd e6bd 56bd
00000240: 70db 953c 3ed0 10bd 9491 193d 6979 51bd
00000250: 3707 913c a1c2 9c3c b8a0 8fbd 77e8 aebc
00000260: fad8 f4bb 5ac0 323d b13b dbbc 750a 953d
00000270: eba2 0fbd 2ebe adbd a86d eebc 964e 2f3d
00000280: ab8c 22bd 58ce 39bd b061 95bc 858d 2f3d
00000290: 1554 5b3c e27f 70bd 9be6 e13d 27fb dc3b
000002a0: f186 f33c fa08 8a3c a498 5ebd 2bb6 8c3c
000002b0: 188a b83d ad08 4f3a 3bdf 45bd d7be 333d
000002c0: dfe2 ef3c 9d9d 4cba 607d 7f3d 00d9 aebd
000002d0: c757 963d 2716 b0bd c55b e9bd 1407 953c
000002e0: 69c9 613d 447a f2bd 7b20 06bc 9835 babd
000002f0: f87e 313c 8821 943d ec80 b0bc 0163 dfbc
00000300: 7eb3 233e 04f7 d93d afcf c4bd ca43 a63c
00000310: 9b09 833d eb0b 283d e001 a5bd 79d0 69bd
00000320: 162b 24bc 61ff 50bd 7116 20bd 94bc 173d
00000330: 6cc2 4fbd f531 953c dcea 5dbb 240a bd3c
00000340: 30ac 67bc be7b 41bd ebda a4bc 6291 af3d
00000350: 0bf1 eabc 88d8 823c 9708 74bd 22cc 60bd
00000360: 5074 8abb dc30 74bd b087 693d 5e9c 92bd
00000370: 3362 033c 05f0 053d 9847 4cbc 8445 55bb
00000380: afd8 03bd e306 ccbb 3a98 263b f4ab 56bd
00000390: 4ba3 f1bd 2e9f e43c 8d2b 7bbd 9088 bebd
000003a0: 4f42 c8bd 3831 dbbd 6814 743a e7a8 70bc
000003b0: cf7d 613d 5a48 8dbd 9412 4bbd 4036 0cbd
000003c0: 4b79 0bba 47b8 bfbb 4a4d 083d 8320 5d3d
000003d0: 280e 033b 3ddc 41bc 9487 babc 8e10 b1bc
000003e0: 6591 1dbc 41c3 30bb 1b40 193d 7a5b 01bd
000003f0: 3288 e83b a3e9 8bbd a717 22bd 4412 6bbb
0.017566508 -0.034295682 0.00020253759 0.10178792 -0.007197185 0.020932175 -0.011844364 0.012703626
0.026713246 -0.030007506 0.031842247 0.02838861 -0.036360104 -0.053374648 0.034196477 -0.08998105
0.030024678 0.020704364 0.06926279 0.017473035 0.031062461 -0.074867554 0.017302709 -0.11131002
-0.07492863 -0.04436916 -0.104053706 -0.0062174993 0.07859228 0.029950503 -0.069887064 -0.00026089107
0.02754174 -0.07621831 -0.070565395 0.031166082 0.044808187 0.01671146 -0.0632167 0.021833573
0.017330408 0.0033390308 -0.1161104 0.01828877 -0.031736948 0.15588704 0.13565321 0.016699603
0.101925164 0.02467551 0.036968485 -0.017741451 -0.0045362874 0.05227976 0.041668627 -0.022233944
-0.010221232 -0.01682635 -0.050848223 0.048701968 -0.06882638 -0.1076553 -0.021423688 -0.13646911
0.02109387 0.004610852 0.018518845 -0.050346516 -0.0039617494 -0.049819805 0.043946818 0.08543488
0.0035254357 0.099178664 0.06858205 -0.034719102 0.008506756 0.05742613 -0.016501475 0.010781859
0.0141732395 -0.018891009 0.08540813 0.13251466 0.059691083 -0.09184261 -0.07522491 0.08884025
-0.06338127 0.015943415 -0.0019910012 -0.0020832936 -0.010699994 0.02138639 0.036170054 0.01279142
0.04684743 0.050813455 -0.013076531 0.0081990035 0.006438368 -0.0035554967 -0.066294156 0.054896176
0.08600092 -0.017905205 -0.055377074 0.01514769 -0.074384116 0.04538269 -0.0056231893 0.04686828
-0.036413897 -0.08603827 0.041045625 0.014022918 -0.026019251 0.128256 -0.0031600152 -0.019331297
0.032056917 -0.041608386 -0.065288305 -0.019026749 0.08113459 -0.059262644 0.046840563 0.027088674
-0.03754579 0.041579135 0.06664689 0.013625424 0.041569155 -0.025854677 0.036373988 0.0075259395
0.029078122 -0.026362466 0.041985173 -0.055519275 -0.053179223 0.06585917 -0.03325651 -0.052427195
0.018293113 -0.035354845 0.03749235 -0.051141176 0.017703636 0.019135775 -0.070130765 -0.021351082
-0.0074721547 0.043640472 -0.026761862 0.07277385 -0.03506748 -0.084835395 -0.029105023 0.042799555
-0.039684933 -0.0453628 -0.018235058 0.042859573 0.013386746 -0.05871571 0.11030313 0.006743807
0.029727431 0.016849983 -0.05434479 0.017176708 0.09010714 0.0007897716 -0.048308592 0.04388317
0.029282985 -0.00078054686 0.062375426 -0.08537483 0.07340961 -0.08597975 -0.11394457 0.018191852
0.05512372 -0.118397266 -0.008186455 -0.090922534 0.010833494 0.07232958 -0.02154585 -0.027268888
0.1598644 0.106428176 -0.09609925 0.020295996 0.063983165 0.04102699 -0.08056998 -0.05708358
-0.010020038 -0.0510248 -0.0390839 0.037045076 -0.050722525 0.018212298 -0.003386191 0.023076124
-0.014140174 -0.04723715 -0.02012392 0.085726514 -0.028679391 0.01597239 -0.059578504 -0.054882176
-0.0042252913 -0.05961691 0.057014167 -0.07158731 0.008019018 0.032699604 -0.012468241 -0.0032542655
-0.032189067 -0.006226407 0.0025420324 -0.05241008 -0.11798724 0.027907934 -0.06132083 -0.09303391
-0.09778272 -0.10702747 0.0009310902 -0.014688707 0.05505162 -0.068985656 -0.049578264 -0.034231424
-0.0005320503 -0.005850825 0.033276834 0.053986084 0.0019997451 -0.011832294 -0.022769727 -0.02161434
-0.009617184 -0.002697185 0.03741465 -0.03158138 0.007096314 -0.06831672 -0.039573338 -0.0035869041

backbone.8.bias f4 [64]
00000000: ebd6 9db8 e5b2 41b7 97bb 2e36 89a8 a8b7
00000010: 13ae 3cb7 5009 3ab7 757d 8836 ae93 adb7
00000020: ec8d 3db8 4b45 69b7 6a99 c537 82ea c837
00000030: f60b 0fb7 da8d 8a38 a6ed b037 db55 05b7
00000040: 2441 1fb7 1869 a2b8 8adf d738 30bc ebb5
00000050: b887 7cb4 7fab 3fb5 664c 38b7 8c7f db36
00000060: d818 a4b6 4afc dc35 86bd 3eb7 f76f 0737
00000070: 40da dfb6 bb83 3d38 97e1 e035 f36e 8b36
00000080: b52e d1b6 08e0 5f38 c0ea 4c36 a733 4e35
00000090: c19f 91b7 7317 9ab5 b58b 2ab8 c404 c5b7
000000a0: b5bb 1237 e048 66b6 3f9b 57b7 8c59 38b7
000000b0: 1f7c d835 042a cfb6 0ab3 b135 ce99 9037
000000c0: de64 2236 1a95 95b7 0de4 0837 a190 f8b7
000000d0: ba2b 55b8 3ac4 6433 2313 51b7 719b 16b7
000000e0: daa0 0bb6 0407 c8b6 4611 98b6 7430 0d37
000000f0: 3cab 98b5 72c8 fa37 5237 05b7 c1a2 3fb6
-7.526375e-05 -1.1545349e-05 2.6037212e-06 -2.0105641e-05 -1.1246203e-05 -1.1088632e-05 4.067721e-06 -2.0691976e-05
-4.5193286e-05 -1.3904016e-05 2.3555669e-05 2.395106e-05 -8.526249e-06 6.606775e-05 2.1091499e-05 -7.9474075e-06
-9.492305e-06 -7.744337e-05 0.00010293636 -1.7563634e-06 -2.3518703e-07 -7.1402604e-07 -1.09850425e-05 6.541557e-06
-4.890473e-06 1.6464703e-06 -1.1369009e-05 8.072696e-06 -6.6713255e-06 4.5183795e-05 1.6754956e-06 4.155439e-06
-6.234123e-06 5.337599e-05 3.0535011e-06 7.6816144e-07 -1.7359738e-05 -1.1480719e-06 -4.066127e-05 -2.348645e-05
8.745982e-06 -3.431509e-06 -1.2851145e-05 -1.0988104e-05 1.6129378e-06 -6.173972e-06 1.3239635e-06 1.7237759e-05
2.4198594e-06 -1.7831615e-05 8.159329e-06 -2.9631252e-05 -5.082388e-05 5.3263854e-08 -1.2461826e-05 -8.976888e-06
-2.0806242e-06 -5.961281e-06 -4.531964e-06 8.415536e-06 -1.1374718e-06 2.9895662e-05 -7.940298e-06 -2.8555953e-06

backbone.9.weight f4 [64]
00000000: d911 663f 3400 393f 512d 4a3f 2e0f 503f
00000010: 5bac 1a3f 60c6 3a3f 030b 423f d05d 763f
00000020: 28a7 783f 6029 5d3f 013b 583f 7c91 5d3f
00000030: fe49 683f 7b69 783f d59e 623f 0391 733f
00000040: f1da 653f 9aef 763f 4863 6c3f be41 423f
00000050: 6cf4 263f a19e 373f 8fbd 5f3f f60d 193f
00000060: e9ea 633f 63f4 393f 6830 553f d624 643f
00000070: 8835 573f 240e 6f3f 723a 513f bb40 493f
00000080: d266 563f 6c8e 6b3f 484b 4d3f 3a2d 4a3f
00000090: 0103 223f 3daf 4b3f 603e 713f 014d 6a3f
000000a0: 315a 5c3f 65c0 683f 7787 5c3f 7e7f 523f
000000b0: 8b55 6c3f c143 713f c221 763f d234 4d3f
000000c0: 364d 423f 881e 763f ed96 303f ccf2 323f
000000d0: 0b9f 553f 566f 383f 7004 343f 998d 743f
000000e0: 4d05 6e3f b43e 2b3f 78d8 263f 976c 663f
000000f0: a39a 4f3f 5320 663f c2d9 4b3f 2143 0f3f
0.89870983 0.72265935 0.789754 0.8127316 0.60419244 0.72958946 0.7579805 0.96236897
0.9713006 0.8639126 0.8446503 0.86550117 0.90737903 0.9703595 0.8852361 0.95143145
0.89787203 0.9645935 0.9233899 0.75881565 0.6521671 0.71726424 0.8739862 0.5978693
0.8903032 0.7263853 0.8327699 0.8911871 0.8406606 0.9338095 0.81729805 0.78614396
0.8375064 0.92014194 0.80192995 0.7897526 0.63285834 0.7956427 0.942358 0.9152375
0.8607512 0.9091857 0.861442 0.8222579 0.9231803 0.9424401 0.9614526 0.8015872
0.75899065 0.96140337 0.68980294 0.6990173 0.83445805 0.72044885 0.7031927 0.9552856
0.9297684 0.6689255 0.65174055 0.90009445 0.8109533 0.8989307 0.7962915 0.55961806

backbone.9.bias f4 [64]
00000000: a758 93bd a7ec 86bd 7dd0 c9bd a2a3 81bd
00000010: a3ac c9bd fd27 a9bc 8099 c2bd a9be d2bd
00000020: 7c24 2ebd 3116 f7bd b398 90bd 8afb 4fbd
00000030: 2186 a1ba 38e1 48bd 44a7 823c 91c6 bfbc
00000040: ed24 52bb dd0e 36bd 3c28 f0bd 9c22 41bb
00000050: dac1 dbbd a060 09bd 875f c4bd 5240 b4bd
00000060: 8588 cfbd f0c6 d1bd 6fce f3bd 9f30 fabd
00000070: 06f6 e8bd cbbd 24bd 711e d5bd f43f 92bc
00000080: cb1b 49bd 668a a9bd 10dd fabc c564 77bd
00000090: 65d4 edbd 403f a4bd 5c03 52bd 2448 c9bc
000000a0: d1d5 5fbd c98c 1abe 6549 873c af51 82bd
000000b0: 918c d2bd 86a5 4ebd 6db7 2fbe b1d3 8dbd
000000c0: 8924 94bd caac 40bd 8545 01bd e636 a2bd
000000d0: ad2b 7dbd 2301 c8bd bade 21bd de51 18bd
000000e0: 605d 67bd 33f6 eebd dad6 22be d7bc 3dbd
000000f0: f200 0abd e29b b9bd 66ad 3bbd fcb4 06bd
-0.071946435 -0.065881066 -0.09854219 -0.063300386 -0.09847381 -0.02064895 -0.09501934 -0.10290272
-0.042515263 -0.120647795 -0.07060375 -0.050776996 -0.0012323299 -0.04904291 0.0159489 -0.023410114
-0.0032065467 -0.04444777 -0.11726424 -0.0029470092 -0.107303336 -0.033539414 -0.09588533 -0.088013306
-0.10133461 -0.102430224 -0.119046085 -0.12216305 -0.1137505 -0.040220063 -0.10406197 -0.01785276
-0.04909877 -0.082783505 -0.030622989 -0.060398836 -0.11612777 -0.080198765 -0.051272735 -0.024570532
-0.05464727 -0.15092768 0.01651449 -0.06363236 -0.10280717 -0.050450824 -0.17159815 -0.069251426
-0.07233531 -0.047039784 -0.03156044 -0.07920627 -0.06180923 -0.09765842 -0.03951905 -0.03718745
-0.056485534 -0.116680525 -0.15902272 -0.04632267 -0.033692308 -0.090629354 -0.045819663 -0.032887444

backbone.9.running_mean f4 [64]
00000000: 12f0 09bf c223 7ebf c321 f03d f4cb 36bf
00000010: 30d2 ef3d 4f81 1bbf f517 17bf 7e7c 4dbf
00000020: 90d6 91bf 94f8 c9be 2800 5f3d 1fd4 87bf
00000030: 47e7 13bf 4e30 5fbf 09af a8be 7bd8 1cbf
00000040: 2028 a8bf d4f7 96be 28f9 98be 67e5 96be
00000050: bcd8 88bf a450 24bf 93f3 0bbf 812c 13bf
00000060: 2698 1cbf 5990 22bf 855b 0cbf 64ed d2bd
00000070: e4bc 29bf 8ccd 79bf b7aa 3cbf 90ec 2cbf
00000080: 0b4a cf3e 7d21 08bf 0ff4 09bf 3318 103f
00000090: 8d6e e7be 1230 2abf 301a 54bf bf91 a03e
000000a0: 587d 63bf 6a96 743d 91c1 babe 1be9 f5be
000000b0: 8d92 4a3e fc81 25bf 90af f0be 2c50 d9be
000000c0: 7771 b4bf 8e0f 26be bbd8 18bf 0013 59bf
000000d0: cb90 a7be 7f1f 88bf c7cf 36bf 66e8 27be
000000e0: 6290 a539 f44b bebe 4ca5 8abf 3c46 44bf
000000f0: 4336 bbbf d6d4 e13d d941 1bbf b87e 09bf
-0.53881943 -0.9927331 0.117251895 -0.7140496 0.11710012 -0.60744184 -0.5902093 -0.80268085
-1.1393604 -0.39447463 0.05444351 -1.0611609 -0.57774776 -0.8718308 -0.3294604 -0.61267823
-1.3137245 -0.29485953 -0.2987759 -0.29471895 -1.0691142 -0.6418555 -0.5466854 -0.5748978
-0.6116966 -0.6350151 -0.5482715 -0.10299185 -0.6630385 -0.97579265 -0.7369799 -0.67548466
0.40486178 -0.531761 -0.5388803 0.56286925 -0.4520153 -0.664796 -0.8285246 0.31361195
-0.88863134 0.05971376 -0.36475804 -0.48029408 0.19782467 -0.64651465 -0.47008944 -0.4244398
-1.4097127 -0.16216871 -0.59705704 -0.84794617 -0.32727656 -1.0634612 -0.71410793 -0.16397247
0.00031578826 -0.37167323 -1.0831695 -0.7666967 -1.4625934 0.11026923 -0.6064735 -0.5370898

backbone.9.running_var f4 [64]
00000000: e997 3a3f 17ca d23f 94d2 533f c697 2d3f
00000010: c8b0 813f fa3b 2e3f 3ba6 6b3f e69b 6e3f
00000020: bd5b 0b3f da21 263f 2bb7 763f 9395 1e3f
00000030: 709c 3e3f 04df 153f eb2d 7f3f 17e8 7c3f
00000040: 6a18 793f aa70 223f 91dd 173f 9ff9 283f
00000050: 7723 5f3f 42f9 7c3f 940d 453f a4f0 043f
00000060: 9d78 0a3f 2767 ef3e 48c1 1d3f 9035 103f
00000070: b8e4 7c3f e285 813f be2e 953f 2da3 473f
00000080: dd86 b83f 1fcf 473f 8dc5 8b3f 9a5c 0540
00000090: 1765 403f f2b2 8e3f 9eff 0d3f 0a0f 2b3f
000000a0: a53d 923f 07bc 3a3f d15b 2f3f aded 0b3f
000000b0: 3b3e 3c3f 834d 133f 1cdd 733f 2afa 353f
000000c0: 6ad3 823f 4cee 353f e727 1c3f f48d da3e
000000d0: 8cf3 db3e d485 033f 5984 523f e3b7 833f
000000e0: 0d2c 7c3f 6a50 873f 71d6 333f 1b77 3e3f
000000f0: d039 9a3f 629f 8c3f a054 853f 69ec 343f
0.72888047 1.6467923 0.8274319 0.6780971 1.0132074 0.68060267 0.9205052 0.9320663
0.54436857 0.64895403 0.9637324 0.6194698 0.74457455 0.5854342 0.9967944 0.9879164
0.9730288 0.6345316 0.5932246 0.6600589 0.8716349 0.9881784 0.76973844 0.5192969
0.5409029 0.46758386 0.6162305 0.5633173 0.987865 1.0118983 1.165489 0.7798336
1.4416157 0.78050417 1.0919663 2.083777 0.7515425 1.114836 0.55468166 0.6681982
1.1425062 0.72943157 0.68499476 0.5465954 0.73532456 0.5754015 0.9525926 0.71084845
1.0220768 0.7106674 0.60998386 0.42686427 0.4295925 0.5137608 0.82233196 1.0290493
0.98504716 1.0571415 0.70249087 0.7440049 1.2048893 1.098614 1.041645 0.70673233

backbone.12.weight f4 [128, 64, 3, 3]
00000000: 1b70 c53c 3b73 fd3c 71e9 733c 4d78 96bc
00000010: 9c98 99ba d7d6 06bd b28a 0abd b935 23bd
00000020: db39 99bc 01b5 a9bb 199a 853d c186 4bbb
00000030: 8c05 f2bc 8697 17bc fb71 9abc 2351 05bd
00000040: 021e 9dbc c97e 31bc 210f 93bc c92f bfbc
00000050: 8dbe bc3b 1f30 e7bc 98e2 0bba 1621 91bc
00000060: 040f 04bd 295d b43c 4468 983b e87d 93bc
00000070: 1bb1 25bc 680c 9fbc 3b77 863c cb6d 56bc
00000080: bd6f 8d3d b60b 56bd 22d4 b9bc 2391 ba3c
00000090: aa84 b8b9 321b e5bb ee3f db3c 03a3 ebbb
000000a0: 366a 15bd bb94 5abc e95d 063b 2881 4a3c
000000b0: 8fe3 d63c 409e b23c 2150 083d a101 2c3d
000000c0: 1154 5ebd d73e 9ebc b1d1 21bd daf9 74bd
000000d0: bbdb 9cbc 29f4 47bd d76b 04bd 57ae c43c
000000e0: c809 3d3d 4548 0bbc e26e 1ebc 1794 98bc
000000f0: 99ee 243d d604 793c d319 c33c fdf7 cabc
00000100: 97f7 bcbc 310f be3d 7404 193c ab61 94bc
00000110: 9926 3839 12f0 83bc ac2a 323d dd7d 0f3d
00000120: ecee 9f3d 1f73 063d f42e b23d 8909 afbc
00000130: 5bc7 84bd 88bf e7bc 2c1b 83bd 3d8b d4bd
00000140: ee57 47bb fe31 983b a5b9 6dbd 8f6e c1bc
00000150: ac69 713b b948 bcbc 63ca 91bb 8203 f53c
00000160: 508c 88bd ee8e 0d3d 8425 33bc 2c7d 833d
00000170: 70b6 693d 49ae 853c 71c8 9dbc f71b cfbb
00000180: 2697 373a f9dc d53b 646f 753d 4831 c2bb
00000190: bec1 c03c b515 ecbc 5612 273b d3ae cc3c
000001a0: 8b86 b43b b1c3 e5bc aa18 fb3c ebd5 733d
000001b0: e7ec 17bc 651e a3bb cd73 4fbd 20ea 9abc
000001c0: 2a27 28bd 6138 82bc 0d29 b6bc db72 643b
000001d0: c996 6b3c 39f8 9abb ee1c 88bc 2390 823c
000001e0: b4f1 88bc e318 973c 957e b53b 9d9b 74bd
000001f0: c6e3 adbc 4d31 b9bd 349c 8bbc c556 a4bc
00000200: fa7d 193d 60bf dabb 3da6 52bd 326f ee3a
00000210: 00f0 8ebd 6e19 a1bd 48bf 893c bdc8 bb3c
00000220: 83b9 28bb ddd1 cebc 20e3 85bd 9534 10bd
00000230: e07a 14bd 307f 86bd df22 ae3b 58d5 30bc
00000240: 734b e03c 07d8 253d 8785 253d 460d a43b
00000250: 82e3 0ebd 32d6 023c 73d6 e13d 4e55 8dbc
00000260: 1118 173d 00f2 51bd b7bd 83bc 854e 643d
00000270: 43c9 e9bc cc15 23bd 02c0 853c 82de c0bc
00000280: 297e a6bd dae0 ffbb fe31 6cbc 3f47 b0bc
00000290: ef0c b6bc 7ec7 cdba 4c21 f93b 8ba1 5abb
000002a0: 1466 0ebd 8897 5f3d bedc 443d 22f0 80bc
000002b0: 34e4 3cba 0736 24bd 9c31 943c 33b4 fb3c
000002c0: 748f 393d 36b0 9a3b cfdd c43c 622a 483d
000002d0: c95d d83b f047 b4b8 fe6f 18bb 2381 453a
000002e0: d5b1 ef3b 3697 303d 7451 503d 0c26 59bb
000002f0: bfde 0a3d 2d31 1fbc 0d45 09bd 3be5 c93b
00000300: 849a aabc c733 3bbc d785 533d c465 c2bb
00000310: f563 5bbc d274 e8bc 6e48 adbc 3876 743c
00000320: 06a2 6d39 38cf edbc 0461 f43b 5b20 3cbc
00000330: e30a 9bbc 6aec 193c 3367 9bbb 5f47 bdbc
00000340: 1b9f cf3b dfb3 9bbc afaa b83c 6842 fc3c
00000350: 64b2 05bc 928b dc3b 3aab 123d b52d 2bbd
00000360: 349c 0ebd b4ab f1bc a915 73bd ad2d 2dbd
00000370: d43c 173b 7dbc 09bc 4790 54bc ce37 4b3c
00000380: 845d d3bc 4714 b93c 71d0 773d 5e99 933d
00000390: fd32 343c 4ec4 1e3d 91a0 8c3c c3b5 bc3c
000003a0: 4a5e 3cbb ec8b 4f3c b7e4 df3c d707 023c
000003b0: c4ae b83c 1637 dbbb a546 d53b f9d8 bbbc
000003c0: 502c 033c 2fc9 4fbc cfdc d53c 2d89 f93c
000003d0: 36f2 c83c b19f 45bc 5453 cb3c b5e7 973b
000003e0: dbfb 9b3a 935b c73c cccf c03c 696f b63c
000003f0: a15f 163b ed6c ffbc 07e9 75bb 8c85 a6bc
0.024101308 0.030938735 0.0148872 -0.01836791 -0.0011718455 -0.03291973 -0.033823676 -0.039846156
-0.018704345 -0.005179048 0.065235324 -0.0031055661 -0.02954366 -0.009252435 -0.018853178 -0.03254808
-0.019179348 -0.010833451 -0.01795155 -0.023338215 0.00576002 -0.028221188 -0.00053361943 -0.017715972
-0.032240883 0.022017078 0.0046511013 -0.018004373 -0.010113026 -0.019415095 0.016414275 -0.0130877
0.06906078 -0.052257262 -0.02268416 0.022774285 -0.00035194057 -0.0069917673 0.026763882 -0.0071910634
-0.036478244 -0.013341124 0.0020502752 0.012359895 0.026231555 0.021803975 0.033279542 0.04199374
-0.05427939 -0.019317074 -0.039506618 -0.05980859 -0.019147744 -0.048816834 -0.032329407 0.024008913
0.046151906 -0.008501117 -0.009669991 -0.018625302 0.040266607 0.015198907 0.023816025 -0.024776453
-0.023067279 0.09280241 0.009339441 -0.018112978 0.00017561986 -0.016105685 0.043497726 0.035032142
0.078092426 0.03282463 0.08700362 -0.021366851 -0.064833365 -0.028289571 -0.06401667 -0.1037812
-0.00304174 0.0046446314 -0.058038373 -0.023612289 0.0036836667 -0.022983896 -0.004449175 0.0299089
-0.066673875 0.034560136 -0.010934237 0.06420359 0.05705875 0.016318457 -0.019260617 -0.0063204723
0.0007003419 0.006526586 0.059920684 -0.005926285 0.023529883 -0.028818944 0.0025493107 0.024985706
0.005509203 -0.028047414 0.03065141 0.05953018 -0.0092727905 -0.0049779885 -0.050647546 -0.018910468
-0.041052975 -0.015896024 -0.022236371 0.0034858498 0.014379212 -0.0047292975 -0.016615357 0.01593787
-0.016716816 0.018444484 0.0055387714 -0.059718717 -0.021226775 -0.090426065 -0.017042257 -0.020060906
0.037473656 -0.0066756457 -0.05142807 0.0018191098 -0.0697937 -0.078661785 0.016814843 0.022922868
-0.002574534 -0.025246555 -0.06537461 -0.035206396 -0.036249995 -0.06567228 0.0053142156 -0.010793053
0.027379727 0.040489223 0.040410545 0.005006465 -0.034884937 0.007985638 0.11027231 -0.01725259
0.036888186 -0.05125618 -0.016081674 0.055738945 -0.028538352 -0.03981571 0.016326908 -0.0235436
-0.08129532 -0.007808787 -0.014416216 -0.021518348 -0.022222964 -0.0015699712 0.0076028462 -0.0033360447
-0.034765318 0.05458787 0.04806208 -0.015739504 -0.0007205636 -0.040090587 0.018090062 0.030725574
0.045302823 0.004720713 0.024031548 0.048868544 0.006602977 -8.596468e-05 -0.0023260112 0.00075341965
0.0073149004 0.043112956 0.05085893 -0.003313425 0.033903833 -0.009716314 -0.033513118 0.0061613596
-0.020825632 -0.011425919 0.05164131 -0.0059325416 -0.013390531 -0.028376017 -0.021152701 0.014920764
0.0002266244 -0.029029474 0.007457854 -0.0114823235 -0.01892609 0.009394744 -0.004742527 -0.023105321
0.0063361055 -0.019006668 0.022542326 0.030793384 -0.008160207 0.0067305053 0.035807826 -0.041791636
-0.034816936 -0.02950082 -0.05934683 -0.042279888 0.0023077028 -0.0084067555 -0.0129738515 0.012403442
-0.025801428 0.022592677 0.06050152 0.07206987 0.010998485 0.03876143 0.017166408 0.02303589
-0.0028742724 0.012667637 0.02733074 0.0079364395 0.022544272 -0.0066899164 0.0065086656 -0.022930609
0.00800617 -0.012682243 0.026106266 0.030460918 0.024529558 -0.012061999 0.024820007 0.004635776
0.001190062 0.024335658 0.023536585 0.022269921 0.0022945183 -0.03117987 -0.0037522928 -0.020327352

backbone.12.bias f4 [128]
00000000: bb8e 1cb8 35cd a136 76c4 edb6 804f 21b7
00000010: 2953 a935 c955 9ab6 41ae c335 1255 70b6
00000020: 9f34 d3b7 09fc e3b6 0236 7137 84b2 1f36
00000030: 4c7f abb8 a953 ce37 fa27 d034 0428 15b7
00000040: 2670 46b8 cc0b 2036 e44a 8bb8 92ed ddb7
00000050: 0941 a9b6 9924 7e35 b5c6 3b35 666c 34b5
00000060: 2fdd 2cb8 55a2 09b8 0bf8 bfb5 4384 82b6
00000070: d5fa ddb7 c671 fa35 d239 ecb5 930b 00b6
00000080: f564 dbb7 6b33 b3b4 c2df 1eb5 e629 e9b6
00000090: 58ed 1db6 a632 c4b7 0c8b dc33 730c 14b8
000000a0: f612 5f35 7384 ebb6 8f17 00b6 1784 8ab7
000000b0: 85e7 beb7 edeb 1136 646b 7535 1c00 6ab7
000000c0: f1ec 9bb8 6adb 0437 da9a 1e37 736a eb35
000000d0: c6aa 55b7 5f6c 1db5 c2ef c2b6 ad22 8b37
000000e0: a3c9 15b6 c5fa 0436 bb78 07b6 6040 1cb3
000000f0: 5817 a735 224c 6535 280d a737 5ca2 8b36
00000100: ac16 9e36 3874 c7b6 d9b4 99b7 8360 2636
00000110: 5c57 1d35 d19b 1ab6 73a6 3fb5 5d8f 82b7
00000120: 6d5e 4f36 58b7 1938 4da3 5fb7 0d4f dcb7
00000130: 7d81 dc35 6595 8c36 8948 17b6 047d e535
00000140: 96a7 6637 c390 f3b7 2a9a d7b5 6e4f 30b8
00000150: 797a 94b7 01fe 8037 e021 3b36 de80 c9b5
00000160: 76d8 02b7 67cd 2bb7 7251 1eb5 4420 7ab8
00000170: 4c1f 0ab5 43aa f4b6 2b90 5e37 ed5e e5b6
00000180: 93bb 7835 dc7c c936 a458 a237 9f57 e9b6
00000190: 1ba5 b036 b7ba 7934 ad8b 7cb6 1f34 4336
000001a0: 6008 1c37 b824 a1b6 3ddc 6137 9b31 ae36
000001b0: 60de 3bb5 9a70 0936 b308 7bb6 5dd3 9db7
000001c0: 1c45 26b7 245e 7b35 f380 5fb8 f543 0238
000001d0: 7e2e 7f36 b01a 6a35 891a a5b6 9fbb 1fb8
000001e0: 3ff8 9436 5ec4 06b6 d2f5 48b4 ebf9 b236
000001f0: 75ab 61b7 adc9 cb36 3668 6135 8ae9 2bb7
-3.7326226e-05 4.822063e-06 -7.0860215e-06 -9.614858e-06 1.2615684e-06 -4.5995444e-06 1.4579347e-06 -3.5812304e-06
-2.5177664e-05 -6.794468e-06 1.4377294e-05 2.3796756e-06 -8.177626e-05 2.4596071e-05 3.8772106e-07 -8.890409e-06
-4.7311325e-05 2.3848725e-06 -6.641986e-05 -2.645588e-05 -5.0441636e-06 9.467563e-07 6.9952085e-07 -6.7212966e-07
-4.121399e-05 -3.281453e-05 -1.4302799e-06 -3.889699e-06 -2.6462056e-05 1.8659564e-06 -1.7600198e-06 -1.9080223e-06
-2.6153846e-05 -3.337876e-07 -5.91852e-07 -6.9488187e-06 -2.3532975e-06 -2.3388606e-05 1.0269841e-07 -3.5297544e-05
8.3101565e-07 -7.018965e-06 -1.90872e-06 -1.6512391e-05 -2.2757575e-05 2.174401e-06 9.1425886e-07 -1.3947512e-05
-7.43511e-05 7.918899e-06 9.453588e-06 1.7539845e-06 -1.2735551e-05 -5.864476e-07 -5.809562e-06 1.6586238e-05
-2.2320098e-06 1.98155e-06 -2.0186842e-06 -3.638013e-08 1.2449264e-06 8.5419936e-07 1.9914078e-05 4.161424e-06
4.7114063e-06 -5.944192e-06 -1.8323235e-05 2.4792105e-06 5.861418e-07 -2.3038485e-06 -7.139526e-07 -1.5563966e-05
3.0900367e-06 3.6648795e-05 -1.3329857e-05 -2.6262855e-05 1.6428963e-06 4.189717e-06 -2.2542974e-06 1.7098214e-06
1.3748087e-05 -2.9035267e-05 -1.6063616e-06 -4.2035645e-05 -1.7700006e-05 1.5377069e-05 2.788489e-06 -1.5013172e-06
-7.799003e-06 -1.0240218e-05 -5.8978105e-07 -5.9634694e-05 -5.145455e-07 -7.2915877e-06 1.3265798e-05 -6.8357826e-06
9.2660156e-07 6.0048023e-06 1.9353181e-05 -6.9541416e-06 5.2644295e-06 2.3257859e-07 -3.7632228e-06 2.9087603e-06
9.3002745e-06 -4.8024485e-06 1.3462323e-05 5.191379e-06 -6.9986527e-07 2.0480134e-06 -3.7406978e-06 -1.8814282e-05
-9.910462e-06 9.364178e-07 -5.3287436e-05 3.1057705e-05 3.8025023e-06 8.721063e-07 -4.9204723e-06 -3.808329e-05
4.4396434e-06 -2.0081857e-06 -1.871588e-07 5.3339077e-06 -1.34509655e-05 6.0733496e-06 8.397068e-07 -1.0246769e-05

backbone.13.weight f4 [128]
00000000: ea01 7d3f 173d 543f ab8b 653f 6016 743f
00000010: b5de 803f d498 673f 0d10 673f 2544 753f
00000020: bf11 7b3f eb1b 663f fb07 753f d0ea 803f
00000030: 6936 793f ce35 713f 6341 7a3f 8689 4b3f
00000040: 8593 653f fae4 483f 2b78 7d3f 5e3f 693f
00000050: 969b 573f d32c 613f c702 6b3f 5ffa 5d3f
00000060: a561 703f 0b8b 843f f821 723f 3817 573f
00000070: a9c7 523f 9855 2c3f 5b39 6d3f 4b38 6e3f
00000080: ce77 7b3f 6ad9 3e3f fae0 7a3f 75c2 733f
00000090: add6 5d3f 5b97 743f 80ce 653f 57df 853f
000000a0: 2e53 713f 858f 733f 023f 5d3f bf5b 7d3f
000000b0: 3698 863f 1180 6f3f d50f 7c3f f3e1 7c3f
000000c0: 5e6d 7e3f 2688 5b3f f66b 783f f65e 783f
000000d0: 6236 5e3f d4c1 713f 19b7 413f cde0 513f
000000e0: 3ec1 7b3f 0065 4f3f d7de 5c3f fc70 263f
000000f0: 0006 703f 4cd1 5a3f 0c44 753f 4000 723f
00000100: 6d9f 6e3f ffef 6a3f 7f51 783f d781 5e3f
00000110: a6f1 353f f110 6c3f 65c4 683f e557 643f
00000120: 5e42 483f 4bbd 823f 9521 743f 92a7 793f
00000130: 7ef5 5f3f 0cd6 783f b562 0c3f 0772 5b3f
00000140: 6fe1 7e3f f9ac 753f 32e4 793f b87e 683f
00000150: 45c9 6b3f 9bbf 6b3f ece7 733f 868f 473f
00000160: f6fd 763f d1a1 723f 604b 523f 6283 733f
00000170: 5d6e 503f 69c7 563f 9d06 783f 3939 553f
00000180: 9f1a 773f 6297 713f ea14 693f b109 7d3f
00000190: cbad 5a3f 6f46 3b3f 5725 653f 4ff4 6b3f
000001a0: 512e 6a3f 3aa5 3f3f 7fb4 823f 9428 533f
000001b0: 4956 633f 206d 783f f561 6c3f 565b 563f
000001c0: 962e 5d3f b3c2 623f 31c2 683f b505 823f
000001d0: 6b81 693f a36d 6c3f 864d 733f 5f44 793f
000001e0: ef35 573f d80f 523f 1a7b 333f f59d 633f
000001f0: 54f2 833f 8d3b 7a3f c70e 823f 71ad 823f
0.98831046 0.82905716 0.8966624 0.9534664 1.0067965 0.9046757 0.90258867 0.95807105
0.98073953 0.8988635 0.957153 1.0071659 0.9734865 0.94222724 0.9775602 0.7950672
0.8967822 0.7847439 0.99011487 0.91112316 0.8422178 0.8795902 0.9180111 0.8671016
0.93898994 1.0354933 0.9458308 0.84019804 0.8233591 0.67318106 0.9266564 0.93054646
0.9822968 0.745505 0.97999537 0.9521859 0.86655694 0.9554345 0.8976822 1.0458783
0.9426755 0.9514087 0.8642427 0.9896812 1.0515201 0.9355479 0.9846166 0.9878227
0.9938563 0.8575462 0.97039735 0.970199 0.8680173 0.94436383 0.7567001 0.81983644
0.9834174 0.8101349 0.86277527 0.6501615 0.93759155 0.8547561 0.95806956 0.9453163
0.93212014 0.91772455 0.96999353 0.8691687 0.7107185 0.9221335 0.90924674 0.89196616
0.7822627 1.0214018 0.9536374 0.97521317 0.87483966 0.9720161 0.54838115 0.85720867
0.99562734 0.9596706 0.97613823 0.9081836 0.9210399 0.9208924 0.9527576 0.77953374
0.96481264 0.9477816 0.82146263 0.9512235 0.814184 0.83898026 0.9688509 0.8329044
0.96524996 0.94371617 0.9104754 0.9884291 0.8542144 0.7315435 0.895101 0.9216966
0.91476923 0.7486149 1.0211333 0.8248379 0.88803536 0.9704151 0.9233697 0.8373312
0.8639921 0.8857834 0.9092131 1.0157992 0.912131 0.9235479 0.95040166 0.9736995
0.8406667 0.82055426 0.70109713 0.889129 1.0308328 0.9774712 1.016076 1.020918

backbone.13.bias f4 [128]
00000000: 49ca bd3b f9cb df3c 1b7f 2c3c 96ac cb3a
00000010: 184d 8dba 300c 4e3d 2891 59bc 446c 7e3c
00000020: 8788 483d 04dd 603c cbc0 edbc d9a8 7c3c
00000030: a2be 0fbd 4cf5 1cbd 65dc 4d3c cf96 823b
00000040: 8bd0 063d 4976 37bd 5a03 c13a 37cd 5e3c
00000050: 7f79 43ba 6e83 72bc 6900 3d3d ecf7 c0bc
00000060: 0767 0abd 6857 a5bc c9a0 0c3d 275d 09bd
00000070: c464 5f3d fafa e03c 8a72 ba3c dfdb 1ebd
00000080: e8f0 673d 9dcc c73c f0b3 863b 51f2 aab9
00000090: 06c6 173c b8ed 083d 2d5e 83bc e377 403c
000000a0: 1632 a73c 2a03 9439 1b8e 513c d2c5 043c
000000b0: 92f0 7d3d faa1 703a 2346 0d3d 2048 283c
000000c0: eda9 623c c565 023d 6514 4dbc 34ca d83b
000000d0: 86a0 ef3c c7c3 2bbc a659 bcbc b116 45bc
000000e0: 7252 dabb ef8c ec39 b816 f13b 6e46 babb
000000f0: 85b3 263d b0c2 09bd 46fe 253c a065 ed3c
00000100: d684 7b3b 88cb 493d e4b6 55bd 1e54 043d
00000110: b584 8bbc 1f14 f93c 6225 a2bc 6c51 fe3c
00000120: d5ba 69bc 6b3d dfbc 4a3e 053d e87d 04bd
00000130: 81e0 3e3d 8985 5c3d 812f b33c deab adbb
00000140: fe7b e3bc e4da e9bc 2fa9 00bd 0ec4 c83c
00000150: 1b6a 58bd fbb5 1d3c cd79 023c 2a3d f53c
00000160: 00d3 1b3d 8d6e 5f3d 1d71 a9bc 886b cbbc
00000170: dcaa 603d 962a 963c 9a90 e3bb ae2b 8c3c
00000180: 0b8c ab3d a3ad ca3c 1cc5 a03c bfdb 713d
00000190: 6e7e e2bc 3988 ddbc 4ceb a3bc 9a1f d93c
000001a0: 2d4a 703c d2c0 233c ae65 b4bc 1ffb 023c
000001b0: 9870 7f3c f6a7 51bc b0d7 d93b 21be a63c
000001c0: 85df a23c fb7e 00bd fd27 10bd 14a5 9fbc
000001d0: 31a6 fe3c 01d8 d4bb 5389 64bd 9063 29bd
000001e0: 5e71 923b 0a35 fa3a e8b6 af3c 633c 8d3c
000001f0: 62c4 4c3d 8b10 f43c 7769 aebc bd61 e1bc
0.0057919365 0.027318941 0.010528351 0.0015539106 -0.0010780422 0.05030459 -0.013279237 0.015528742
0.048958328 0.013724569 -0.029022595 0.015421116 -0.03509391 -0.03831987 0.012564753 0.003985263
0.032913726 -0.04479054 0.001472573 0.013598732 -0.0007456764 -0.014801843 0.04614297 -0.023555718
-0.03378966 -0.02018328 0.034333024 -0.033536103 0.054539457 0.027463425 0.022759695 -0.038783904
0.05662623 0.02438956 0.0041108057 -0.00032605467 0.009263521 0.03342983 -0.016036117 0.011747333
0.020409625 0.00028231117 0.012790228 0.008103805 0.061997004 0.000917941 0.034490716 0.010271102
0.013834459 0.031835336 -0.0125170695 0.0066159014 0.029251348 -0.010483689 -0.022991966 -0.012029336
-0.0066626603 0.0004511843 0.0073574446 -0.0056846654 0.040698547 -0.033632934 0.010131424 0.028979123
0.0038378737 0.04926637 -0.05217637 0.032306783 -0.017031053 0.030405102 -0.019793216 0.031044684
-0.014265736 -0.027250966 0.032530107 -0.032346636 0.046600822 0.053838287 0.021873238 -0.005300029
-0.027769085 -0.028546758 -0.031411346 0.024507549 -0.052835565 0.009625907 0.00796361 0.029936392
0.038043022 0.05454879 -0.02068382 -0.024831548 0.054850444 0.018330853 -0.006944728 0.017110672
0.083763205 0.024741 0.01962524 0.059047457 -0.027648177 -0.027042495 -0.02000966 0.026504327
0.014666122 0.009994702 -0.02202114 0.007994442 0.015590809 -0.012796393 0.0066480264 0.020354332
0.019881973 -0.031371098 -0.035194386 -0.019487895 0.031085106 -0.0064954762 -0.055795025 -0.041354716
0.004469081 0.0019089293 0.021449521 0.017240709 0.049991973 0.029793045 -0.021290524 -0.027512426
