models/osu_model.pth (torch, 438927 bytes, 28 tensors)

backbone.0.weight f4 [16, 3, 3, 3]
00000000: 5aba 88bd c81d ee3d 93eb 4ebe 8c59 dabd
00000010: 4054 83bd 7240 1d3e eff7 863c f18f 52be
00000020: 9783 8b3d 0003 00bd bc47 43bd cfd1 033e
00000030: 6f38 0a3c 8017 a6bd 3bc1 98bc 6af9 82bd
00000040: abc8 5bbe f680 aaba 67ca 203e 76d3 e4ba
00000050: 46a1 33bc 7ce1 59bd 12d1 b8bd b9ea 513c
00000060: d590 573d 8be3 053e 16b8 6b3d 845f b63b
00000070: f582 3a3a ad06 073d 830f 84bd e25b 85bc
00000080: b282 10be 7e7a f43d c426 2ebd ddca ab3c
00000090: f726 c93d d22a 093e 29ff 2e3c a43d 053d
000000a0: 2533 2abc 9d44 9ebd 2615 4cbd 5b12 43bd
000000b0: f72d 973d f97f 9abd ed01 b5bd 5db3 e13a
000000c0: a8de bfbc 7459 e7bd 0e82 acbd 06a7 333d
000000d0: 743c 12be 8c4b 53bc 15c3 9dbb ced2 39bb
000000e0: 2e5a acbd 467f a33e ecc8 043e bf5e 603d
000000f0: 1532 5a3e 4a74 393d 4d32 a4bd 6e60 b7bb
00000100: 2cfa f13d 619b b5bd 8fe3 e7bd 25a4 48bd
00000110: bef1 ab3d 02f6 763d f358 25be a50c 42be
00000120: abee d33d 8bdf 8f3c aa04 b0bd 04c1 c83d
00000130: 44fe 2fbe a2f4 243d 9a76 b23c 6984 96bc
00000140: 1cf7 4fbe ff0e 49bd e2b4 de3c 79c8 133d
00000150: 9d0e 14bd 13a2 a5bd e773 273d 0fde 5d3c
00000160: 1e93 11bd ff25 adbd 45b1 d2bd 1eda 8cbd
00000170: 8f6a 73bc d9ff bbbc 00a4 a0bd 2d72 2e3d
00000180: 5572 66bd 2221 b03c bab4 9cbb 674f 1cbc
00000190: ce4d de3d 536b a2bc 99ad 23bd fdb2 cebc
000001a0: 5866 113c 9c04 9fbc 257f 01bd ea83 20bd
000001b0: ec30 04be 69e0 1d3e 75f8 2a3e dfe1 2c3e
000001c0: 7986 913b bc58 873d cd8e b5bd 4daf 8e3d
000001d0: 7398 92bd 799d 8f3d 0d9c 3f3d aa46 62bd
000001e0: 9799 e6bd 83cf a53d cade 24bc ba5c 27be
000001f0: 1310 93bc 24fe 1d3d 53d2 5e3e 54ab dfbd
00000200: 606b aa3d 6d34 19bd a5f2 65bd c93d abbd
00000210: 5502 7cbe 90dc efbd 93b4 163e 93bb b7bc
00000220: 655e 1f3e 16ca 883e 849d 54be da4b 57bb
00000230: a979 47be 49f3 4cbc 9570 e9bc 7fc3 353e
00000240: 6150 e5bd a30e a6bc ae56 70bd 60c0 4b3d
00000250: 298d c33d 41f8 203d a1e5 cabd d2ba 8fbc
00000260: b264 ec3d e72a a5bd 93d0 3d3d 24e3 eebb
00000270: feae f1bc 25a3 f4bd 10a4 373c 35ff d7bd
00000280: 1f74 32bc 174c 603e a7ad 14bd f587 2fbe
00000290: 4175 0ebe 12ed acbd 356e ec3d 2808 b0bd
000002a0: 8ab5 4e3d 2879 5d3c b735 693d 2dfc ad3e
000002b0: 7552 f13d be76 6abe 3c33 39be 66aa 1b3d
000002c0: ac1f b1bd 675b 723d 0c2b 4f3e dfef 0c3d
000002d0: 27c7 91bd ce8e d5bb 2666 fabc c379 4f3e
000002e0: 0d96 663d 4a13 0cbe 8372 c23d 59cc 74be
000002f0: dab1 9a3d a8b6 0d3e 7097 c6bc e62b 923d
00000300: 74c3 7cbd 2c7d cd3b e63a 8d3d c51b 43bd
00000310: 3047 65bd 52de edbc 0c45 723e 8701 6bbd
00000320: f845 133e 69c3 9e3c 3a5c 033d 1fb8 25bd
00000330: dc6f 503c 5fda b4bd 3102 853d ee6f c6bc
00000340: 3ea9 083e f035 fd3c b0d1 aebc 6deb 4e3c
00000350: f2f4 ea3d 54e1 cfbd a154 713d 7154 8d3d
00000360: abc2 d13d d675 0c3c 4d8c 0ebe a427 d33c
00000370: 1042 043e 1fda 99be 33ad 7c3e 9c41 053e
00000380: e645 bb3c 297a c33c a834 58be f50c 07be
00000390: d347 433c 3439 c53d 4bc7 243e 99aa 77bd
000003a0: 7dbb 24bd e3cc 5cbe 2185 963d a08f 81be
000003b0: dd8f 41be eab2 0d3d 1ba0 213d c292 97bc
000003c0: 26d3 b6bb 2cdf 153d 5185 b73d 2a86 d93c
000003d0: 75f7 4ebe cb9e 803c 42dc 113d 34c7 a23d
000003e0: beaa 21be 5aaf 383d d408 e8bd 919e e8bd
000003f0: ca4b ea3d d792 253e 9acc ce3d 0a1f 883c
-0.06676169 0.11626774 -0.20207052 -0.10661611 -0.06412554 0.15356615 0.016475646 -0.20562722
0.06812208 -0.03125286 -0.047675833 0.12873004 0.008436306 -0.08109951 -0.018646827 -0.06395228
-0.21463268 -0.0013008404 0.1570221 -0.001745804 -0.010963744 -0.053193554 -0.09024252 0.01281231
0.052628357 0.13075082 0.057548605 0.0055655856 0.0007114851 0.03296535 -0.06448271 -0.016279165
-0.14112356 0.11937426 -0.04251744 0.020970756 0.09821885 0.13395241 0.010680952 0.03252949
-0.01038817 -0.07727931 -0.049824856 -0.047624927 0.07381814 -0.0754394 -0.08838258 0.0017219592
-0.0234216 -0.11296359 -0.084232435 0.043860458 -0.14280874 -0.01289643 -0.0048145154 -0.002835441
-0.08415638 0.3193304 0.1296727 0.054777857 0.21308167 0.045276918 -0.080174066 -0.005596212
0.118152946 -0.08867527 -0.113227 -0.048984665 0.08395718 0.060293205 -0.16147213 -0.18950136
0.10348257 0.017562648 -0.085946396 0.0980244 -0.17186838 0.040272363 0.02178507 -0.018373685
-0.20309108 -0.049086567 0.027185861 0.036079857 -0.03614675 -0.08087554 0.040882017 0.013541712
-0.035540693 -0.08454513 -0.10287718 -0.0687754 -0.0148569485 -0.022949146 -0.078437805 0.042589355
-0.05626138 0.021500174 -0.0047822865 -0.009540415 0.10854684 -0.019826567 -0.039960478 -0.025231833
0.008874498 -0.019411378 -0.031615395 -0.039188303 -0.12909287 0.15417637 0.16696341 0.16883038
0.004441079 0.066087216 -0.08865128 0.0696703 -0.07157984 0.070124574 0.04677968 -0.05524317
-0.11259764 0.0809622 -0.010062883 -0.16343966 -0.017952 0.038572446 0.2175992 -0.1092135
0.083212614 -0.037403513 -0.056139607 -0.08361394 -0.24610265 -0.11711991 0.14717321 -0.02242831
0.15563352 0.2671668 -0.20763212 -0.0032851608 -0.19480003 -0.012509176 -0.028496066 0.17750357
-0.11196972 -0.020270651 -0.058676414 0.04974401 0.095484085 0.039299253 -0.099070795 -0.017545138
0.115426436 -0.080648236 0.04634149 -0.007290261 -0.029502388 -0.1194518 0.011208549 -0.10546724
-0.010891943 0.21904026 -0.03629842 -0.17141707 -0.13911916 -0.08443655 0.11544458 -0.08595306
0.050466098 0.013517655 0.056935992 0.33981457 0.117833056 -0.22896859 -0.1808595 0.0380043
-0.08648619 0.0591692 0.20231265 0.034408446 -0.071180634 -0.006517268 -0.030566286 0.20261292
0.056295443 -0.13679233 0.094944976 -0.23906077 0.07553454 0.13839209 -0.024242133 0.07137279
-0.061709836 0.006271025 0.068959996 -0.047633905 -0.055976093 -0.029036675 0.23659152 -0.057374503
0.1438216 0.019380288 0.032070376 -0.040458795 0.012721982 -0.088307135 0.064945586 -0.024223294
0.13345811 0.030909508 -0.021340221 0.012629372 0.11472501 -0.101504 0.0589186 0.069008715
0.10242208 0.008573016 -0.13920708 0.025775738 0.12915826 -0.30049226 0.24675445 0.13013309
0.022860479 0.023861961 -0.21113837 -0.13188536 0.01191898 0.09630051 0.16091649 -0.06046543
-0.040217865 -0.21562533 0.07349611 -0.2530489 -0.18902536 0.034594454 0.03945933 -0.018502597
-0.00557937 0.036589786 0.08960975 0.026553232 -0.20211585 0.015700718 0.035610445 0.07948151
-0.15787789 0.045089103 -0.11329809 -0.11358369 0.11440237 0.16169296 0.100976184 0.016616363

backbone.0.bias f4 [16]
00000000: c9c2 8836 39b2 c3b6 3840 1337 6add 25b6
00000010: 75d6 aeb6 6ebf 2a37 888c 1bb8 63c8 dcb5
00000020: 817a a0b7 11a5 0db6 ce42 6cb6 de30 b036
00000030: 4b6b 1236 3380 e635 2b31 ab37 619c 49b7
4.075792e-06 -5.8322007e-06 8.776835e-06 -2.4715796e-06 -5.21057e-06 1.017736e-05 -3.708576e-05 -1.6449598e-06
-1.9130532e-05 -2.1106719e-06 -3.5205626e-06 5.2508976e-06 2.1818148e-06 1.7173646e-06 2.0407684e-05 -1.2016943e-05

backbone.1.weight f4 [16]
00000000: fce4 7c3f 8b0b 6e3f e892 813f 87b2 683f
00000010: 1999 7e3f a12b 7c3f d20e 783f b137 733f
00000020: bf64 7a3f 0a34 653f a94a 693f 6c6b 8a3f
00000030: 8e0d 763f 76b2 733f a04b 663f 70e0 6a3f
0.987869 0.92986363 1.0122957 0.9089741 0.9945236 0.9850407 0.96897614 0.95006853
0.97809976 0.8953253 0.9112955 1.0814033 0.9611443 0.95194185 0.89959145 0.91748714

backbone.1.bias f4 [16]
00000000: 671f 753b 20a4 ccbd 745b 8a3d 3170 15bd
00000010: 1333 a83b 02aa 753d 3b2e 7e3d f71e fa3c
00000020: 173c 0a3c 3893 51bb a9eb 3d3c c4cd 5e3d
00000030: 40c3 c93c 23f1 70bd 5191 1fbd ae36 0b3d
0.003740275 -0.09992242 0.067557245 -0.036483947 0.0051330416 0.059976585 0.062055808 0.030532343
0.008437178 -0.0031978618 0.01159183 0.054395452 0.024629235 -0.058823716 -0.038956944 0.033987693

backbone.1.running_mean f4 [16]
00000000: ed6a c63e 66af 743e 6f70 30be 43e2 e03e
00000010: bae9 f5bd 56fa 96bd a39a f63c e75f 00bf
00000020: 5d79 403e eb14 efbe fc48 5a3e 3428 c0bc
00000030: 222b 23bf 9013 213d 094c 673d ddd0 a4be
0.38753453 0.23895034 -0.1723039 0.43922624 -0.120074704 -0.073719665 0.030103033 -0.50146335
0.18796296 -0.46695647 0.21316904 -0.02345667 -0.6373769 0.039325297 0.056468997 -0.321906

backbone.1.running_var f4 [16]
00000000: d44d 913e b7c4 b83e 79f2 303e 7413 143f
00000010: d94b 9e3d 78ae 183e 47be d63d c296 783f
00000020: e9cd c43e 0550 7a3f 26b2 983e 8805 b03e
00000030: 9deb e23f e1ea b13d 713d d63d 8a6f 3b3e
0.2837969 0.36087582 0.17279996 0.57842183 0.077293105 0.14910305 0.10485511 0.9710504
0.38438347 0.9777835 0.29823416 0.3437922 1.7728153 0.08687378 0.10460938 0.18304268

backbone.4.weight f4 [32, 16, 3, 3]
00000000: 20f6 fc3a 5afb 793d 7c9f b53c 9e99 fd3d
00000010: 50bd a9bd d2c1 78bd 3113 bc3c 2938 123d
00000020: 3e38 d2bd 0005 ac3c 4340 a2bd 5800 dfbb
00000030: 6f13 63bd c52c e23d d8a1 a53d eec4 3f3d
00000040: 71de 803d 131e 803d 7288 923d 3258 19bc
00000050: 69c9 973b d512 af3c 8f85 fb3c 97e7 e7bd
00000060: 047b 923d 2be0 5dbd e24e 03be 8838 ecbd
00000070: 0269 13bc a2b8 c13d 9cd7 27bd 36ff 52bc
00000080: b5bf 37bd 25ad 023d 6550 8dbd b8cf 9cbd
00000090: 50bf 3dbd ceea cdbd 0f12 243d b566 eb3d
000000a0: deb0 03be 32e8 cfbd 79b6 56bd 0525 e1bd
000000b0: b289 ffbd 5779 433d 1c8f b93d 9fdb a43b
000000c0: 7d7e af3d 468f 7ebd 2a8f e0bd bee0 1ebd
000000d0: 7251 31bd a59b b9bd b2a2 d73d 55d6 af3b
000000e0: f61f e33d ca33 d73d 39ac e139 06e6 a33b
000000f0: 46c4 0a3e fbf7 01be 5395 1ebe ccd7 a8bd
00000100: a60f 0c3c 44f2 bf3d 9a1b 823d 5ea2 a43d
00000110: 2b4b bfbc 7d53 3e3d 7845 bc3b 9818 943c
00000120: a0e8 17be d228 893a 5b66 9bbc dca5 ce3d
00000130: 055c ed3c d19d c2bd c6a1 cebd a105 333c
00000140: c478 6ebc 07ef 513d 3853 54bc 7492 443d
00000150: bbe2 a4ba 43d7 323c f9b3 643d 0d30 9abd
00000160: ccc4 7bba bee7 e6bd f9a7 88bd b216 763c
00000170: 2225 4f3d e6dd e5bd 67f4 37be 52f1 9ebd
00000180: fd96 f7bd 7db7 113d 089d e03c 6662 afbd
00000190: 534d a2bc 3292 c5bc 2768 eebd 5361 ddbd
000001a0: fab4 18be b778 12bd c577 4bbd 5501 36be
000001b0: 2905 873c c20b eabd 2649 ae3d d192 96bd
000001c0: ab0d dd3d 9bb7 933d f1f5 f33c caa2 6cbc
000001d0: cd32 81bd 448b f03d b426 603c 7b6a 84bd
000001e0: 4733 fe3d fb4f 733d da0c bbbd 246b 41bc
000001f0: 057f f3bb 039e 0fbe d609 02be 8682 94bd
00000200: 5b4f b6bb f83d 3a3d 65ad 423d f281 873d
00000210: d79d 3abd e58a d4bc 3cd7 063d 3bb8 3d3e
00000220: a53b 6fbc 89b5 80bd fd87 14bd 0ef1 babd
00000230: 6464 173c 8857 28bb edd5 c3bd 9598 a43c
00000240: 8dfd aebd a2c3 2cbd f785 2abe aca1 3f3d
00000250: 5b09 4a3e 1b74 febb b355 00bd 8c40 dcbd
00000260: 57e6 5cbd 0c82 8a3c ea0b 34b7 f7ce af3c
00000270: c1a5 0bbe ecfc 153d 3146 393e 0683 c0bd
00000280: d139 f63d d835 1b3e 2b41 37bd 9c45 8ebb
00000290: 795c a13d d9a3 09be 1479 b33d e39a 86bb
000002a0: 2e8f d33d 64b0 063e 7282 773d 83af f2bd
000002b0: 4046 7b3d 953c 4dbc 682a 43bd 66f9 933c
000002c0: 0052 0ebd 812c 1f3d dbef e5bc a407 d8bd
000002d0: 98fa d2bd d66e 83bd 7ac5 7abd be9e 33bd
000002e0: d8c2 d3bd cd6b a9bd d1ca afbd 34e4 0dbe
000002f0: 050e 603c b7ea 9d3d a374 953d a81e 733d
00000300: cdde 9e3d af22 1ebd ee8c 2fbd 12aa 803c
00000310: addd 57bd b4dc 53bd ca5e b6bd 0b7b 20be
00000320: 050f 413c 0d08 c93c 5744 4ebd 422b 28be
00000330: d7ff a03d 2f9b 313e b714 123d 62c8 0b3b
00000340: 93a2 55bd 113d 23bd bf66 a03c 58f6 073d
00000350: ce8f 96bd 8343 25bd 970f 263d 59cb 95bc
00000360: 1879 c3bc d93d 98bc 5140 15bd 50ce ebbc
00000370: b550 b9bb 8df3 3a3d edd1 0dbd 315d de3c
00000380: 6615 a33d ba4e abbd 5af0 5cbd 7eee b0bd
00000390: bf17 e6bd 6e8e b3ba 53fc b63d 8db8 053d
000003a0: 0d3c d63b c2b3 c23c c7e1 1fbc 2219 183d
000003b0: a946 34bb adc5 273d 4810 62bd 4c95 9dbc
000003c0: 1f43 373d c2c0 6fbc f7d1 323d 6af8 493c
000003d0: 582d e0bd 5d86 d5bd f1b2 f33d c66e 793c
000003e0: f73f 85bd 7b50 b73d f60f 6a3c e1f4 b9bc
000003f0: 95d0 d8bd 4af8 b53d 5b2c 383c 8018 4dbb
0.0019299425 0.061030723 0.022170775 0.12382816 -0.082880616 -0.060731716 0.02295837 0.03569809
-0.102646336 0.020998478 -0.07922413 -0.006805461 -0.055438455 0.11043695 0.0808751 0.046818666
0.06292427 0.06255736 0.07154931 -0.009359406 0.0046321643 0.021371284 0.030703334 -0.11323469
0.071523696 -0.05416886 -0.1282306 -0.1153422 -0.008997204 0.09459044 -0.040977105 -0.01287823
-0.04486056 0.031903405 -0.069001 -0.07656807 -0.046325028 -0.10054551 0.040056285 0.11494199
-0.12860438 -0.101517096 -0.052420113 -0.10993389 -0.12477435 0.04772314 0.09060499 0.0050310637
0.085690476 -0.062148355 -0.109648064 -0.03878855 -0.043290563 -0.0906289 0.105290785 0.0053661265
0.110900804 0.10507925 0.0004304366 0.005001786 0.13551435 -0.12692253 -0.1548665 -0.08244285
0.008548653 0.093723804 0.06352921 0.080387816 -0.023351273 0.04646634 0.005745586 0.018078133
-0.14834833 0.0010464436 -0.018969705 0.10090229 0.028974542 -0.09502757 -0.100894496 0.010926635
-0.01455516 0.051253345 -0.012959294 0.04799123 -0.0012579778 0.01091558 0.055835698 -0.07528696
-0.0009604215 -0.1127467 -0.06672663 0.015020059 0.050572522 -0.112239644 -0.17964326 -0.07760872
-0.120893456 0.03557538 0.027418628 -0.0856369 -0.019812262 -0.024117563 -0.11640959 -0.10809579
-0.14912787 -0.035759654 -0.049674768 -0.17773946 0.016481953 -0.11428024 0.08510046 -0.07352222
0.107936226 0.07212754 0.02978036 -0.014443109 -0.063085176 0.11745313 0.013681103 -0.06465622
0.12412124 0.059402447 -0.091333106 -0.0118053295 -0.0074309134 -0.1402512 -0.12699065 -0.07251458
-0.005563659 0.045469254 0.047528643 0.06616582 -0.045560684 -0.025945136 0.032920107 0.1852731
-0.014601623 -0.06284625 -0.0362625 -0.09128009 0.009240244 -0.0025686938 -0.095622875 0.020092288
-0.08544455 -0.042178757 -0.16652666 0.04678504 0.19730131 -0.0077653057 -0.03133173 -0.10754499
-0.053930607 0.016907714 -1.073161e-05 0.021460993 -0.13637449 0.03661816 0.18093182 -0.09399991
0.12022746 0.15157259 -0.044739883 -0.004341794 0.07878966 -0.13441409 0.08763328 -0.0041078194
0.10330044 0.13153225 0.060427137 -0.118498825 0.061346292 -0.012526651 -0.047647864 0.018063258
-0.03474617 0.0388608 -0.028068474 -0.10548332 -0.10301703 -0.06417625 -0.061223485 -0.04385256
-0.10339898 -0.082725145 -0.08583606 -0.13856584 0.0136752175 0.07710784 0.07297637 0.059355408
0.077573396 -0.038607296 -0.04285901 0.015706096 -0.05270164 -0.05172415 -0.08904798 -0.15671937
0.011783366 0.024539972 -0.050358143 -0.16422752 0.078612976 0.17344354 0.035664286 0.0021329154
-0.052156996 -0.03985316 0.019580243 0.033193916 -0.07351647 -0.040347587 0.04054221 -0.01828544
-0.023861453 -0.018584179 -0.03643829 -0.0287849 -0.005655373 0.045642424 -0.03462403 0.027144047
0.07963066 -0.08364625 -0.053940155 -0.08639239 -0.11234998 -0.0013699064 0.08934846 0.032646704
0.0065379203 0.023767356 -0.009758419 0.037133344 -0.0027507937 0.040960003 -0.05519131 -0.01923623
0.044741746 -0.014633359 0.04365727 0.012327293 -0.10946149 -0.104260184 0.11899365 0.015224164
-0.06506341 0.08950897 0.014286032 -0.022699775 -0.10586659 0.08885248 0.011241044 -0.003129512

backbone.4.bias f4 [32]
00000000: ba02 32b5 7edd 27b6 3eef 2a36 a840 82b6
00000010: 580e f7b5 ed0c 0e36 9c1d 57b6 c3fd 1436
00000020: cc04 2735 5b11 cb35 63b9 f6b5 bde1 1434
00000030: c6b3 b7b5 103a 57b6 20f9 f335 9499 0136
00000040: 95cf 2cb6 11d2 c9b6 7879 8634 9939 8b35
00000050: 0163 1436 3094 cab3 962b 5c34 02c6 b4b5
00000060: 52d8 c636 f200 9336 f53e 9936 23cc 3136
00000070: 2432 1a36 4fd0 22b6 29ec 1535 3c99 1b36
-6.6314135e-07 -2.5013865e-06 2.5471231e-06 -3.881829e-06 -1.8407109e-06 2.1167173e-06 -3.2054731e-06 2.2201427e-06
6.221933e-07 1.512973e-06 -1.8382383e-06 1.3865697e-07 -1.3686883e-06 -3.2071293e-06 1.8177416e-06 1.9311892e-06
-2.5750826e-06 -6.0147217e-06 2.5047825e-07 1.037307e-06 2.2111346e-06 -9.433313e-08 2.0504953e-07 -1.3468673e-06
5.926043e-06 4.3810514e-06 4.5670845e-06 2.6493879e-06 2.2976974e-06 -2.4261133e-06 5.5850484e-07 2.3185994e-06

backbone.5.weight f4 [32]
00000000: 9e37 753f 74f5 6a3f 2c9b 6b3f f99b 7d3f
00000010: 8491 753f 983c 773f e3fc 5e3f 1bde 5c3f
00000020: b923 763f 4e64 623f faf8 6f3f 62cb 633f
00000030: 2693 623f f17e 6a3f 76f2 5e3f 9769 633f
00000040: 0596 5b3f c97c 663f 2c9a 7d3f 81b4 6e3f
00000050: e1b7 793f 8d3b 803f 5ee9 793f f754 7f3f
00000060: 1293 6a3f f173 813f 658d 833f ca0b 483f
00000070: d4a6 6f3f 47b0 6c3f 52e2 753f d61e 643f
0.9578799 0.9178078 0.9203365 0.9906612 0.95925164 0.96576834 0.87104625 0.86276406
0.9614826 0.884343 0.93739283 0.8898221 0.8850578 0.9159995 0.87088716 0.8883299
0.85775787 0.9003416 0.9906337 0.9324418 0.975462 1.0018173 0.97621715 0.9973902
0.9163066 1.0113508 1.0277525 0.7814299 0.93613935 0.9245648 0.9604846 0.8910955

backbone.5.bias f4 [32]
00000000: 529d 9f3d 43aa b0bc 18f5 8cbd dcdc 1a3d
00000010: 5aca 033d 0d31 813d b38e 90bd 5779 dd3b
00000020: 994d 34bd 5994 4cbd 42a1 a2bd b97e 28bd
00000030: ada6 3fbd 5fdd 37bd c930 fdbc 3b17 cabc
00000040: 3097 fd3b 76cb 7dbd 5806 f83b b76d c7bd
00000050: 753b 623c be05 69bc 5121 e7bc 0ced 143d
00000060: f178 5bbd dee1 003d 212a 943d 7ef8 08bd
00000070: bbd1 a1bd 454e 823d cbff 48bd 1e50 c937
0.07793678 -0.021565562 -0.068826854 0.037808284 0.0321754 0.06308184 -0.07058468 0.0067588496
-0.044019315 -0.049946163 -0.07940914 -0.041136477 -0.046789814 -0.04488885 -0.030907052 -0.02466928
0.00773897 -0.061961614 0.0075691156 -0.09737723 0.013808121 -0.01422256 -0.028214129 0.036358878
-0.053582136 0.031465404 0.07234598 -0.033440106 -0.07901331 0.06362585 -0.04907207 2.3998375e-05

backbone.5.running_mean f4 [32]
00000000: 915e 42bf 7673 eabe e117 90bd 9c3c 37bf
00000010: 1a99 b1be 0318 03bf ab44 18bf f9eb f9be
00000020: 944f 0bbf 9a9d 5fbf a772 07bd 9e91 0fbf
00000030: e6db 3abf b5ba c7bf db08 eebe 23aa eebe
00000040: abc6 15bf 0393 92be c4ea 73be 1475 ce3f
00000050: 5081 7abe 72c9 1ebf 6649 ae3f 1d32 eabe
00000060: 0e28 2d3f 1c20 28bf 9657 6ebf c373 2cbf
00000070: a55a bbbf 2749 bdbf 9267 143f 2ad8 1f3f
-0.75925547 -0.45791215 -0.070358045 -0.7157686 -0.3468712 -0.51208514 -0.5947978 -0.48812845
-0.544183 -0.87349856 -0.033068325 -0.5608157 -0.7299179 -1.5603853 -0.4649113 -0.4661418
-0.5850627 -0.28627786 -0.23820025 1.612948 -0.24463391 -0.6202613 1.361615 -0.45741358
0.67639244 -0.65673995 -0.93102396 -0.6736414 -1.4637038 -1.4787949 0.57970536 0.62439215

backbone.5.running_var f4 [32]
00000000: b3e3 a33f c9ef 073f cc86 ec3e 930d 183f
00000010: c173 4a3f 5be6 c13e 458b 193f 26df 2b3f
00000020: 1191 933f 4df1 423f c58d 8a3f a138 1f3f
00000030: d176 703f 3ae1 3e3f fe3d 503f 6f8a 603f
00000040: b046 0f3f 935c e83e f2ef 563f 1b7c 8c3f
00000050: e588 d63e 57ec 143f e623 fa3f 90cd 083f
00000060: 2366 2e3f 0ddd ed3e 954d 733f ad6c 8b3f
00000070: 4b75 0040 d52a cb3f 934e 8f3f 3940 833f
1.2803863 0.5310026 0.46196592 0.5939571 0.79082876 0.3787106 0.59978133 0.6713737
1.1528646 0.76149446 1.0824515 0.62195784 0.939313 0.7456242 0.8134459 0.8771123
0.55967236 0.4538313 0.8395988 1.0975374 0.41901317 0.58173126 1.9542205 0.53438663
0.681246 0.4645771 0.95040256 1.089254 2.007159 1.5872446 1.1195854 1.0253974

backbone.8.weight f4 [64, 32, 3, 3]
00000000: 8b62 743c dad6 10bd 2749 d3bb 47e9 c23d
00000010: 9343 26bc 06ba 493c 78d9 a8bc 8e88 263c
00000020: f8bb af3c 9089 01bd 52d6 b63c 5e08 e23c
00000030: 4736 22bd 4bd0 6dbd 4f92 043d abe2 c2bd
00000040: 20a5 d63c 667c 933c 0edb 8d3d 236c 9f3c
00000050: c734 f43c e073 97bd f82f b23c c2a1 e1bd
00000060: a7fa 99bd 24e7 30bd 147b d2bd 36d3 9e38
00000070: 2680 a13d 973c df3c 84b3 84bd 8a8b 0c3b
00000080: 1933 f43c 1b15 97bd 2f99 8ebd 677a 103d
00000090: cc27 393d 5b74 933c c064 89bd 1308 a53c
000000a0: 5ce5 8c3c 5d53 133b 3161 f2bd 9404 913c
000000b0: fd98 11bd 68ee 213e cf91 083e d8b1 8a3c
000000c0: 6e8c d43d 6aa9 bb3c 207e 013d c188 75bc
000000d0: 0a62 3cbb 0354 3a3d d50c 213d 5a9d c6bc
000000e0: fbf2 3ebc 7fde a5bc 77c1 5bbd caf9 453d
000000f0: be79 94bd 012e e4bd fc0e bbbc 824d 0cbe
00000100: dc64 b03c b1d3 30ba 27fa 493c d308 50bd
00000110: d499 edbb 8558 64bd f679 343d f8d6 ae3d
00000120: cebc 963b a505 c93d f55e 893d a840 0ebd
00000130: ac07 ec3b 149c 663d 67ed 85bc 46cb 1a3c
00000140: 34a1 4e3c 7f67 a6bc e10c ad3d 634e 053e
00000150: f664 6b3d 542c bcbd 16c7 9bbd c759 b23d
00000160: 1ca4 82bd a449 6d3c 46d1 c3ba 5965 87bb
00000170: 1f10 40bc ba30 ac3c 0b68 0a3d 9c61 223c
00000180: 87ec 403d 8988 4f3d 01b8 88bc 44c3 af3b
00000190: efdb d83b 46c4 7cbb 9541 8abd 42fb 653d
000001a0: a738 b13d fb04 9dbc d049 63bd 4ccc 743c
000001b0: d0bb 98bd f219 323d a9e4 41bc 3482 3c3d
000001c0: 6e30 11bd b538 bbbd 3685 273d 1ee4 6b3c
000001d0: 732f bebc fc4c 033e 79d5 5ebb 7b01 9ebc
000001e0: 645d 023d 7708 2bbd af8a 85bd a998 9bbc
000001f0: abb0 a63d eb2a 71bd 1e71 403d 312b 9f3c
00000200: 2e78 2abd 4b59 153d b325 833d e39c 053c
00000210: 48a3 133d 7b38 f1bc 5988 f13c c963 fb3b
00000220: 5c8b ef3c f2f7 d1bc 9fd2 2a3d e895 4cbd
00000230: 71b4 54bd 3893 853d f6dc f1bc 281c 50bd
00000240: b3c8 6c3c 827c 12bd 20ae 123d 0ae3 57bd
00000250: 4dcb 973c 2a34 953c 5983 92bd 66c4 b4bc
00000260: a4ac 2fbc 11da 313d b257 e9bc b88b 933d
00000270: 4cc6 03bd bcea a3bd f1a0 dcbc a2b5 243d
00000280: ebdb 16bd 8d76 3dbd 348a a3bc c8c3 2e3d
00000290: bb87 3d3c fe05 79bd e981 e13d 1426 e53b
000002a0: 73d2 eb3c accd 813c d202 60bd b3c4 9b3c
000002b0: a0af b53d 54d0 4b3a 3bc5 3ebd 9862 2e3d
000002c0: 49f8 f73c 7c90 a03a 56a6 7b3d bf93 adbd
000002d0: 83ff 943d 39e4 b4bd 8a3e e7bd e9f4 a23c
000002e0: 5fa8 5a3d 527d f5bd 40fa 18bc cade bcbd
000002f0: adc3 3d3c 6d12 973d 2018 c5bc 9257 e2bc
00000300: 8067 253e 43af d03d 64ff c8bd cee3 b63c
00000310: eb38 843d cd9b 0e3d 8494 a7bd bb73 72bd
00000320: 6d3e 30bc 23d7 55bd 7af5 26bd 961c 163d
00000330: a500 54bd 0ad0 873c 4953 e3ba 4144 ac3c
00000340: 44b7 79bc 3a1f 41bd 7bc7 aabc e0d3 a63d
00000350: b0b7 05bd c785 6f3c 75f2 7bbd fe3d 67bd
00000360: faa1 bfbb 7478 73bd 289f 683d 774a 93bd
00000370: 2a42 103c 0a26 073d 0b3f 5ebc 97f5 b1b9
00000380: 21d1 01bd 20ad 21b9 edcc ab3b c3d1 5bbd
00000390: bda8 f0bd 003f 023d 1380 62bd 9098 bdbd
000003a0: 07f4 c6bd 21da d8bd f5bd 083b 21dd 3fbc
000003b0: 3633 573d 3f23 8cbd 5be8 3cbd f9dd 10bd
000003c0: fb03 5eb9 524c 3fbb 1132 083d 0221 633d
000003d0: 9065 6e3b d850 4ebc db86 b0bc 0d5e c6bc
000003e0: b24d 6fbc d964 10bb 8225 0d3d 84a1 13bd
000003f0: df7a c53b 00d7 8dbd 2514 22bd 1c91 85bb
0.014916073 -0.03536115 -0.0064479294 0.0951715 -0.010147947 0.012312418 -0.02061151 0.010164393
0.021451935 -0.03162533 0.022318993 0.02759188 -0.039602544 -0.05805997 0.032366093 -0.0951589
0.026201785 0.018003654 0.06926547 0.019460743 0.029810322 -0.07395148 0.021751389 -0.11017181
-0.07518511 -0.043189183 -0.102773815 7.573368e-05 0.078857705 0.027250571 -0.064795524 0.0021445476
0.029809522 -0.073770724 -0.06962811 0.035272982 0.04520397 0.017999819 -0.0670867 0.020145452
0.01719921 0.0022480108 -0.11834944 0.017702378 -0.03554629 0.15813601 0.13336872 0.016930506
0.10378347 0.022907931 0.031614423 -0.014986218 -0.002874496 0.045490276 0.03931888 -0.024244953
-0.011654611 -0.020247696 -0.0536513 0.04833392 -0.07249783 -0.11141587 -0.022834294 -0.13701442
0.021532468 -0.00067454117 0.012327707 -0.050789665 -0.0072510038 -0.05574848 0.044061624 0.08537096
0.004600144 0.0981553 0.06707565 -0.03472963 0.007203063 0.05630119 -0.016348554 0.009447878
0.012611676 -0.020313023 0.08449722 0.13018183 0.05746933 -0.091881424 -0.07606332 0.0870853
-0.06378958 0.014482889 -0.0014939688 -0.0041319546 -0.011722594 0.021019328 0.03379063 0.009910967
0.04710057 0.05066732 -0.016689302 0.0053638536 0.006618015 -0.0038569137 -0.0675079 0.05614782
0.08653384 -0.019167414 -0.055490315 0.014941286 -0.074576974 0.043481775 -0.011834302 0.04602261
-0.035446577 -0.091416754 0.040898524 0.014397649 -0.023215985 0.12822336 -0.0034001751 -0.019287815
0.031827345 -0.04175612 -0.065205924 -0.018993692 0.081391655 -0.05887882 0.046982877 0.019429775
-0.04161852 0.03646211 0.06403675 0.0081550805 0.03604439 -0.029445877 0.029483961 0.0076718074
0.029241256 -0.025630925 0.04170477 -0.04994765 -0.051929895 0.065222204 -0.029524308 -0.050808102
0.014452147 -0.03576327 0.03581059 -0.052706756 0.018529559 0.01821335 -0.07153959 -0.022066306
-0.010722313 0.043420855 -0.0284842 0.072043836 -0.032171533 -0.080037564 -0.026932212 0.04021228
-0.036830824 -0.046255637 -0.019963361 0.04266718 0.011568005 -0.06079673 0.110111065 0.0069930647
0.028786873 0.015845142 -0.05469019 0.019014692 0.088713884 0.0007774879 -0.046574812 0.042574495
0.030269759 0.0012250091 0.061437927 -0.08475446 0.072752975 -0.088325925 -0.11291225 0.019892173
0.053383227 -0.119867936 -0.009337008 -0.09222181 0.011582297 0.07376561 -0.024059355 -0.027629647
0.16152763 0.101896785 -0.09814337 0.022325423 0.06456169 0.034816552 -0.08182624 -0.0591924
-0.010757071 -0.052207123 -0.04076145 0.036648355 -0.051758427 0.016578693 -0.0017343546 0.02102864
-0.015241448 -0.04714892 -0.020847073 0.08145881 -0.03264588 0.014619297 -0.061510522 -0.056455605
-0.0058481665 -0.059441045 0.05679241 -0.071919374 0.008804837 0.03299526 -0.013564835 -0.0003394305
-0.03169358 -0.0001541865 0.005242935 -0.05366684 -0.11750934 0.031798363 -0.055297922 -0.092576146
-0.09714513 -0.1058848 0.0020865176 -0.011710436 0.052539073 -0.0684266 -0.04612003 -0.03536794
-0.00021173053 -0.0029189778 0.033250872 0.0554514 0.0036376454 -0.012592517 -0.02154868 -0.024214769
-0.014605926 -0.0022032766 0.0344596 -0.036042705 0.0060266103 -0.069257736 -0.039569993 -0.0040761363

backbone.8.bias f4 [64]
00000000: df42 46b6 9c52 8a34 20ca a1b5 0d8f 50b4
00000010: d13f 1934 50a2 0b35 0ff1 20b4 f869 8a35
00000020: 9f14 1ab6 d5ca 9735 951a e7b3 22f7 8c34
00000030: 925d 6036 439d 9bb6 0bb8 0e36 ec44 7a35
00000040: 5908 0e35 7791 f436 7160 b6b5 af80 28b5
00000050: b1dc 2835 be6b e1b1 1403 8e34 8c78 ccb4
00000060: 1521 77b4 8228 3c34 4b75 1836 13b7 8bb4
00000070: 7ade 16b5 2822 95b5 586e 1fb4 4918 24b5
00000080: 32bc 1c34 1f98 0bb6 d912 b333 1b74 6b34
00000090: b921 3bb3 208c a935 e804 52b6 3f20 9ab4
000000a0: 6029 9d34 a5b4 f633 586f 6fb5 bd88 99b0
000000b0: 4263 9235 1ca8 4234 cf22 c0b5 e5ce 6735
000000c0: d581 e6b2 d87a 8bb5 c5ad 8033 d97e 1ab5
000000d0: 407a e235 98ec 4134 7dc3 d7b4 2c71 0b35
000000e0: bd4a 1734 6121 0db4 de45 f433 b35e c635
000000f0: c488 8235 9116 6cb5 a415 36b5 43a2 8934
-2.9543223e-06 2.576461e-07 -1.2054261e-06 -1.9423551e-07 1.4272452e-07 5.201773e-07 -1.4988858e-07 1.0312642e-06
-2.2959791e-06 1.1309409e-06 -1.0761611e-07 2.6256845e-07 3.3433066e-06 -4.6376676e-06 2.1266776e-06 9.323255e-07
5.291127e-07 7.288701e-06 -1.3588125e-06 -6.2772136e-07 6.2906025e-07 -6.5606107e-09 2.64518e-07 -3.808567e-07
-2.3015703e-07 1.7523601e-07 2.2718039e-06 -2.6023972e-07 -5.62031e-07 -1.1111306e-06 -1.4848172e-07 -6.11301e-07
1.4597097e-07 -2.080116e-06 8.3387654e-08 2.192832e-07 -4.357e-08 1.2632263e-06 -3.1295294e-06 -2.8708197e-07
2.9273633e-07 1.1488127e-07 -8.9196465e-07 -1.1171079e-09 1.0906735e-06 1.8128816e-07 -1.4315245e-06 8.6355277e-07
-2.6834565e-08 -1.0392059e-06 5.992073e-08 -5.755406e-07 1.6873892e-06 1.8060598e-07 -4.0189107e-07 5.194622e-07
1.409016e-07 -1.3143791e-07 1.1374844e-07 1.4779711e-06 9.725559e-07 -8.794969e-07 -6.7831775e-07 2.56363e-07

backbone.9.weight f4 [64]
00000000: 5a93 673f eed0 393f a822 4a3f fde4 503f
00000010: 3bde 1b3f 5f18 3c3f 24e4 423f 8be4 763f
00000020: e7cb 783f a86e 5f3f ae63 593f 0021 5f3f
00000030: bfa7 693f 03e9 783f 664f 633f 0bdf 743f
00000040: d203 673f 6cd7 763f ba13 6e3f 7f91 443f
00000050: 93f1 283f ce4e 393f eab7 603f 6ec4 1a3f
00000060: 40f5 643f 2b63 3a3f 0149 553f eaf5 643f
00000070: 86c5 573f 6563 6f3f 19b9 523f 2447 4b3f
00000080: 30c9 573f 2caf 6a3f 4912 4e3f 3a7e 4c3f
00000090: 1b77 233f 0165 4c3f 9a96 713f ff3a 6b3f
000000a0: 073c 5d3f f5ba 693f 3dd1 5d3f 9ab3 533f
000000b0: 548c 6d3f b651 713f 189b 763f 449a 4e3f
000000c0: c4e1 433f 5755 763f 98a9 313f 53ad 333f
000000d0: 5d3f 573f 24b2 393f 28d6 353f ad99 743f
000000e0: ac3f 6f3f c3f9 2c3f 566b 2a3f d867 673f
000000f0: 4f42 523f a809 673f c6d9 4c3f cc1f 113f
0.90459216 0.72584426 0.7895913 0.8159941 0.6088597 0.7347469 0.76129365 0.9644248
0.9718613 0.87278223 0.84917724 0.8715973 0.91271585 0.9723055 0.8879303 0.95652837
0.90240204 0.9642246 0.9299885 0.7678451 0.65993613 0.7238587 0.8778063 0.6045598
0.8943672 0.7280757 0.8331452 0.89437735 0.8428577 0.9351104 0.82313687 0.79405427
0.8429136 0.9167354 0.8049665 0.79880106 0.63853616 0.7984162 0.94370425 0.91886896
0.8641972 0.913009 0.866474 0.82695925 0.9279225 0.94265306 0.96330404 0.8070414
0.76516366 0.9622397 0.69399405 0.70186347 0.8408106 0.72537446 0.710299 0.9554699
0.9345653 0.67568606 0.6657003 0.9039283 0.8213243 0.9024911 0.80019796 0.56689143

backbone.9.bias f4 [64]
00000000: 30ee 8cbd 8692 85bd 09fb cbbd c0b3 87bd
00000010: 8e02 c3bd 95d3 b3bc fe80 b5bd 8c6b d9bd
00000020: 93b0 35bd f658 f0bd 4da1 89bd 7f06 45bd
00000030: d7db 3cbb e53d 42bd e761 953c 0552 c8bc
00000040: 5f35 7dbb 5e6f 1fbd 8755 e9bd 02b6 7bbc
00000050: 4ae4 cfbd ec31 0ebd bdec c3bd bd9c aabd
00000060: cd28 d1bd 2a45 d8bd 3fc4 f3bd 3686 f6bd
00000070: b58d e5bd 2aa6 1abd 52b9 d1bd 0c12 adbc
00000080: dea6 41bd f9fd a6bd 720a 19bd 43ea 64bd
00000090: da35 eebd c0bd a8bd 7738 4dbd 6e1b d2bc
000000a0: f5f3 5fbd 6cb3 1bbe 486d 8b3c d2db 84bd
000000b0: f48b c6bd 69af 71bd 703e 31be 2e4b 92bd
000000c0: 69b4 8cbd 700f 37bd 6329 edbc 06bb a2bd
000000d0: 89c5 71bd 86ac c0bd 0400 1fbd 7de9 19bd
000000e0: 1811 4abd 2b3b e9bd 6adb 1cbe cf94 32bd
000000f0: 8f05 fbbc 1c70 b4bd a506 0abd 818f 09bd
-0.06881368 -0.06522088 -0.099599905 -0.066260815 -0.09521972 -0.021951476 -0.08862494 -0.10616216
-0.044357847 -0.11735718 -0.06720219 -0.0481019 -0.0028817558 -0.04742231 0.01823516 -0.024453172
-0.0038636548 -0.038924567 -0.11393266 -0.015363218 -0.101509646 -0.034715578 -0.095666386 -0.08330677
-0.1021286 -0.10560067 -0.11902665 -0.120373175 -0.11208669 -0.037756123 -0.10240425 -0.02112677
-0.047278278 -0.0815391 -0.037363477 -0.055887472 -0.11631365 -0.08239317 -0.050102677 -0.025647845
-0.054676015 -0.15205163 0.017019883 -0.0648724 -0.09694663 -0.059005175 -0.17308974 -0.07143246
-0.06870348 -0.044692457 -0.028950399 -0.07945828 -0.059026275 -0.09407906 -0.038818374 -0.037576187
-0.049332708 -0.113882385 -0.15318075 -0.043598946 -0.030642299 -0.08810446 -0.033697743 -0.03358412

backbone.9.running_mean f4 [64]
00000000: d665 09bf 8ac0 88bf 888a b33d c492 4bbf
00000010: 81e8 5f3e e220 36bf 6f9d 08bf 848e 29bf
00000020: 7b09 99bf d3e6 f7be 8a5a 463e fb24 87bf
00000030: f74b dcbe b0f6 5fbf f340 a1be c85a 24bf
00000040: d63d b1bf ad30 c4be dffb 96be de7a 79be
00000050: 8e92 92bf 714a 10bf 073f 21bf 6665 14bf
00000060: a74c 27bf 3b20 efbe 6e79 22bf e4ad 26be
00000070: 01a3 2fbf 8ae8 8bbf 0d21 4cbf 8490 3abf
00000080: c86c f13e 73da 05bf 5ffd 1cbf 5a53 433f
00000090: c5e2 b8be 5624 55bf e4b5 79bf 578e a03e
000000a0: 4e0d 69bf f6f0 d33d 24f6 f6be 098a e8be
000000b0: 4314 843e 9116 debe 758c d0be f0c3 01bf
000000c0: 889c b5bf 72cc 7fbe 55f8 28bf 15ac 5bbf
000000d0: 2176 a9be fc96 8abf 7043 62bf f7b7 3bbe
000000e0: 77f9 a63d 6c5b cebe fc9d 83bf f86d 33bf
000000f0: bb62 c3bf 520f 3a3e 6083 3dbf caf3 d0be
-0.53671014 -1.0683758 0.08766657 -0.7952082 0.21866037 -0.71143925 -0.53365225 -0.66233087
-1.1956018 -0.48418292 0.19370475 -1.055816 -0.43026707 -0.8748579 -0.31494865 -0.6420102
-1.3846996 -0.38318387 -0.29489037 -0.24363276 -1.1450975 -0.5636359 -0.629868 -0.5796722
-0.6535134 -0.46704277 -0.63466537 -0.16277272 -0.686081 -1.093034 -0.7973793 -0.72876763
0.47153306 -0.5228645 -0.61324114 0.7629906 -0.3611051 -0.8325857 -0.9754317 0.31358597
-0.91035926 0.10348694 -0.48234665 -0.45417812 0.25796708 -0.43376592 -0.4073216 -0.506896
-1.4188395 -0.24980333 -0.66003925 -0.8580945 -0.33097938 -1.0827327 -0.8838415 -0.18331896
0.081530504 -0.40304124 -1.0282588 -0.70089674 -1.5264505 0.18169907 -0.7402859 -0.40810996

backbone.9.running_var f4 [64]
00000000: 2bfd 3a3f 81e8 ed3f a0fa 753f b373 4d3f
00000010: 4275 9e3f 7d7c 4e3f 186e 533f 6da2 853f
00000020: 74a6 143f 27ac 2a3f cdb2 9d3f a273 0e3f
00000030: 936c 343f 3410 0e3f 249a 903f 46e7 843f
00000040: 9dad 883f a9d3 233f 859b 193f d10c 283f
00000050: 7023 663f bf96 753f 85d0 623f 9e17 083f
00000060: befb 133f 9bd9 033f fe7f 313f e3e5 2a3f
00000070: 192b 863f bb57 973f f7ef ac3f 4c1a 643f
00000080: 7ded c93f 6426 4c3f dab8 a13f f266 2540
00000090: ea40 4f3f 3160 ab3f e66b 293f f057 533f
000000a0: 28c4 9e3f 97ff 3b3f 352c 433f cded 0f3f
000000b0: 0a1f 313f b8de 163f 14f5 863f 4b1c 563f
000000c0: c037 943f cb53 403f 1799 2e3f 157a d23e
000000d0: f2af d23e 9aee 103f 5032 863f dd83 8c3f
000000e0: 775e 833f b07f 923f 6911 253f edee 273f
000000f0: 8ed0 ad3f 4cd5 973f 2aa5 a13f a7e3 2b3f
0.73042554 1.858658 0.9608555 0.8025467 1.2379534 0.80658704 0.82589865 1.0440193
0.5806649 0.66668934 1.2320191 0.5564519 0.7047817 0.55493474 1.129704 1.0383079
1.0677983 0.6399484 0.6000293 0.65644556 0.89897823 0.95933145 0.88599426 0.53161037
0.57806003 0.51503915 0.69335926 0.6675703 1.0481902 1.1823648 1.3510731 0.89102626
1.5775601 0.7974608 1.2634537 2.5844083 0.80958426 1.338873 0.66180265 0.82556057
1.2403612 0.73436874 0.7623933 0.5622223 0.69187987 0.5893359 1.0543542 0.8363692
1.1579514 0.7512786 0.68202347 0.41108766 0.4114986 0.5661408 1.0484104 1.0977741
1.0263203 1.1445217 0.6447969 0.65598947 1.3579271 1.1861968 1.2628529 0.67144245

backbone.12.weight f4 [128, 64, 3, 3]
00000000: 1a0c bc3c 3334 083d d028 483c 22fb 66bc
00000010: 70ce 0a3c cd2b 0fbd b380 0abd dcc4 05bd
00000020: 4a32 b5bc a369 cebb aca6 8d3d e291 deba
00000030: 01c1 febc bc3f 04bc 33ec 91bc 94fe 00bd
00000040: 51ee 96bc 756a 1dbc 12c3 99bc b67d 05bd
00000050: 340d eb3b 9d91 e2bc 265d b3ba 7930 8bbc
00000060: e6e0 03bd aff0 b83c 3f92 c73b 6259 aebc
00000070: f8ba 19bc 2413 9bbc b627 723c 653e 31bc
00000080: 874d 933d f846 61bd fba9 aabc bed1 cb3c
00000090: ac15 90b8 1186 17bc 12d3 dc3c 4dbc 06bc
000000a0: 2480 19bd 6da8 5abc a546 963a 51c3 583c
000000b0: 6fe3 df3c 8f51 ae3c 8a12 f63c 33f5 383d
000000c0: 4ebe 69bd 1a9d b3bc 4f0a 13bd 054f 75bd
000000d0: f80b abbc 8392 3bbd 5e7b 07bd 26c2 cd3c
000000e0: db32 3c3d cae1 f2bb 0e8f 0cbc 2192 a1bc
000000f0: 436a 283d 7c7c 8a3c 6dad bc3c 9023 c5bc
00000100: 91ee e0bc 1f82 bc3d 645c 093c 81cd 8fbc
00000110: 3d17 bdba 5034 97bc a836 3c3d 58ad 0a3d
00000120: d6d0 a03d 527d 0c3d a4f7 b03d 02a5 b2bc
00000130: 85fc 80bd a21c f3bc 6551 83bd 1c61 cbbd
00000140: a128 14bb 94a6 643b 3991 87bd 2cf5 b1bc
00000150: 4be1 a2ba 8ae6 ddbc 403d 21bb 618b e23c
00000160: 5f59 8abd 98fd 123d 24a3 19bc c492 873d
00000170: 7c0f 5d3d c012 673c b1da 9bbc 5e2e 15bc
00000180: 4605 39ba dc03 0a3c 4545 6f3d 512b 7fbb
00000190: dfd6 b83c 45a3 d2bc 8749 753b bb31 b63c
000001a0: e0c9 1c3c b67a d8bc a07e e93c 8152 743d
000001b0: c48f 88bb fb20 a239 1d28 49bd 69f9 98bc
000001c0: 84d1 27bd 9e59 87bc d140 b7bc 7ef1 853b
000001d0: 8ac1 803c 18f6 63bb fde6 84bc 57e5 783c
000001e0: c02d 55bc 1f8f 9e3c 6823 933b 53bd 71bd
000001f0: f6dc a4bc 68c5 babd 2ab1 70bc 8480 9ebc
00000200: 0eb6 223d 806c 37bc d6a7 56bd 1df6 a93a
00000210: cc60 96bd a8c6 a3bd b077 813c c42a b93c
00000220: eb61 7bba 586e e6bc 7f2e 85bd 77fe 0cbd
00000230: 52b2 22bd 936d 85bd 5145 e83b 42b9 47bc
00000240: 7789 ed3c 8f50 233d 3cd5 333d c7df b33b
00000250: 3b09 1bbd ba3d de3b 8ad2 e43d 30a6 93bc
00000260: c475 1a3d 90a8 60bd 91cb 98bc 05cb 5a3d
00000270: 7699 02bd 1d60 35bd 2676 5f3c 2274 ddbc
00000280: 2275 b0bd a1da 16bc 7274 a0bc effb bcbc
00000290: 9b77 c8bc d317 3bbb c333 a43b b014 89bb
000002a0: ac05 1bbd 6371 4c3d ae4c 4e3d 146f 73bc
000002b0: 17ae 123b 859f 29bd ce40 b23c 2953 023d
000002c0: f6a6 423d 7ab3 bf3b 03e4 be3c fc52 413d
000002d0: c07e 263c b1d9 063b e04a de39 8155 4d3b
000002e0: 3aeb 063c c7e0 443d ee83 4b3d 4d9f 76b9
000002f0: 0366 183d ea6c a9bb 4a76 01bd 8297 f63b
00000300: a7fd 9abc c75a 53bc 554b 583d 25b5 dbbb
00000310: dc93 6cbc 22b9 d0bc 94c9 b8bc 3ac9 4b3c
00000320: 7dc9 6039 d61e 12bd a57b 9d3b a6a8 48bc
00000330: ac0e 9bbc 7dd0 e13b f580 bebb 8fce d3bc
00000340: 41fe f93b 16cb 71bc 28e0 c53c 0a4d fa3c
00000350: c44a 68bb dd5d ce3b a434 103d b853 25bd
00000360: 78ca 1cbd 1659 07bd 1f82 80bd 6300 3fbd
00000370: 6da8 b2ba 1cb3 26bc 8dab 56bc 9a33 cd3b
00000380: ead8 00bd 2a77 b33c 1c38 653d da51 8f3d
00000390: 9590 3b3c d41b 1d3d 0d13 6d3c 36b2 b53c
000003a0: d4ff 15bb 7d79 533c c382 e23c 65f5 183c
000003b0: b42a de3c c48d 46bc 31d1 f03b 260b a2bc
000003c0: 1711 ba3b 3aef 45bc 7ec7 e33c 2134 fd3c
000003d0: fe97 c83c 227c 34bc ecb5 c73c bd17 bb3b
000003e0: 744e 9d3b 0094 c33c f298 c43c 3712 ad3c
000003f0: 514e 283b 4cd3 fbbc d21d bcbb 99b1 adbc
0.02295499 0.033252906 0.012216762 -0.014097961 0.00847207 -0.03495388 -0.033814143 -0.032658443
-0.022118706 -0.006299214 0.06916556 -0.0016980732 -0.03109789 -0.008071836 -0.017812824 -0.031492785
-0.018424185 -0.009607901 -0.018769775 -0.03259059 0.007173205 -0.027657324 -0.0013684377 -0.016990887
-0.0321969 0.022575704 0.006090432 -0.021282855 -0.009382956 -0.018930025 0.014779976 -0.010818099
0.071925215 -0.05499932 -0.020833006 0.024880286 -6.870492e-05 -0.0092482725 0.026956115 -0.008223605
-0.03747572 -0.01334582 0.0011465146 0.013230161 0.027330128 0.021279125 0.030038137 0.045155715
-0.057066254 -0.021925498 -0.035898503 -0.059889812 -0.02087973 -0.04579402 -0.033076636 0.025116991
0.045946937 -0.00741217 -0.008579029 -0.019723 0.041116964 0.016905062 0.023031915 -0.02406481
-0.027457507 0.09204506 0.008383844 -0.017554047 -0.0014426481 -0.018457562 0.04595056 0.03385672
0.07852332 0.034299202 0.08640984 -0.021807197 -0.06298164 -0.02967674 -0.06412009 -0.099306315
-0.0022607225 0.0034889327 -0.06619496 -0.021723352 -0.0012426762 -0.027087469 -0.0024603158 0.027654352
-0.067553274 0.035886377 -0.009377275 0.0661979 0.053969845 0.014103591 -0.019025179 -0.009105293
-0.0007057976 0.008423772 0.05841567 -0.003893573 0.022563396 -0.025712619 0.003742786 0.02224051
0.009569615 -0.0264257 0.028502762 0.059648994 -0.004167529 0.0003092362 -0.04911052 -0.018673616
-0.040971294 -0.016522225 -0.022369774 0.004087626 0.015717287 -0.0034784134 -0.016223425 0.015191398
-0.013011396 0.019355355 0.0044903047 -0.059018444 -0.020124894 -0.091196835 -0.014690677 -0.01934839
0.039724402 -0.011195302 -0.052406155 0.0012967024 -0.07342681 -0.07996875 0.015804142 0.0226034
-0.0009589481 -0.028128788 -0.06503009 -0.034422364 -0.03972084 -0.0651504 0.0070883413 -0.012190165
0.028996212 0.03987175 0.043904528 0.005489323 -0.0378506 0.0067822607 0.1117297 -0.01802358
0.037709966 -0.054848254 -0.018651756 0.05341627 -0.031884633 -0.044281114 0.013639009 -0.027032916
-0.08616091 -0.009207399 -0.019586775 -0.02306935 -0.024471095 -0.0028548136 0.0050110533 -0.0041833743
-0.037847206 0.04991282 0.050366096 -0.014858026 0.0022381598 -0.041411895 0.021759417 0.03181759
0.047522508 0.0058502527 0.023302084 0.04719828 0.0101620555 0.0020576532 0.00042398926 0.0031331482
0.008234793 0.048065927 0.049686365 -0.00023519732 0.03720666 -0.0051704543 -0.03160695 0.0075253854
-0.018919779 -0.012900061 0.052806217 -0.0067049437 -0.014439549 -0.025478903 -0.022557057 0.012438113
0.00021437365 -0.03567394 0.0048059993 -0.01224724 -0.018927895 0.006891309 -0.0058137127 -0.02585533
0.0076291864 -0.014757892 0.024154738 0.030554313 -0.0035444954 0.0062978105 0.035206452 -0.040363044
-0.038279027 -0.033043943 -0.06274819 -0.04663123 -0.0013630517 -0.010174539 -0.013102424 0.006262255
-0.031456865 0.021907408 0.055961713 0.06998034 0.011448045 0.038356617 0.014469874 0.022179704
-0.002288808 0.012907383 0.027650243 0.00933585 0.027119972 -0.0121187605 0.0073491563 -0.019780707
0.005678307 -0.012080962 0.027805086 0.030908646 0.024486538 -0.011015924 0.02437874 0.005709617
0.004800612 0.023874283 0.023998711 0.02112685 0.0025681446 -0.030740403 -0.0057408595 -0.02120285

backbone.12.bias f4 [128]
00000000: 1ec4 e134 0d28 bb33 0742 fdb2 8efb 5e35
00000010: b994 2834 c4a6 0ab5 f0b9 7933 3c7d f0b4
00000020: fe74 1935 72da 02b4 8f70 d5b3 669e f533
00000030: 3034 bd33 3a22 b6b2 d650 2db5 4a59 ebb1
00000040: 1eff 1335 eb70 6b34 6847 9934 bd99 1435
00000050: 1240 0134 3b35 d334 c932 9db3 8d58 bdb4
00000060: 184f 1d34 59ce 0534 60a6 5033 4f7e 21b4
00000070: 3453 6235 8c65 95b4 0379 1bb5 9062 0835
00000080: eddf 21b4 fd26 3133 8f84 8934 e00e c034
00000090: b4b2 edb3 5dd0 5435 1aaa 04b3 15a8 9035
000000a0: 4e2d a2b5 3209 72b5 861f 07b4 b68e bab4
000000b0: d9d4 3ab2 5cc0 7134 cb54 53b4 ccf1 8bb4
000000c0: 0314 dbb3 8d87 0c35 7287 fbb4 1616 6f34
000000d0: 2e71 eeb3 7d48 3435 e589 f9b4 1e9c 2f35
000000e0: 289a d1b1 1942 4135 f95f b1b3 c3de b1b3
000000f0: e79c 9333 dbb2 eb33 0428 63b5 5591 a734
00000100: 85bb d5b3 24e6 9eb3 2740 92b4 271c 4ab5
00000110: 8aa9 03b5 a9f9 31b3 778e ae34 99d1 dfb2
00000120: 73bc 4c32 04cf 82b4 4946 1b34 44ac 0135
00000130: 08de 1db5 6ab8 b934 e5f4 e8b4 56ea 99b4
00000140: cf23 2bb5 07a9 19b6 db9b 8135 4d1a fe35
00000150: 9a99 3db5 e6be 1135 06c9 b433 53dc 1fb4
00000160: 3f65 8633 9237 4533 525e cc33 68b3 b634
00000170: c8d3 0ab3 aafc f434 f0ce a3b5 247f 9f33
00000180: d41b d9b4 15ce 6f33 91b9 adb5 26e9 0634
00000190: 4443 4a33 7580 e933 4eed 6eb4 1eda a8b4
000001a0: 1296 2035 25ea c0b2 1cf7 eeb5 f224 0db5
000001b0: a854 ceb2 2c9c 9e32 71f4 2eb3 6f20 8035
000001c0: dda4 cdb2 2797 18b5 3a32 0434 5e64 6835
000001d0: 2dac 66b4 2a8b bb34 62bb 21b5 f8fe 9c35
000001e0: 3b9c 8f34 c83d 0434 2c4d 05b4 2523 f834
000001f0: 0eba bd34 261b 9a34 c550 1635 3dfa ae35
4.205221e-07 8.715151e-08 -2.9483102e-08 8.3067505e-07 1.5700324e-07 -5.165168e-07 5.814394e-08 -4.4794604e-07
5.716719e-07 -1.2186663e-07 -9.93906e-08 1.1437514e-07 8.810491e-08 -2.1203153e-08 -6.4565154e-07 -6.849551e-09
5.513301e-07 2.192716e-07 2.8550426e-07 5.5358015e-07 1.203737e-07 3.9340543e-07 -7.32012e-08 -3.5268422e-07
1.4650539e-07 1.2461659e-07 4.858009e-08 -1.5040244e-07 8.431264e-07 -2.7827298e-07 -5.7918095e-07 5.0807375e-07
-1.5075757e-07 4.1246484e-08 2.5614688e-07 3.577361e-07 -1.10686784e-07 7.927936e-07 -3.088835e-08 1.0777754e-06
-1.2083126e-06 -9.0165406e-07 -1.2584323e-07 -3.4749036e-07 -1.0875021e-08 2.2514854e-07 -1.9681754e-07 -2.6066698e-07
-1.0201622e-07 5.2351317e-07 -4.6850943e-07 2.2266644e-07 -1.1103326e-07 6.716071e-07 -4.6480196e-07 6.541976e-07
-6.100226e-09 7.199429e-07 -8.259662e-08 -8.282725e-08 6.873761e-08 1.0975574e-07 -8.462232e-07 3.1211917e-07
-9.952695e-08 -7.399311e-08 -2.7241296e-07 -7.529183e-07 -4.9048015e-07 -4.143809e-08 3.2513682e-07 -2.605593e-08
1.1917211e-08 -2.436501e-07 1.446107e-07 4.8306924e-07 -5.8810156e-07 3.4593114e-07 -4.3391552e-07 -2.8668973e-07
-6.375457e-07 -2.2897163e-06 9.656609e-07 1.8932129e-06 -7.0631506e-07 5.4294503e-07 8.418469e-08 -1.4888182e-07
6.258278e-08 4.5918178e-08 9.516647e-08 3.4030677e-07 -3.2323243e-08 4.563238e-07 -1.2204673e-06 7.427141e-08
-4.0439647e-07 5.5833954e-08 -1.2943511e-06 1.2564541e-07 4.7092968e-08 1.0873274e-07 -2.2251808e-07 -3.145114e-07
5.9823026e-07 -2.2458218e-08 -1.78043e-06 -5.2580356e-07 -2.4020054e-08 1.846464e-08 -4.073485e-08 9.546183e-07
-2.3940112e-08 -5.684437e-07 1.231173e-07 8.657279e-07 -2.1483056e-07 3.493272e-07 -6.024985e-07 1.1697111e-06
2.6749498e-07 1.2315934e-07 -1.2414665e-07 4.621917e-07 3.5339366e-07 2.8704488e-07 5.599689e-07 1.3036839e-06

backbone.13.weight f4 [128]
00000000: 65ba 7d3f 6984 553f 3ccf 663f 4c65 753f
00000010: 7213 813f 9dc5 683f 7d9c 673f b90d 763f
00000020: 3387 7b3f 01bc 663f 2cff 743f 162d 813f
00000030: c010 793f d038 713f 8bde 7a3f 2da8 4c3f
00000040: 3854 663f ce11 4a3f 3575 7d3f a877 6a3f
00000050: 46d4 583f f79b 633f db4b 6c3f 4813 5f3f
00000060: d684 703f fa79 843f 88d5 733f 9854 573f
00000070: 8890 533f c45f 2d3f bebc 6d3f 6d63 6e3f
00000080: f67d 7c3f 8aa3 3f3f a41d 7d3f 5d03 753f
00000090: 6f95 5f3f 6fa4 743f bdde 673f 633f 863f
000000a0: 7cc4 713f 302a 743f 1fc8 5e3f 5abd 7d3f
000000b0: 69cc 863f 90e8 703f 60c2 7c3f fc76 7d3f
000000c0: 111c 7f3f fc28 5c3f 923e 793f 331c 793f
000000d0: 2d94 5f3f 19ff 713f cc31 423f 024c 523f
000000e0: 2704 7c3f 0e5e 513f 55bc 5e3f 65b8 2a3f
000000f0: 979c 703f b922 5b3f 7323 763f a733 733f
00000100: 057c 6f3f 49ea 6b3f d058 783f 6b36 5f3f
00000110: 2201 373f a7dd 6c3f 632a 6b3f 1939 653f
00000120: f91c 493f f2b0 823f 1b00 753f b3db 793f
00000130: a069 613f 183a 793f be02 0d3f bc64 5c3f
00000140: cdcd 7e3f 0b99 753f f7ee 793f 6d21 693f
00000150: f5cf 6b3f cdae 6c3f b3cd 743f ea55 493f
00000160: 328e 773f ff35 733f d1e4 533f 4f7b 733f
00000170: db02 513f faae 573f 6010 793f eb3b 563f
00000180: 6a09 783f 802d 723f 4e5b 693f aa75 7e3f
00000190: c66e 5b3f b2cb 3c3f b75c 663f e612 6d3f
000001a0: a494 6a3f b3d6 403f 5707 833f 269e 533f
000001b0: 0e1c 643f 288e 793f 9a3c 6e3f 8426 573f
000001c0: 2eef 5d3f 74ff 623f c5bc 683f 887d 823f
000001d0: fba4 6a3f ab77 6d3f 726f 733f ba84 793f
000001e0: aa90 583f 9ef7 533f 386b 343f 1e32 643f
000001f0: f475 843f 0be9 7a3f 6487 823f d62b 833f
0.9911254 0.83405167 0.90159965 0.9585769 1.0084059 0.90926534 0.9047316 0.9611469
0.9825317 0.9013062 0.9570186 1.0091884 0.97291183 0.94227314 0.97995824 0.79944116
0.8997226 0.7893342 0.9900697 0.9158883 0.84698904 0.8890986 0.92303246 0.87138796
0.9395269 1.0349724 0.952477 0.84113455 0.8264241 0.6772425 0.9286612 0.9312046
0.986297 0.74858916 0.98873353 0.95708257 0.8733739 0.95563406 0.90574247 1.0488094
0.94440436 0.95376873 0.8702411 0.9911705 1.0531131 0.9410486 0.9873409 0.9900968
0.996522 0.8600004 0.973611 0.97308654 0.87335473 0.94529873 0.75857234 0.8214723
0.98443836 0.8178414 0.8700612 0.66687614 0.9398894 0.8559986 0.9614784 0.9500069
0.93548614 0.92154366 0.9701052 0.8719241 0.71486104 0.92525715 0.9186155 0.8954025
0.78559834 1.021025 0.95703286 0.9760086 0.88051796 0.9735427 0.5508231 0.8609121
0.9953278 0.9593665 0.97630256 0.9106663 0.9211419 0.92454225 0.9562637 0.7864672
0.9670135 0.95004267 0.8277102 0.9511003 0.8164498 0.8425137 0.9729061 0.8368518
0.96889365 0.9460068 0.91154945 0.9939829 0.857159 0.73748314 0.8998522 0.9260696
0.9163306 0.75327605 1.0236615 0.8266319 0.8910531 0.9748254 0.9306122 0.84043145
0.86693084 0.8867104 0.9091304 1.0194559 0.9165799 0.92760724 0.9509193 0.9746815
0.8459574 0.8279971 0.704761 0.8913897 1.0348496 0.98011845 1.0197568 1.0247753

backbone.13.bias f4 [128]
00000000: 510a b23b 1e50 eb3c 35f6 3b3c a4a7 403b
00000010: 88ec 2f3a f6f6 513d 5bf8 2dbc 75e6 4f3c
00000020: 7f18 423d e717 403c 24ed f5bc 73a9 873c
00000030: 7948 14bd 540c 20bd ccb9 463c c99c 9c3b
00000040: c874 043d 5742 3cbd 3b76 063b fbc3 693c
00000050: ea81 9aba 8326 73bc 9a4f 413d fff4 babc
00000060: dfaf 06bd 6ccf 97bc 7c9a 103d 9661 02bd
00000070: d3dc 5b3d e5bd d53c 6b94 ad3c 68ae 1fbd
00000080: 4e81 6c3d 924c cc3c b2b1 a63b 1551 8a3b
00000090: f69e 273c 3fec 063d cf8b 7dbc 45a5 833c
000000a0: e885 a23c ec60 6eba 7d39 403c 04eb 1f3c
000000b0: 9b86 773d cd3c a038 eb8c 0e3d c924 2b3c
000000c0: 15a6 5b3c bb7d fa3c d5e4 38bc 6e9e d13b
000000d0: 9896 d23c a9a5 42bc 4e1e c7bc f2e3 3fbc
000000e0: 0b24 d5bb f847 913b b3cd 1c3c 2616 9abb
000000f0: 0220 233d 975a 0ebd 430c 213c 1f40 fc3c
00000100: dff6 4b3b 75ca 4e3d f941 56bd a1ff 0d3d
00000110: 1cb8 6dbc 807e f13c f9bf 9cbc baf8 033d
00000120: dd92 6bbc b0ff d8bc b626 063d 7158 f7bc
00000130: 0264 443d 31b9 583d 85ef bd3c f283 46bb
00000140: 3a7a ecbc 5766 e4bc c25c f6bc 19cb c23c
00000150: 766f 5ebd 99f1 cb3b b518 133c efbd fd3c
00000160: d19a 123d 9bb2 5a3d 3bc5 b9bc 37cf d5bc
00000170: 66c4 583d a5d8 913c d020 d2bb ad64 813c
00000180: 284d b13d e69c bf3c aec6 aa3c df05 7b3d
00000190: e15b debc fe03 e8bc 9ada afbc 42bf ef3c
000001a0: d765 6b3c 7c75 203c 1b91 a8bc 01e4 ef3b
000001b0: bac1 833c 1df8 f9bb 8542 103c 507a a33c
000001c0: 7f13 923c 0764 f3bc fa34 0bbd 5df3 90bc
000001d0: 8cec fe3c f0bc 75bb 7198 65bd 58fd 27bd
000001e0: 979d 983b 3e0e df3a 9bc7 a03c e107 7e3c
000001f0: 8cab 4a3d 50e5 ee3c 3560 a2bc f742 d5bc
0.0054333587 0.028724726 0.011472275 0.0029396797 0.0006710966 0.05126091 -0.010618295 0.012689223
0.047386643 0.011724449 -0.030020304 0.016560292 -0.036201928 -0.039074257 0.012129258 0.0047794324
0.032337934 -0.045961704 0.0020517248 0.014267917 -0.0011787985 -0.014840725 0.047195055 -0.022821901
-0.032882567 -0.018531524 0.035303578 -0.031831346 0.05367739 0.026091525 0.021188935 -0.038984686
0.057740502 0.024938855 0.005087101 0.0042210915 0.01023077 0.032940146 -0.0154752275 0.016070018
0.019839242 -0.0009093422 0.011732456 0.009760622 0.060431104 7.6407196e-05 0.03480236 0.010445782
0.013406296 0.030577531 -0.011285027 0.00639706 0.025706574 -0.011880317 -0.024306443 -0.011712061
-0.006504541 0.004433628 0.009570527 -0.0047023473 0.039825447 -0.034754362 0.009829584 0.030792294
0.0031122488 0.050486047 -0.05230901 0.034667615 -0.014509227 0.029479265 -0.019134508 0.032219626
-0.014378277 -0.026489109 0.03275176 -0.03019354 0.047946937 0.052910987 0.0231855 -0.0030291048
-0.028866876 -0.02788083 -0.030073527 0.023778485 -0.054305516 0.006223869 0.008978059 0.030974356
0.035792176 0.053392988 -0.022677055 -0.026099784 0.052921675 0.0178035 -0.006412603 0.015795076
0.086572945 0.023390245 0.020846691 0.061284896 -0.02714342 -0.028322216 -0.021466542 0.029266004
0.014367542 0.009793635 -0.020577004 0.0073208814 0.016083587 -0.0076284544 0.008804922 0.019955784
0.017831562 -0.029710783 -0.03398607 -0.01769417 0.031118654 -0.0037496649 -0.056053583 -0.04101309
0.004657458 0.0017017794 0.01962643 0.015504808 0.049480006 0.02916208 -0.019821266 -0.026032908
