models/osu_model_temp.pth (torch, 438861 bytes, 28 tensors)

backbone.0.weight f4 [16, 3, 3, 3]
00000000: 2a7b e4bd ca03 3fbd 8d90 313c fb0f f6bd
00000010: 0604 d93d 7230 183d daaa 28bd 1a2a 32be
00000020: feb1 5fbc fbe2 22bd 6152 b8bd 7153 7cbd
00000030: 3fd8 293d 2698 0f3e 0a4f d73d b059 343d
00000040: e4e6 9dbe 4832 6b3d fdc6 a33c e817 01bd
00000050: 2331 c63d db58 cabd b82a fcbd 975c 9e3d
00000060: 47aa bdbd 2613 c2bd 9e2c cbbc ef88 683d
00000070: 6fdf 0cbe 70a4 efbc 54cd 083c 8d6e ecbc
00000080: 620c 26bd 81e4 db3d 1c29 a4be 2df6 2abe
00000090: 3531 ba3d 94bb 1fbe e0ff df3b 049a 7fbc
000000a0: 0ffb 913e f502 ddbd 44cc a0bd 2ad4 17bd
000000b0: 60ce debd d264 1ebe 98fc bcbb 77cd 9cbd
000000c0: e166 7f3d eb71 633d 9855 5f3d 7317 89be
000000d0: 6683 90bc 978a 87bd 48e0 bd3d e313 ee3d
000000e0: 03e4 1a3d 493d 033a 2eab 0abd 9c93 e93c
000000f0: 1edb 393e 5485 63bd b5bd 903c 5170 483d
00000100: 9d2c 64be 2734 42bc bb72 bb3c 82d9 693d
00000110: d4a4 4a3d 21ff d23c cbe0 2b3d 188f 2a3e
00000120: 2084 ed3d a1d6 463d 6d47 c03d f059 1cbe
00000130: 2202 2cbe fc5e ccbd 18d7 55bd c372 ecbd
00000140: dcbb 593d 9fd9 35be 46c9 c1bd 2ae8 0d3e
00000150: 4588 383e 53b4 ca3c abc4 9fbd df05 e03d
00000160: e858 c8bd 08da 89bd e911 1e3e ab57 903d
00000170: 03c8 1fbc a293 5c3e 4499 9abb 71c9 25be
00000180: ecbd c23d 6c36 16be 850c 1c3e 498a edbd
00000190: e2fb 37be db2d 6ebd c588 8a3d 0861 c43d
000001a0: d8d4 29bd f827 453c 98c3 8b3e 83f5 763d
000001b0: 3e2f e0bd a176 4c3d 05cf 83bc 6af8 be3d
000001c0: eb37 fe3b aadc f43b 1e73 703d 0794 99bc
000001d0: 727c c53c 0f70 a0bd a22e c1bd 724d bf3d
000001e0: fb7a b4bd 18d3 133e a7c0 1cbd a956 abbd
000001f0: e305 56be 0c86 d0bd 22cd 0b3d 2a40 f03d
00000200: 332a 91bd 1e83 89bd 37b7 133d 2397 20bd
00000210: edc6 f03b ff8f a83c 6990 34bd f042 30be
00000220: dab6 2ebd 4c5c 893e 8a81 363e 80c4 85bd
00000230: 6f08 723c f630 5d3d 7761 2abd 0b07 efbc
00000240: 906b 87be f64b c63b cb5d 98bd c205 b23d
00000250: 452b 18be a86a 1dbd 2b61 25be 7371 99bc
00000260: dbde 813e d4b3 28be 5e8b c33c fa12 13bd
00000270: 45fd db3d fe03 28be 2ec4 3f3e 9d16 30be
00000280: d2ea b23e f203 abbd b1d5 2d3d d6b7 10bd
00000290: 370e 14be 89da edbd 17a7 84bb e1d9 413e
000002a0: 0295 b5bc 7c51 4e3e a282 f7bd 5d78 bcbc
000002b0: 166c 5c3e 238a f5bb 7cd3 b13d 4986 2cbd
000002c0: 751b 1e3d 7ac3 713c c923 2a3c 411f 283c
000002d0: d727 8ebd cad7 103e e110 34bc 223a 70be
000002e0: d628 48bc 53a0 223c 98fa 1ebe eab9 203e
000002f0: 7f82 283e 7a1c cabc cb01 26be 908c 433e
00000300: 79e5 5fbe 7332 2fbe 194b 5c3a f8fa 293d
00000310: 23a0 603d c99b 88bd ee79 48bd df04 29be
00000320: 1bca cfbd 37a7 463d 9dc9 e6bd 9cc1 2dbd
00000330: 69d8 af3c 408a ffbd 62dc 533e 0a3a d43d
00000340: 30a7 663e 6fec 0abe 2e6f c73d 0d8d ac3d
00000350: 8b27 ae3c 2167 26bd 969c d9bc d326 133e
00000360: 5bb8 143e b7c6 22bd 0669 1b3d e3ee 69bd
00000370: 3cb7 cd3d 6509 20be 9055 c23c 117a 323e
00000380: fb14 b53d 8fec d4b9 1db9 0e3a 1915 08be
00000390: 1bb5 b4bd 979c 603c 1667 173e f9de 1e3e
000003a0: e222 193d 0876 303e 3a9b da3d 543d a7be
000003b0: 03f7 43be a99b 863e b1af a33d 771d f8bd
000003c0: 232f 0abc a802 813d e9ef f2bd 2fca acbc
000003d0: c387 eb3a cad6 063e 0e5d 0fbe 534d 9bbc
000003e0: 5370 103e a889 6abe af5a 30bd d877 6cbb
000003f0: b7e5 993d eebd 143d d6ea eabc f441 f23d
-0.11156304 -0.046634473 0.010837686 -0.12014767 0.105964705 0.037155576 -0.04117856 -0.17398873
-0.0136532765 -0.039767247 -0.090000875 -0.061603013 0.041465994 0.14022884 0.105131224 0.044030845
-0.30840218 0.057421 0.019992346 -0.03151694 0.09677341 -0.09880229 -0.123128355 0.07732504
-0.092609935 -0.094763085 -0.024801549 0.056771215 -0.13757108 -0.029253215 0.008349735 -0.028861308
-0.040539153 0.10736943 -0.32062614 -0.16695471 0.09091417 -0.15598899 0.0068359226 -0.015600685
0.28511855 -0.1079158 -0.078514606 -0.03706757 -0.10879207 -0.15468147 -0.005767416 -0.07656377
0.062353972 0.055528563 0.054524988 -0.26775703 -0.01764078 -0.06618231 0.09271294 0.11624887
0.037815105 0.00050063856 -0.033854656 0.028512768 0.18149993 -0.055547073 0.017668584 0.04893524
-0.22282644 -0.011853254 0.022881856 0.057092197 0.0494736 0.02575642 0.041962426 0.16656148
0.115974665 0.04854453 0.093886234 -0.15268683 -0.16797689 -0.09979054 -0.052207083 -0.115453266
0.053157672 -0.17758797 -0.09462218 0.13858095 0.18020733 0.024744188 -0.07801183 0.1093862
-0.097825825 -0.06731039 0.1543652 0.07047971 -0.009752276 0.21540692 -0.0047179777 -0.16190125
0.09508881 -0.14669198 0.15239151 -0.115986414 -0.1796718 -0.0581492 0.06764368 0.0958882
-0.04146275 0.012033455 0.27297664 0.060292732 -0.10946511 0.04991782 -0.016089926 0.09324725
0.007758131 0.0074725943 0.058703534 -0.018747343 0.024107192 -0.078338735 -0.09432723 0.093409434
-0.08812519 0.14435995 -0.038269665 -0.083661385 -0.20900683 -0.101818174 0.034131177 0.11730988
-0.07088127 -0.06714462 0.0360634 -0.039206635 0.0073479326 0.020576475 -0.044083033 -0.17213035
-0.04265485 0.2682823 0.17822853 -0.0653162 0.014772519 0.05400177 -0.041596856 -0.029178163
-0.2644925 0.0060515357 -0.074397646 0.086925045 -0.14860256 -0.038431793 -0.16150348 -0.018730855
0.25365338 -0.16474849 0.023870166 -0.03590677 0.10741667 -0.16407773 0.1872718 -0.17196126
0.3494478 -0.08350362 0.04244012 -0.03533157 -0.14458548 -0.11613948 -0.004048239 0.1893077
-0.022165779 0.20148271 -0.12085463 -0.023006612 0.21525607 -0.007493274 0.086829156 -0.04212025
0.038600404 0.014756078 0.010384508 0.010261358 -0.069411926 0.14144817 -0.010990352 -0.23459676
-0.012216767 0.00992592 -0.15525281 0.1569592 0.1645603 -0.024671782 -0.16211621 0.19096589
-0.2186488 -0.17109089 0.00084035244 0.041499108 0.05484022 -0.06670339 -0.048944406 -0.16505764
-0.101459704 0.048499312 -0.112689234 -0.04242097 0.021465497 -0.12477541 0.20689538 0.103626326
0.22524714 -0.13566755 0.09738003 0.08425341 0.02125909 -0.040625695 -0.026563924 0.14370279
0.14523451 -0.03974029 0.037941955 -0.057112586 0.10044715 -0.15628584 0.02372244 0.17429377
0.08841892 -0.0004061204 0.0005444454 -0.13289298 -0.088236056 0.013709209 0.14785418 0.15514745
0.037386782 0.17232525 0.10674138 -0.32663977 -0.19137196 0.26290634 0.07992495 -0.12114995
-0.00843409 0.06299335 -0.118621655 -0.021092502 0.0017969537 0.13167873 -0.14000341 -0.01895777
0.14105348 -0.22904074 -0.043055233 -0.0036082175 0.07514518 0.036313944 -0.028676432 0.11828986

backbone.0.bias f4 [16]
00000000: 810a b5b4 d0e1 2c35 925b c035 cb28 49b2
00000010: 1ffb 5ab4 1f98 8534 41d9 98b5 3cbc 1233
00000020: 6089 5b35 aec6 8eb6 af06 0cb5 ef1d 0034
00000030: 5aa6 ac35 c8a9 2334 9c50 3b33 79d6 8d34
-3.372152e-07 6.4403594e-07 1.4331765e-06 -1.1709015e-08 -2.039419e-07 2.4883863e-07 -1.1388112e-06 3.4164472e-08
8.1783764e-07 -4.255059e-06 -5.216379e-07 1.1931819e-07 1.2863413e-06 1.5242324e-07 4.3612644e-08 2.6419346e-07

backbone.1.weight f4 [16]
00000000: 913e 823f dd4f 7e3f 9274 803f a81d 783f
00000010: b324 7e3f 6425 833f 0fe3 7a3f 9fd8 793f
00000020: 0bd5 7c3f bd77 843f 45ce 783f f76d 783f
00000030: 64c6 783f 1c62 7b3f 6061 7d3f 3d85 7b3f
1.0175344 0.9934061 1.0035574 0.9692025 0.9927475 1.0245786 0.98002714 0.9759616
0.9876258 1.0349041 0.9718974 0.97042793 0.9717772 0.9819658 0.9897671 0.9825018

backbone.1.bias f4 [16]
00000000: 5669 453d afc0 8e3c 5baa af3c a3e6 343d
00000010: 5df5 22bc a99f 4fbb 72ce 90b9 fa4a 7e3d
00000020: 5602 4e3c 034a 743d e277 70bc 0e2a c2bc
00000030: 8b7f a73d 5fa3 0d3d 024a 4ebd 0572 42ba
0.04819616 0.017425863 0.021443537 0.044165265 -0.0099461945 -0.0031680858 -0.00027619634 0.062083222
0.012573799 0.059640896 -0.01467702 -0.023701694 0.08178624 0.03457963 -0.050363548 -0.0007417503

backbone.1.running_mean f4 [16]
00000000: 7fdf 2b3f e16c 7c3f 9661 babe 2348 b7be
00000010: da4b a83e 4291 073e bfa6 8cbe c0f0 ad3e
00000020: 0814 e0be 0487 dfbc f920 403f 65af 9dbf
00000030: cc2b 37bd f66f a1bf 9330 4b3f df49 f83e
0.671379 0.98603636 -0.36402577 -0.35797223 0.3287037 0.13239005 -0.27470967 0.3397274
-0.43765283 -0.02728606 0.7505031 -1.2319151 -0.044719502 -1.2612293 0.79370993 0.4849386

backbone.1.running_var f4 [16]
00000000: 61fa 8b3f 0551 0e40 d95d 143e 8ed9 c73e
00000010: 0b34 833e 33a6 1b3e cfef 5d3e 7e39 c73d
00000020: 45e1 ba3e 125d 3c3d 0aab 793f 7463 5c40
00000030: 03fb 5a3d bfe8 6940 d41c ba3f be44 4c3f
1.0935785 2.223695 0.14488925 0.3903317 0.25625643 0.15200119 0.21673511 0.09727763
0.36499992 0.045987196 0.9752661 3.4435701 0.05346204 3.6548307 1.4540048 0.7979239

backbone.4.weight f4 [32, 16, 3, 3]
00000000: 544f 0cbe 013e 9cbd 987a 85bd 3e62 2dbd
00000010: dd96 253e 0c4f 9d3d ba60 b33b dc95 a13c
00000020: 3992 a6bd 30d6 84bd 4e1a a53c 1ea3 733d
00000030: aa00 203d c08f 82bd befa 2f3e fcba 30bd
00000040: 2216 f6bd a72f 813d 0901 bbbc 183a bb3d
00000050: 1e1a e6bd 9808 d93c 40c4 ecbd f235 743d
00000060: 2ead 953c b2dd c43c 209d 903c 95e0 55bd
00000070: f331 6fbb 8d48 febc ccc1 c23c 7ffd b5bc
00000080: bb78 f63c db5b ad3c 060e dabd dba9 98bd
00000090: 38cc 2bbd 229c 7f3d 32e6 b0bc c2df 1a3d
000000a0: a52c 7b3c e53f f4bc ea30 fb3d 928c 033e
000000b0: 0375 0e3d 930d 49bb 5654 11bb 5d41 a83d
000000c0: 15c2 26be 5d18 77be d64c e93d bc87 a6bd
000000d0: 15c1 10bc 6b5a 243b 4641 c23d e1f5 d43d
000000e0: 3048 e33d 2a71 493b 898c 203c 8fe2 763c
000000f0: 3216 d0bd b164 d13d 17d5 6b3b cfd7 423d
00000100: 5451 82bd afc8 b53d 7c49 eebd 7c51 8bbd
00000110: d6a4 09bd 184c febd 96e0 4fbd d2f9 dfbc
00000120: 749d 3a3d 7aad e23d 0e66 503e e53f 66bd
00000130: 39ec 51bd 7fd9 c1bb 68c4 86bc 297b 3ebd
00000140: 351f 4c3e aa1b a83d 8737 183e 1e85 a83d
00000150: 1a01 423d ae08 453c 7632 47bc c30c ce3c
00000160: 78aa ab3c 3b8a ae3c 2b24 37bd 4060 153b
00000170: 720a 783c d3fa 003e cf75 183e 71fd c23d
00000180: eff2 3a3d 1c8c 283b 7618 c03d 1f40 d43d
00000190: 8ed8 a73d bfd5 d7bd 4385 adbd 6a3a e03c
000001a0: 49ff a33d a81a 04be 4ebd adbc 774c c73c
000001b0: 4a94 e3bd d03b 22bd 3887 b1bb 8146 dcbd
000001c0: a905 95bd bb7a 54bd 7b9c 7f3d 0cab c13c
000001d0: d9c5 79bd 9936 06be 0ac1 c03d ef5a fa3b
000001e0: 3bbe a3bd 5cab f9bd dd15 17be 371d 29be
000001f0: e1c8 adbd 8e48 8f3d 3544 b9bd dc4b 793d
00000200: b930 a63d 7d53 babd 013c 94bc fdf7 e3ba
00000210: 179d 1fbe a164 edbc 67df 643d fe36 e6bb
00000220: d176 1dbe 7346 f8bc 0ca8 dbbd b706 863d
00000230: e019 b73d b51a 6e3d 6df2 aebd a8c5 b83c
00000240: 9146 c73c 764c 9c3d 4b04 4d3e ddc9 d6bd
00000250: f48f 66bd dc62 fd3c 681a efbd 3b36 d5bc
00000260: db3a 2c3b 672b 56bd 308d 803d 0224 093e
00000270: 89fa c8bd c4f8 efbc e730 a4bb b826 8dbd
00000280: ee36 4fbd e927 ff3c 2432 883c fbab 88bd
00000290: 2f5a ac3d 939c f0bc 0a75 e63d ef81 b1bd
000002a0: 9f50 693d 5d77 3ebe b6bf 5f3d dd36 8e3c
000002b0: ba2c 37bb 8cf4 4fbd 5b48 fdbc 7359 2e3e
000002c0: 2d07 67bd 3b6d a43d 062f 78bd 87c4 4abc
000002d0: 8d90 94bd da84 ccbc caf3 edba 67dc 73bd
000002e0: f014 c8bc 0674 273a 32e3 a33c 35a1 90bd
000002f0: 0b57 c5bc a6eb 1c3e 864b 5a3d 3e37 05bb
00000300: c7a5 a03e 8e1f 83bc 1c5b 363c fa01 ffbd
00000310: e50a d0bd 13a0 42bc de8d a73d 7905 b8bd
00000320: 2ef2 cfbd f67b 19be 422c 0dbe 83b4 5f3b
00000330: 97cb d5bb 9ec7 e7bc 045b a1bd f694 59bd
00000340: 15e3 98bd cd9e 993d ff5c ce3c 5d11 debc
00000350: e07a bebd 727c 86bd 93fe 883d 528b 103c
00000360: a7d2 923d 5d98 cd3c 9301 49bd c308 283c
00000370: 350c ecbd 6d46 983c af3d bcbd 984d 5fbd
00000380: ec49 e33d 8e00 63bd fed8 f7bc 69de c23d
00000390: 1547 893d 638f 45bd d5fc d3bd c436 92bd
000003a0: 718a 54bd cbe9 4ebd 90e3 b23d 2d06 703d
000003b0: 6f15 ebbd 0874 dfbd 4c0b 1abc becf adbd
000003c0: 0d01 c93c 25c9 8bbd cc11 c2bc df63 f73c
000003d0: 2fd1 8d3d 84b5 913c 3589 10be fc68 52be
000003e0: b7a0 9fbc 8224 c63d b886 223e 669b 43bb
000003f0: 262b e3bc 06f0 abbc 11cf 3b3e 3cd2 c73b
-0.13702136 -0.07629014 -0.065175235 -0.04233002 0.16170831 0.076810926 0.005474177 0.019724779
-0.081333585 -0.064861655 0.020154145 0.059481733 0.039063133 -0.063750744 0.17185494 -0.043147072
-0.1201594 0.06307917 -0.022827642 0.0914194 -0.1123545 0.026493356 -0.11560869 0.05962176
0.018271055 0.024031494 0.017653048 -0.05221613 -0.0036498278 -0.031040454 0.02377405 -0.022215603
0.030086866 0.021161964 -0.10647206 -0.07454272 -0.041942805 0.06240476 -0.02159414 0.03781105
0.015330468 -0.029815624 0.12265189 0.12846592 0.03477956 -0.0030678257 -0.0022175512 0.08215592
-0.16284974 -0.24130388 0.113916084 -0.08131358 -0.008835097 0.0025078307 0.09485106 0.1039846
0.11097753 0.0030737617 0.009799131 0.015068664 -0.101604834 0.102242835 0.0035985166 0.047569092
-0.06363168 0.08876168 -0.1163511 -0.06802651 -0.033604465 -0.124168575 -0.05075129 -0.027340803
0.045560315 0.11068244 0.20351431 -0.05621328 -0.05125067 -0.00591582 -0.016451076 -0.046504173
0.1993378 0.082084015 0.14864932 0.08228515 0.04736433 0.012025995 -0.012158027 0.02515257
0.02095531 0.021306148 -0.044712227 0.0022792965 0.015139209 0.12595682 0.1488869 0.09520996
0.045641836 0.0025718277 0.093796656 0.10363793 0.081956014 -0.10538816 -0.08472683 0.027371604
0.08007676 -0.12900794 -0.021208432 0.024328453 -0.11112268 -0.039607823 -0.0054177307 -0.10755635
-0.0727647 -0.051874857 0.06240509 0.023641132 -0.060979698 -0.13106765 0.09411819 0.0076402347
-0.07995268 -0.12190887 -0.14754434 -0.16515051 -0.0848558 0.069962606 -0.090462126 0.06086336
0.08114762 -0.090979554 -0.018095018 -0.0017392632 -0.15587269 -0.028978648 0.055877116 -0.0070255985
-0.15377356 -0.03030703 -0.10725412 0.065442495 0.08940482 0.05813094 -0.08542333 0.022555187
0.02432564 0.07631771 0.20021169 -0.10487721 -0.05628963 0.030930929 -0.116749585 -0.026026836
0.0026280198 -0.052287485 0.062769294 0.13392642 -0.09813411 -0.029293425 -0.0050107124 -0.06892151
-0.050589494 0.03114696 0.016625471 -0.06673428 0.08415639 -0.029371535 0.11252792 -0.08667361
0.056961652 -0.18600221 0.05462619 0.017360145 -0.0027950243 -0.050770327 -0.03091829 0.1702631
-0.056403328 0.080286466 -0.06059172 -0.012375957 -0.072541334 -0.024965692 -0.001815432 -0.059536364
-0.024424046 0.0006387833 0.020005796 -0.07061998 -0.024089357 0.15324268 0.05329468 -0.0020327116
0.31376478 -0.016006257 0.011130121 -0.12451549 -0.10158328 -0.011878985 0.08181356 -0.08985419
-0.10153614 -0.14988694 -0.13786414 0.0034134693 -0.006524514 -0.028293427 -0.07878688 -0.053120576
-0.074651875 0.07500992 0.025190828 -0.027107889 -0.0930078 -0.06566705 0.06689181 0.008822279
0.07169085 0.025097067 -0.049073767 0.010255995 -0.11525766 0.01858827 -0.09191453 -0.05451736
0.11098084 -0.05542045 -0.030254837 0.095150776 0.06703011 -0.048232447 -0.10350958 -0.07139352
-0.05188984 -0.05051593 0.0873481 0.05859964 -0.114786975 -0.10910803 -0.009402107 -0.08486889
0.024536634 -0.06825475 -0.023690127 0.03019899 0.06924664 0.017786749 -0.1411484 -0.20547861
-0.019485814 0.09674932 0.15871704 -0.0029847263 -0.027730536 -0.020988476 0.18340708 0.00609806

backbone.4.bias f4 [32]
00000000: 2680 96b3 15b3 00b4 8c91 d4b2 e50e 15b3
00000010: 8fc9 15b2 3e12 8e33 0203 25b3 0aa6 b633
00000020: 3dcd 5b35 fe01 49b4 1247 4c35 1f94 6cb5
00000030: e7fb 1534 a83e f9b3 3b79 d433 e8b4 a333
00000040: 6452 00b2 aede 22b2 3dae a231 e53a 89b4
00000050: 05d2 8234 fa6e ebb4 3d89 06b3 a3e6 95b3
00000060: 01c0 92b4 10ee 73b4 e669 36b4 7def 9433
00000070: d81a b1b4 3a78 2eb4 d9db afb4 979a 3633
-7.0082294e-08 -1.1986079e-07 -2.4746235e-08 -3.4705312e-08 -8.718771e-09 6.6157085e-08 -3.8419792e-08 8.505238e-08
8.188252e-07 -1.8720309e-07 7.6099343e-07 -8.8132396e-07 1.3968348e-07 -1.1606363e-07 9.894071e-08 7.6231856e-08
-7.469314e-09 -9.480273e-09 4.734629e-09 -2.556109e-07 2.4367196e-07 -4.3852907e-07 -3.1324124e-08 -6.980306e-08
-2.733432e-07 -2.2717745e-07 -1.6988596e-07 6.93535e-08 -3.298835e-07 -1.6248751e-07 -3.275625e-07 4.2515776e-08

backbone.5.weight f4 [32]
00000000: 2e2e 743f a978 7e3f f187 7b3f 4f99 823f
00000010: 8d99 743f 1790 7e3f 7947 803f 11ce 773f
00000020: 1e4a 7a3f 64a1 803f 79e1 7c3f f8db 833f
00000030: c8c0 7a3f c390 773f e7f2 7c3f 8298 7e3f
00000040: bce6 723f f7c2 7d3f 3847 803f 9417 7a3f
00000050: ee1f 813f 029b 7a3f 857f 753f 3c38 7f3f
00000060: 1896 783f c986 7e3f 8f66 783f 1033 833f
00000070: 0910 783f 0a2d 813f 1783 783f 7c72 793f
0.95382965 0.9940286 0.98254305 1.0203036 0.955468 0.99438614 1.0021812 0.9679881
0.97769344 1.0049253 0.98781544 1.0301504 0.9795041 0.96705264 0.9880814 0.9945146
0.9488332 0.9912562 1.0021734 0.9769223 1.0087869 0.97892773 0.95897704 0.9969518
0.97104025 0.99424416 0.9703149 1.0249958 0.9689947 1.009187 0.9707503 0.97440314

backbone.5.bias f4 [32]
00000000: 73ab be3c e37e 13bd de25 683c da51 173c
00000010: 8314 87bc 447e 823c bf09 c13b 9017 07bd
00000020: 92da afbc bde3 84bb af7f 713c f3ac 16bc
00000030: c47a 5e3c 01ac 0fbd b5a4 d33c e880 893c
00000040: f49a 3abd 4f4f d3ba e309 993c a12d 903c
00000050: 79d5 e73c 93af 7bbc a33c 02bd 1c29 1cbc
00000060: 199f c0bc 8d88 85bc e08e 583b 697c d93c
00000070: 2c31 6abc 55b2 ad3b edfc 6cbc 4f92 473c
0.023275113 -0.03600968 0.0141691845 0.0092358235 -0.016489273 0.015929349 0.0058910544 -0.032981455
-0.021466527 -0.004055469 0.014739915 -0.009196508 0.013579074 -0.035076145 0.025835374 0.0167851
-0.04555793 -0.0016121658 0.018681472 0.017599883 0.028300034 -0.015361684 -0.03179611 -0.009531286
-0.023513364 -0.016300464 0.0033044145 0.026548581 -0.01429395 0.0053008 -0.014464599 0.012180879

backbone.5.running_mean f4 [32]
00000000: fd90 0dbe abc6 2abf 4459 81be a464 07bf
00000010: 7a5f 86be 67c4 02bf de5b 29bf b7b4 51bf
00000020: 5d43 32be dcc3 56bf 9c8b 5c3f 0e0e 48bf
00000030: 53c8 ecbd ab51 41be bd45 dabe d34b 6ebe
00000040: 9bf2 49be 6490 313f 97f0 44bf bab1 7abe
00000050: 1ac1 7fbd 3950 9bbf 6b9a e73e f697 6bbf
00000060: 9b7a 393f 625d bbbd f9e4 4b3f e802 0fbe
00000070: 3e54 a7b9 f573 79be 9b52 dcbe 1952 cfbd
-0.1382484 -0.66709393 -0.25263417 -0.5288794 -0.26244718 -0.51080936 -0.66155803 -0.81916374
-0.1740851 -0.8389261 0.86150527 -0.78146446 -0.11561646 -0.1887881 -0.4263133 -0.23271112
-0.19721453 0.6936095 -0.7692961 -0.2448186 -0.062440015 -1.2133857 0.45235 -0.9202875
0.72452706 -0.09148671 0.7964626 -0.13965952 -0.00031915487 -0.2436064 -0.43031773 -0.10123081

backbone.5.running_var f4 [32]
00000000: ebcb 983e 6f5f dd3e e7c0 ba3e c019 c63e
00000010: 8f03 7a3e 4b13 013f 1f34 883e 1077 943e
00000020: 142a 093f c00f b23e 25da 833e 75a9 473e
00000030: f8d1 5d3f 537a 523e 5e47 e93e 8eb5 833f
00000040: acad 683e 2300 dd3f 6d23 1c3f 4598 bf3e
00000050: 61ee 953e f4da 003f 54ee 033f 3178 ba3e
00000060: 942f a83f 21a3 a83e 01d0 153f 4a00 183f
00000070: 0867 9c3e d693 203e ab50 8b3e d518 ae3e
0.29843077 0.43236873 0.36475298 0.3869152 0.2441542 0.50420064 0.26602265 0.28997087
0.5357983 0.3477764 0.2575237 0.19498236 0.8664851 0.20554475 0.4556226 1.0289781
0.227225 1.7265667 0.60991555 0.3742086 0.2928343 0.50334096 0.51535535 0.36419824
1.313952 0.32936957 0.58520514 0.5937544 0.30547357 0.15681395 0.27209982 0.3400332

backbone.8.weight f4 [64, 32, 3, 3]
00000000: dac8 7dbb 2f12 2abd dbb7 833c 9b58 3abd
00000010: 0b6e 063d 9233 1bbd a0da a8bc d2da 6bbd
00000020: 59a7 4cbd 33a3 483d 43c5 653d d2bd 263d
00000030: dcf9 1fbd 3584 c83c 1552 aa3c ad10 153c
00000040: 707e 813c 1628 bb3d 65ad 55bc 27d7 1c3d
00000050: 7bc1 ec3c 79a9 3b3d f49b 0ebc 21e1 0fbc
00000060: b6e3 72bd b6eb bebd 2600 ddbb d645 023e
00000070: 004b 47bd 83ea 15bd b60d 9dbc 6a16 933d
00000080: deba e1bc d7ae 0c3c e5ff 973c 543d c33c
00000090: d598 e7bc cddc f2bc 7641 a9bc 2603 70bd
000000a0: 0a3a acbd c96d 8cbd d68c b5bd dfe2 80bc
000000b0: 7820 49bd 1e86 10bd 1eab 79bd 46a1 19bc
000000c0: 13cf 873d 13f0 39bc b32c ed3c d956 493d
000000d0: 174d 51bc fa7f 763d 55e4 08bd 11e6 93bd
000000e0: cf67 70bd e846 8a3c f5a6 323d 339d 9c3d
000000f0: c81c 34bd 796d 5d3d f89e 0dbb f6c7 2c3d
00000100: 29e9 8f3d 62bb 143d cdfd 1f3d 5260 b53c
00000110: 1a0c 20bd 9689 34bc adcb 45bc dbf6 a1bb
00000120: cb57 53bd 71ef 663d cb8b bdbc 29e8 02bd
00000130: a034 51bc e373 02bd 7858 8dbd da42 fbba
00000140: 0d2d 53bd fe32 d33d af40 83bd 2411 c13d
00000150: 17bc a93b 5ce9 a1bd 0a27 af3c 7eb7 eb3c
00000160: 69c1 14bd 1d95 413d b18d c9bd 6025 86bd
00000170: 03cf ddbd 0620 a83c d815 b8bc e251 a8bc
00000180: 2d2a 203d 3ba1 913d 9890 eabc f89e 8ebc
00000190: e553 d03b 210d b53d 36ce 84bc 539d b53c
000001a0: 2743 2fbc 0586 3ebd ddee 2e3d 043a 04bd
000001b0: dcf2 823d af9b 57bd 3f2a f8bb 56c3 a1bd
000001c0: d029 a6bd 1da8 8abc c486 c73d 1ea8 77bd
000001d0: 2ad4 733c 0df8 a7bd 2665 2e3b df81 89bc
000001e0: 2b86 04be 5297 77bc 9549 5bbd 9a76 deba
000001f0: 3d48 0b3c f54e 86bc 4387 04be b6bf 3dbd
00000200: a22b 603c 638e b7bc 6776 79bd 4b39 2cbc
00000210: b2f5 82bd 4ee5 29bb cd70 2fbd 22b9 113d
00000220: a887 52bc 8304 90bd db3f b8bc e713 1e3c
00000230: 73aa c3bc 4339 69bc b02f 7bbd 921a 5a3d
00000240: 732f aebd 2f28 44bd d6eb 3fbd 843a b6bd
00000250: 5e9b babd 6c3a 5cbb 994d 8fbd 97b1 42bc
00000260: d193 003e f875 9abd 995a 65bd 22e0 b63d
00000270: 946b c03d c441 3bbd 61ab f2bb 70fc 083e
00000280: 5d06 31bc 8430 cfbb 846f 063d 2c33 fc3d
00000290: fef8 2b3c d64f 39bd b0c6 373d ea0f f0bc
000002a0: b942 b33d f90b b4ba 1010 bbbd bb7b a8bc
000002b0: 7054 09bd 3fe5 863d 1f43 1fbd 457a 5dbd
000002c0: 5614 c7bd 147e 4e3c d03d eabc 1c96 92bd
000002d0: 53ea bcbd a0fb 1e3d a037 b1bb 0df8 30be
000002e0: 18b6 75bd 0323 31bd f412 753d e2a4 8a3b
000002f0: 40b6 9abd f43d 7a3b fa24 8a3d 6bdc 303d
00000300: 7458 dd3c afdc 9b3d 829b 7b3c 67de 00bd
00000310: b410 42bd 8111 00bd 1ad0 83bd ec2d 16bd
00000320: 3a66 54be 6720 053c 808b 42bd 242b 3abd
00000330: 4573 bcbc 9d89 b03b 2c60 bebd 512d 373d
00000340: 883a 80bd fef5 843c f413 d83c 2664 2ebc
00000350: 6ffe 68bd 8882 c93c 7273 c23d ec96 053e
00000360: 5b19 94bc a292 8fbd 9c71 8fbc 6aa7 38bd
00000370: 7daf 993d 8f4d 84bd 0313 a7bc 6bba 0ebd
00000380: 4650 e33c 1fcb 223d 2b60 1ebd afcc 143d
00000390: 51fa 59bd 2fe0 8dbb eafb 2c3d 1e6b 13bd
000003a0: 899b f8ba d4e9 83bd ef16 a4ba d424 ce3d
000003b0: 0179 8fbc 0b19 513d 038e 203d 8423 aa3c
000003c0: 4e4d 14be 0fd9 dd3a 1dd6 acbc 979a 9ebd
000003d0: 8157 c13c fce5 d63d 9a7d 0e3c d09c 2a3d
000003e0: 0c5a 163d 300d 37bd 5b8f a5bd 8bad 323d
000003f0: 0535 a9bd 6bea 08bb b026 e8bb 12fa b23d
-0.0038724453 -0.041521247 0.01607888 -0.045494657 0.03281979 -0.03789098 -0.020612061 -0.05758173
-0.049964283 0.048983764 0.056096327 0.04070837 -0.039056644 0.024477104 0.020791093 0.009098214
0.01580736 0.09138505 -0.013041829 0.038291123 0.028900852 0.04581592 -0.008704174 -0.008781702
-0.059299193 -0.09322302 -0.0067444025 0.12721953 -0.04865551 -0.0366006 -0.019171577 0.071820095
-0.027554926 0.008586607 0.018554637 0.023832954 -0.028271118 -0.029646302 -0.020661097 -0.058596753
-0.084095076 -0.06856877 -0.08864753 -0.01573318 -0.04910323 -0.035284154 -0.060954206 -0.0093768295
0.06631293 -0.011348742 0.028951978 0.04915509 -0.012774727 0.06018064 -0.03342088 -0.07221616
-0.05869275 0.016879514 0.043616254 0.07647171 -0.04397276 0.05405948 -0.0021609645 0.042182885
0.07026894 0.036311515 0.039060403 0.022140656 -0.03907404 -0.011019131 -0.012072486 -0.0049427575
-0.051597398 0.056380693 -0.023137948 -0.031959686 -0.012768894 -0.0318488 -0.0690164 -0.0019169704
-0.051556636 0.1031246 -0.06408822 0.094270974 0.0051798928 -0.07905838 0.02138092 0.02877402
-0.036317263 0.047261346 -0.098414786 -0.065500975 -0.108305 0.020523082 -0.022471353 -0.020546857
0.039102722 0.071108304 -0.0286334 -0.017409787 0.0063576573 0.08840395 -0.01621161 0.022169745
-0.010697163 -0.04651453 0.042708267 -0.03228189 0.06393978 -0.052638706 -0.0075733955 -0.078985855
-0.08113444 -0.016925866 0.097425014 -0.060463063 0.014882127 -0.08201609 0.0026610582 -0.01678556
-0.12941806 -0.015111761 -0.05353697 -0.0016972602 0.00850111 -0.016395072 -0.12942223 -0.046325408
0.013682278 -0.022406762 -0.060903933 -0.010511707 -0.06394519 -0.002592403 -0.042832185 0.035576947
-0.012849726 -0.070321105 -0.022491386 0.0096483 -0.023884987 -0.014234844 -0.061324775 0.053247996
-0.08505144 -0.047889885 -0.04685577 -0.0889788 -0.09111665 -0.0033604158 -0.069972225 -0.011883161
0.12556387 -0.07542032 -0.055994604 0.08929469 0.09395519 -0.045717016 -0.007405684 0.13377547
-0.01080474 -0.006322922 0.032821193 0.12314448 0.010496376 -0.045242153 0.044867218 -0.029304463
0.08752961 -0.0013736478 -0.09133923 -0.020566812 -0.03352779 0.06586694 -0.03888237 -0.054071683
-0.09720676 0.012603302 -0.028593928 -0.07157537 -0.09224381 0.038814187 -0.0054082423 -0.17282124
-0.05998811 -0.04324628 0.05983253 0.0042310813 -0.07554293 0.00381839 0.06745334 0.043178957
0.027019717 0.076104514 0.0153569 -0.0314621 -0.04737921 -0.031266693 -0.064361766 -0.03666489
-0.20742121 0.008125401 -0.04749632 -0.0454513 -0.023004184 0.0053874985 -0.09295687 0.04472095
-0.06261164 0.01623058 0.026376702 -0.010643994 -0.05688327 0.024598375 0.09494676 0.13045853
-0.018078497 -0.0701039 -0.017510228 -0.045081533 0.07504175 -0.06460106 -0.020394808 -0.03484575
0.027748238 0.039744493 -0.03866593 0.036328014 -0.053217236 -0.0043297033 0.04223243 -0.035990827
-0.0018967252 -0.064410836 -0.0012519042 0.10065618 -0.017513754 0.051049273 0.039197933 0.020768888
-0.14482614 0.001692565 -0.02109819 -0.077443294 0.023601295 0.10493085 0.008696938 0.041653454
0.03670697 -0.04469031 -0.080839835 0.043622535 -0.08262066 -0.0020891677 -0.00708469 0.087391034

backbone.8.bias f4 [64]
00000000: b02e 5233 1785 0433 e11d 8a33 a338 ca31
00000010: d531 d231 cefd 5fb2 b127 df31 8102 ae33
00000020: ba4f abaf 81a1 c9b2 20c2 61b0 81b5 a633
00000030: dfd9 c6b2 6fe0 25b2 2068 9632 1f5c 30b2
00000040: 8cb6 8132 8b56 41b4 5fcb 2c33 239c 5d33
00000050: 71a3 7133 d974 a533 232d fab2 05c8 6e33
00000060: 4bb5 9133 f96e 6232 00a1 2bb4 37b7 9f32
00000070: cc58 8132 e646 8eb2 efc1 3235 a952 9132
00000080: b084 a9ab b300 9033 c92a 56b3 07ea 6833
00000090: 3e69 e9b1 3155 9532 9540 be31 e72c bf33
000000a0: 9fab b2b2 54e1 8ab2 9c05 edb1 2dff 1032
000000b0: 7c1e 90b0 c67e 68b3 455a e133 4869 06b3
000000c0: 8ba2 3433 6e6f dd32 82ab 0434 cb18 a031
000000d0: 9ebe bf32 f543 db33 f278 52b3 cf3e 1f34
000000e0: b31b 96b3 5129 e0b2 d7ff c4b3 7e0c c7b3
000000f0: abdb 2134 5ea9 b0b3 56e9 78b3 6442 dfb1
4.8936897e-08 3.085469e-08 6.431561e-08 5.8854126e-09 6.1174696e-09 -1.3038017e-08 6.4946666e-09 8.102962e-08
-3.1161368e-10 -2.3472923e-08 -8.213039e-10 7.762993e-08 -2.314931e-08 -9.655294e-09 1.7509649e-08 -1.0265494e-08
1.510059e-08 -1.800601e-07 4.0231836e-08 5.1597578e-08 5.6260834e-08 7.704666e-08 -2.9124356e-08 5.559561e-08
6.785066e-08 1.3180164e-08 -1.5984187e-07 1.8593353e-08 1.5057957e-08 -1.6563217e-08 6.659238e-07 1.6917811e-08
-1.2045e-12 6.70565e-08 -4.986467e-08 5.4229556e-08 -6.793157e-09 1.7384624e-08 5.53707e-09 8.902298e-08
-2.0799972e-08 -1.6167782e-08 -6.8982455e-09 8.439923e-09 -1.0486043e-09 -5.413201e-08 1.0493799e-07 -3.129506e-08
4.2057348e-08 2.5778458e-08 1.2355852e-07 4.6594315e-09 2.232201e-08 1.02103435e-07 -4.9004434e-08 1.4830879e-07
-6.989958e-08 -2.609582e-08 -9.173498e-08 -9.268932e-08 1.5074208e-07 -8.2264464e-08 -5.7954217e-08 -6.497702e-09

backbone.9.weight f4 [64]
00000000: 4173 793f d957 733f b5dc 7b3f 44da 7a3f
00000010: 4fba 6e3f ae24 653f 2274 5e3f 824a 773f
00000020: f98c 653f b931 823f 35ff 703f 4af5 7f3f
00000030: d3b3 793f f405 713f 06da 7c3f cadb 833f
00000040: 513e 6d3f 7e75 783f da94 653f 3e03 823f
00000050: 1763 693f fe55 813f 5f06 6f3f 9400 7c3f
00000060: dca2 773f d6d9 6f3f 1bfd 813f 4bb2 6c3f
00000070: c41a 653f 02d6 5f3f 721d 823f 3d43 723f
00000080: fae7 6e3f 4479 783f cbb6 7b3f 5b13 843f
00000090: 0b52 763f a791 7a3f 6e36 793f 97bc 6a3f
000000a0: 1779 683f 7d89 643f b1ba 753f 214f 793f
000000b0: 35d7 783f d860 823f 336b 793f 85d9 7d3f
000000c0: 37bc 763f 2621 7c3f e582 833f 4a6b 673f
000000d0: edb3 7f3f 12af 813f 1150 703f 6254 813f
000000e0: c14d 783f b318 7c3f 9d16 7f3f 97ac 7d3f
000000f0: 565a 823f 38bd 793f a0c1 7d3f 547a 743f
0.9744149 0.9505592 0.9838365 0.97989297 0.93253034 0.89509094 0.86895955 0.96598065
0.8966823 1.0171424 0.94139415 0.99983656 0.97540015 0.9414971 0.9877018 1.0301449
0.9267321 0.9705428 0.89680254 1.015724 0.91166824 1.0104368 0.93369097 0.9843838
0.9673288 0.93691766 1.0155367 0.92459553 0.89493966 0.87435925 1.0165236 0.9463385
0.9332272 0.97060037 0.98325795 1.0318407 0.9621894 0.978785 0.9734868 0.91694015
0.9080977 0.8927229 0.95987993 0.97386366 0.9720338 1.0185804 0.974292 0.99160033
0.96380943 0.9848808 1.0274321 0.90398085 0.9988392 1.0131552 0.9387217 1.0103877
0.96993643 0.9847519 0.9964388 0.99091476 1.0183818 0.9755435 0.99123573 0.9549916

backbone.9.bias f4 [64]
00000000: 0178 25bd e993 a7bc 6b42 20bd dec2 af3b
00000010: 65ad 34bd 202c 2fbd 78a0 983b dbec 4ab9
00000020: 140b 05bd 0c85 34bd b304 43bc 725d 12bd
00000030: f040 f9bc 60e9 c0bb 13be b3bc 5389 853b
00000040: 7c70 aabc 2f16 adbc 24be dfbc afb6 ab3b
00000050: 313f 43bd ba62 ccbc 4148 f2bc 0e8c abbc
00000060: ab1f 8d3c 5093 bbbc 95e4 4ebc 13d8 24bd
00000070: cbff c3bc b1f0 39bc eb68 16bd 8c4b dbbc
00000080: 5403 62bc eae1 e0bc 422b 95bc 100a bfbc
00000090: f461 31bd 7d58 ccba ab51 37bc 563a 02bd
000000a0: e2cf 2ebd 7cd8 e1bc 265a 24bd 74b3 57bd
000000b0: 624b a6bc c5d0 babc a3ca 83bc ec15 8abc
000000c0: f2d4 babb 87a4 53bc daa3 34bd 1aa7 02bd
000000d0: ba0e 98bb d860 4cbd ebde 35bd 6d9c 53bd
000000e0: dd2b 87bc 7105 aebc f5b3 02bd f46f 05bd
000000f0: bab4 1dbd 8210 18bd 7e7a 4abd ba71 1abb
-0.040397648 -0.020456271 -0.03912584 0.005363806 -0.044110674 -0.04276669 0.0046578012 -0.00019352457
-0.032481268 -0.044072196 -0.011902976 -0.035733648 -0.030426472 -0.0058871955 -0.02194122 0.004075208
-0.02080559 -0.021128742 -0.027312346 0.0052402834 -0.047667686 -0.02494942 -0.029575469 -0.020940807
0.017227015 -0.022897393 -0.01262774 -0.040245127 -0.023925683 -0.011348889 -0.03672115 -0.026769422
-0.013794739 -0.027451474 -0.018209103 -0.023320228 -0.043306306 -0.0015590336 -0.011188905 -0.031793915
-0.04267872 -0.027569048 -0.040125035 -0.052661374 -0.020299617 -0.022804627 -0.016087836 -0.016856156
-0.0057016546 -0.012917644 -0.044101574 -0.03189764 -0.0046404274 -0.049897045 -0.044402044 -0.05166285
-0.016500408 -0.021242829 -0.0319099 -0.03257747 -0.038502432 -0.037125118 -0.049433224 -0.0023566321

backbone.9.running_mean f4 [64]
00000000: 24e6 88bf 234a b5be c1e8 3fbe be22 7bbf
00000010: e5c0 093d 9cdf a6be 01fc 74bf 22e9 6cbf
00000020: 0c21 a43f 8065 de3d 664c 223e 5705 5abe
00000030: 6089 20be 729a 9d3c bc32 0fbf d37c 56bf
00000040: 855e a7bf f50a ddbd 8b9f 54bf bf26 98be
00000050: 0867 dfbe ba4e 8dbd 20b6 33bf 57cc 90bf
00000060: 0d3b 46bf 473f 99bf c9bb 8cbf 5be4 1dbf
00000070: b418 4abf e8ac 3abf 7f20 79bf 331c f0be
00000080: c11d 503f 591c 6a3f e3c9 0fbe 8d6d b0be
00000090: add6 553e 6fa0 cdbf 45b9 b53e f784 34bf
000000a0: a81e eabe 0558 64bf 802a 01be 0c20 ddbe
000000b0: 676e 303f a876 bbbe d6c3 23bf 55a8 d9bd
000000c0: 4701 08bf 9d70 23bf 57d3 2dbf 87d0 aa3f
000000d0: 5350 d3be 3b7a 0abf e370 22bf e1b6 793e
000000e0: 5a2a bc3f 136b 8e3e 95a4 71be 8e4a b1be
000000f0: 5bae d0be 8f88 ce3f ca05 c4be 95a2 f03e
-1.0695233 -0.35408124 -0.18741132 -0.9809989 0.033631224 -0.32592475 -0.9569703 -0.9254323
1.2822585 0.10859203 0.15849456 -0.212911 -0.15677404 0.019238684 -0.5593679 -0.83784217
-1.307572 -0.107931055 -0.83055943 -0.2971706 -0.43633294 -0.068997815 -0.70199776 -1.131236
-0.77433854 -1.1972436 -1.0994807 -0.6167657 -0.78943944 -0.72920084 -0.9731521 -0.46896514
0.812954 0.91449505 -0.14041857 -0.3445858 0.20882674 -1.6064585 0.35492912 -0.7051539
-0.45726514 -0.8919681 -0.12613869 -0.43188512 0.6891846 -0.36613965 -0.63970697 -0.1062781
-0.5312695 -0.6384371 -0.67900604 1.3344887 -0.4127222 -0.5409276 -0.634535 0.24386169
1.4700425 0.27816066 -0.2359794 -0.34627193 -0.40758023 1.6135424 -0.38285667 0.4699904

backbone.9.running_var f4 [64]
00000000: fca4 953f 5348 683f 6b4d 0a3f 62a1 bd3f
00000010: 6963 de3e 02b0 8d3f eb97 953f ffe3 483f
00000020: dc5d 7d3f 1afa 1f3f 116b de3f fdf7 313f
00000030: b115 2c3f e041 343f fa92 483f cd18 153f
00000040: b943 c33f fc51 083f 864b 5d3f 9b11 503f
00000050: 2962 163f 7e1e de3e 5210 7e3f 07b4 0040
00000060: 4fe6 783f 4e8c 2a3f 0341 823f 01ea d83e
00000070: 46d3 6f3f 03a5 563f 38d7 0d3f b935 563f
00000080: cd2d 1340 2e74 ac3f ee85 2e3f c7de ee3e
00000090: 30bd 2b3f 0b41 cb3f cb54 ab3f 8b7e 173f
000000a0: 4c58 473f 8990 f33e 87b0 083f bbff 913f
000000b0: dfe2 ec3f 9435 133f c130 873f f491 133f
000000c0: f2b0 743f ae72 673f 4e16 053f a8c0 e43f
000000d0: bb85 313f b56a de3e 8a50 7a3f 0041 203f
000000e0: 83a5 0140 e823 753f 09eb 2a3f e964 133f
000000f0: 0a04 353f fde4 5040 c2e9 1e3f ec28 733f
1.1690974 0.9073536 0.5402438 1.4814875 0.4343522 1.1069338 1.1686987 0.78472894
0.98971343 0.62491 1.7376424 0.69519025 0.672206 0.7041302 0.7834927 0.5824097
1.5255042 0.532501 0.86443365 0.81276864 0.5874353 0.4338264 0.9924365 2.010988
0.97226423 0.6662034 1.017609 0.4236603 0.9368175 0.8384554 0.5540652 0.83675724
2.2996705 1.3472955 0.6817311 0.4665434 0.6708555 1.5879225 1.3385252 0.59177464
0.77869105 0.4757121 0.5339436 1.1406168 1.8506736 0.5750363 1.0561754 0.5764458
0.955825 0.9040936 0.5198716 1.7871294 0.6934468 0.43440786 0.9777914 0.6259918
2.025727 0.95757914 0.66764885 0.5757585 0.7070929 3.2639763 0.62075436 0.94984317

backbone.12.weight f4 [128, 64, 3, 3]
00000000: 6ec3 583c 597c 39bd 94ea a33b 9502 fabc
00000010: 4fbe 8d3b 9dbf 773c 0317 30bc 15a4 a1bd
00000020: 5353 153d 2014 35bd c0b2 24bd ce6e 1dbb
00000030: 2c90 63bd f7ee 18bd f781 9a3c 06be a5bc
00000040: a65c 6d3b c51b f3bc ade1 a3bc 0a08 c4bc
00000050: 24a5 933c d95a f93c ff14 a93d 7755 6e3d
00000060: 359d 89bc 6030 783d e468 083d 5a49 903b
00000070: 7799 1e3c af40 f83c a01b e6bc c95f bb3d
00000080: dfc5 97bd 54b8 8fbd b36a db3d d16a 2d3d
00000090: b420 433c c4a1 3cbd 56e6 643c 9337 debc
000000a0: e2ed 9d3b ec10 f5bc cfef 9abc bcaa 72bc
000000b0: c8fb c13b 3aa2 503d 9082 b53c efca 9bbc
000000c0: a082 9d3c 5d41 183b e566 a33c ae35 463a
000000d0: efb0 173d 9046 483d de2e 7fbd bad0 be3c
000000e0: c311 033a a767 1cbd 77ff 0a3d d347 b4bd
000000f0: 9980 f0bc 735c 9d3c 23ff 76bc c743 5d3d
00000100: ff86 9dbc 3ca5 b23b a17c 743c e460 5c3d
00000110: c4d5 a73d 77f1 dabc 5813 ab3a 87ce 5a3c
00000120: 598c 613b 6824 0bbc 6ea3 2fbd 5c51 c03b
00000130: ef1b e63c 990f 6ebd 112d 01bd dbce a43c
00000140: 9c6f 7c3c ead4 72bd 4ff2 963c d73b 5a3b
00000150: 4061 d93c e71b 8e3c 1ae3 4bbd 4e4a 843d
00000160: 1bed 663d c5cf d83c 269d e7bc d6fc 423d
00000170: 288e f7bc 667b 23bd de2b 6f3d e7fe a7ba
00000180: 1ebd 8a3d 782d 903c 8eda db3c 866e 80bd
00000190: a05a 56bc 0687 78bb 5023 7bbd ff19 d53c
000001a0: 08fb 3d3d 6f7b 763d a089 823d b092 643c
000001b0: a7a5 cebc cec6 963c 11bd fb3c de9e 3bbb
000001c0: 4522 793d 51d6 bc3c 51cd efbc 84ad 3dbc
000001d0: 2981 c1bc 8ff6 0cbc b2c3 a93b df0a d2bc
000001e0: 3d8e a33c 1cfe 00bc e344 a43c a2e1 8ebc
000001f0: 4607 29bb 3d1d 95bc 10b9 dc3a fdd2 663c
00000200: 9ba7 d1bc ff20 743c 137a 05bd 6154 57bd
00000210: 81b2 333d 2f4d 213d 6779 db3c 5c75 193d
00000220: f5d1 053c 1709 f23c d88e d2bc 10f6 c5bb
00000230: 6969 18bc a766 30bc 9001 683d 4d64 323b
00000240: de5f 1bbd e671 98bc 4ad7 843d be78 8f3c
00000250: 6a0d 2f3d 8217 96bd 0a57 b8bc 269d 8ebd
00000260: 6f06 1a3d 88ff bc3c c8f9 9ebc c3f6 12bc
00000270: 727c 813b cc9a cabc 048e a7bd 8850 26bd
00000280: 979a 5fbc d837 23bd 5d08 d8bc 23b8 b23c
00000290: 6702 13bc af4b 93bd 9c86 5e3d 1060 693d
000002a0: aff7 babc 9af6 8f3c 569b b43d 82e8 32bd
000002b0: 400c 73bc 7344 32bd 5b5f 35bd 30e6 8dbb
000002c0: 099f 133d 79ea 90bd e364 2a3d acbc 9b3d
000002d0: 58bb d1bc fad9 a1bc c007 b1bc 21f3 e23c
000002e0: 9d55 0bbc a814 703d 5e05 c4bc befb 0c3b
000002f0: 34f6 9f3c c990 50bc 2111 9ebb 36a8 06bb
00000300: af2b 9d3d 5a44 523d 33b7 bd3c 75b0 f0bc
00000310: fe98 fa3c 6fd5 793d f3e9 13bc 7b01 0bbd
00000320: 5f10 293c c8b0 0abd 4694 4a3d 6f42 da3d
00000330: e8c1 b33c 9713 c43c 3390 ae3c 903b 3ebd
00000340: 0108 863c 94cc 21bc 0b72 94bd 2ed2 66bd
00000350: e1e6 073c 4b10 f43b 56fe 57bc 8a69 10bd
00000360: 328d 303d 2f86 30bd 0152 a23d efaa 52bd
00000370: 1edd 953d 6d75 6e3d dcae 2f3d bd1b 253d
00000380: 181b 3abd 4a09 13bd 1d61 68bc 84cf 883d
00000390: 854e f5bc c1ec 1d3c edcd 443c e221 153d
000003a0: 679b 94bd 7f0e 8ebb 5387 64bd feb2 56bd
000003b0: ce05 123b a7bb 1d3d 86e7 4f3d 1634 5d3d
000003c0: f309 4ebd a0d7 ac3d 7c7f 76bc 52d0 39bd
000003d0: c531 47bd 1abd 713d 6a4a efbb c11c 2a3b
000003e0: 6603 213d aebe d63c 89b8 54bd 6b3e bc3c
000003f0: 1e37 e93b 6926 b73b 10e4 b9bc eea9 943d
0.013230188 -0.045284603 0.005002329 -0.03051881 0.004325665 0.015121368 -0.010747674 -0.07892624
0.036456417 -0.044208646 -0.04020953 -0.0024022344 -0.055557415 -0.03733727 0.0188608 -0.020232212
0.0036218553 -0.029676327 -0.020005072 -0.023929615 0.018023081 0.030438827 0.08255958 0.058186974
-0.016798595 0.06059301 0.033303156 0.0044032754 0.009680144 0.030304281 -0.028089345 0.09149129
-0.07410788 -0.0701758 0.10713711 0.042338196 0.0119096525 -0.04605271 0.013970932 -0.02712611
0.0048196176 -0.029915296 -0.018913178 -0.014811214 0.0059199072 0.05093596 0.022156984 -0.019017665
0.019227326 0.002323232 0.019946525 0.00075610995 0.03703397 0.04889542 -0.062300555 0.023292888
0.00049999 -0.038184788 0.033935037 -0.08802762 -0.029358195 0.019209122 -0.015075478 0.054019716
-0.01922941 0.0054518264 0.014922292 0.05380334 0.081950694 -0.026726468 0.001305203 0.013354904
0.003441593 -0.008492567 -0.042880468 0.005869074 0.028089492 -0.058120344 -0.03153712 0.020118168
0.015407469 -0.059285082 0.018426089 0.0033299827 0.02653563 0.01734729 -0.049777128 0.06459485
0.056378465 0.02646626 -0.028273176 0.047604404 -0.030219153 -0.039912604 0.058391444 -0.0012817056
0.067743525 0.017599806 0.026837613 -0.06271081 -0.01308313 -0.0037922277 -0.061312973 0.026013372
0.04638198 0.06017631 0.06373906 0.013950989 -0.025225474 0.018405344 0.030729802 -0.0028628628
0.060823698 0.023051413 -0.029272707 -0.011577014 -0.023621159 -0.008603706 0.0051807994 -0.02563995
0.019965285 -0.007873084 0.020052379 -0.017441574 -0.0025791689 -0.018202418 0.0016839821 0.014088389
-0.025592616 0.014900445 -0.032587122 -0.052570704 0.043871406 0.03938025 0.026791288 0.03746544
0.008167733 0.02954535 -0.025702879 -0.006041296 -0.0093024755 -0.010766662 0.056642115 0.0027220428
-0.037933223 -0.018608999 0.06486376 0.017513629 0.042737402 -0.073287025 -0.022502441 -0.069635674
0.03760379 0.023071066 -0.019406214 -0.008969965 0.0039516026 -0.024732016 -0.08181384 -0.040604144
-0.013647697 -0.03984818 -0.026371175 0.021816319 -0.008972741 -0.0719217 0.054327592 0.056976378
-0.022823183 0.017573643 0.088186905 -0.043678768 -0.014834464 -0.04352231 -0.04428039 -0.004330419
0.03604034 -0.07075972 0.04160012 0.07604346 -0.025602028 -0.01975726 -0.02161014 0.027703824
-0.0085042985 0.05861345 -0.02392834 0.0021512355 0.019526578 -0.012729832 -0.0048238193 -0.002054704
0.076743476 0.051334716 0.023158645 -0.029381016 0.03059053 0.06099456 -0.009027946 -0.03393696
0.010318845 -0.033859998 0.04945781 0.106572025 0.021943048 0.023935122 0.021308994 -0.046443522
0.016361238 -0.009875435 -0.072483145 -0.056352787 0.008294792 0.0074482313 -0.013183197 -0.0352569
0.043103404 -0.043096717 0.07925797 -0.051432546 0.073175654 0.058217455 0.04289137 0.040309656
-0.045435995 -0.03589753 -0.01418331 0.066802055 -0.029944668 0.009638966 0.012011987 0.036409266
-0.07256203 -0.004335224 -0.055793118 -0.052416794 0.0022281292 0.038509037 0.050757907 0.05400475
-0.050302457 0.08439565 -0.015045043 -0.045364685 -0.04863145 0.059018232 -0.007302572 0.002595708
0.03930988 0.02621397 -0.0519338 0.022978982 0.007117166 0.0055892956 -0.022691756 0.07258974

backbone.12.bias f4 [128]
00000000: fc80 1c31 2747 59b1 638d b2b3 35d3 2c31
00000010: 18cf 08b2 3dfe 35b2 5e0c 1b2e c20e 1cb3
00000020: a0e8 e1b3 e20e c5b2 d6d0 6132 6312 5a32
00000030: 0b05 02b3 7a78 2433 de4a df32 1940 6231
00000040: 4522 08b3 8965 9732 2aed a3b2 d843 b132
00000050: 93b8 89b3 21b7 9332 ebdb ab32 a9e1 e5b3
00000060: 38b5 3331 8348 05b3 6445 4db3 2fa2 b4b2
00000070: ccf8 7231 82df 9cb3 696b 2432 d054 3633
00000080: 1f22 8333 706d 1532 a5aa 8933 4d0d 0932
00000090: a967 2a33 e493 42b2 c16c 2632 22e1 b3b3
000000a0: 6526 08b2 8ce0 5cb2 ade7 9d31 c205 beb1
000000b0: f769 5cb2 e1a8 50b3 a2da 35b2 db30 c032
000000c0: d6a6 9932 c5ed 12b3 7a00 7f33 59ba 0533
000000d0: f0d9 c1b2 a64e e531 903f e4b3 ff59 ac31
000000e0: 59bb 8fb2 3d62 0132 c083 fc30 45bf 3832
000000f0: 2320 5032 eddd 7e33 2ffc 51b1 4ee2 f1ae
00000100: bcf1 4eb3 0b70 b9b2 3eb8 94b2 4fe0 21b2
00000110: 8d39 7a32 8ec6 9032 4656 4fb2 049d 1734
00000120: 05c3 f3b2 4bbe a730 8511 c8b2 d3ff 7d33
00000130: c16e 3ab3 4d7d a6b1 798d 7bb2 3c84 37b2
00000140: 2f35 e3b2 4e2e 5fb3 ea6c cc31 84da 83b3
00000150: 94ab 1cb2 b398 3a33 3012 1033 c6b9 46b1
00000160: df1f 9432 00d1 5d32 d140 50b2 8be5 8f31
00000170: d002 0fb3 afc7 23b1 8376 3bb2 f9ef f2b1
00000180: 88d3 2fb3 fce4 1a31 b3e7 4f32 cf83 9bb2
00000190: a8e8 5732 14dc 2933 2293 5db3 c32a 2f32
000001a0: 67d7 c3b2 fb24 2baf 331a e8b0 6163 94b0
000001b0: f43a 98b2 a52a 5ab3 26a3 8a33 70a5 99b2
000001c0: 711b 8133 f6b6 dbb1 f9b6 7333 18fa b432
000001d0: 693f c632 4d51 b0b1 c382 2bb2 6545 fab2
000001e0: a03a 81b1 69ba ae30 cab9 8232 130e 2b33
000001f0: a564 ddb2 0380 1031 7a1b 3d31 c8e0 12b2
2.2774307e-09 -3.1618101e-09 -8.314489e-08 2.5149351e-09 -7.9633296e-09 -1.0593394e-08 3.5253904e-11 -3.6335003e-08
-1.0519693e-07 -2.2940586e-08 1.31442075e-08 1.2693451e-08 -3.027257e-08 3.82938e-08 2.5994662e-08 3.2923764e-09
-3.1696135e-08 1.7624886e-08 -1.9083547e-08 2.0636364e-08 -6.4131335e-08 1.719633e-08 2.0007027e-08 -1.0704691e-07
2.615094e-09 -3.1032425e-08 -4.7793392e-08 -2.102851e-08 3.535706e-09 -7.304972e-08 9.570479e-09 4.2452314e-08
6.1063695e-08 8.697825e-09 6.4106e-08 7.977474e-09 3.9675488e-08 -1.1325913e-08 9.6871995e-09 -8.3762885e-08
-7.924972e-09 -1.28567414e-08 4.59564e-09 -5.5303824e-09 -1.2829779e-08 -4.858237e-08 -1.0585298e-08 2.2373959e-08
1.7887412e-08 -3.4209524e-08 5.9372248e-08 3.1135958e-08 -2.2567264e-08 6.6737185e-09 -1.0628639e-07 5.01609e-09
-1.6732587e-08 7.531125e-09 1.8372859e-09 1.0753699e-08 1.21145005e-08 5.9340824e-08 -3.0556853e-09 -1.0999611e-10
-4.818297e-08 -2.1587786e-08 -1.7313251e-08 -9.422435e-09 1.4565001e-08 1.6854099e-08 -1.2068602e-08 1.4120093e-07
-2.8377608e-08 1.2204934e-09 -2.3291031e-08 5.9138824e-08 -4.340723e-08 -4.845481e-09 -1.464229e-08 -1.0682069e-08
-2.6450463e-08 -5.1963347e-08 5.9495635e-09 -6.1399106e-08 -9.1194075e-09 4.344538e-08 3.3544154e-08 -2.8918392e-09
1.7243961e-08 1.2911414e-08 -1.2121931e-08 4.1879438e-09 -3.329734e-08 -2.3833129e-09 -1.0911779e-08 -7.0704087e-09
-4.093775e-08 2.2540112e-09 1.2101668e-08 -1.8104314e-08 1.2567547e-08 3.954854e-08 -5.158939e-08 1.01960635e-08
-2.2798941e-08 -1.5565498e-10 -1.6887668e-09 -1.0796662e-09 -1.7721938e-08 -5.0795865e-08 6.455802e-08 -1.7886777e-08
6.012022e-08 -6.394539e-09 5.674426e-08 2.1068487e-08 2.307907e-08 -5.131517e-09 -9.983242e-09 -2.9135387e-08
-3.761059e-09 1.2713147e-09 1.5218479e-08 3.982684e-08 -2.5773554e-08 2.1027524e-09 2.7518738e-09 -8.549428e-09

backbone.13.weight f4 [128]
00000000: bc52 803f 9d24 843f 1430 823f 3572 773f
00000010: f750 7e3f 3ccc 7f3f 18a7 813f 6a5d 753f
00000020: 1723 813f fc8b 783f c892 833f 3252 7d3f
00000030: 871c 803f 19da 7c3f 704f 7f3f a632 803f
00000040: b70c 853f 71da 7c3f 486d 7e3f 6ff9 803f
00000050: d805 803f 9103 7a3f 7678 823f f5f2 7f3f
00000060: 27cd 7e3f cf64 7e3f 1d62 7f3f f8bb 803f
00000070: 7e50 7a3f 574a 7d3f 1e09 7e3f ce0c 813f
00000080: d3f2 843f e319 7e3f 7c00 823f e657 823f
00000090: e470 813f 2be5 7a3f 2b6e 7f3f 000a 833f
000000a0: 2ee4 7c3f 9d3a 7c3f e643 823f fb59 803f
000000b0: 3052 7b3f 2ca1 823f 1db1 7d3f 6bcf 7e3f
000000c0: c7df 803f 05e3 833f a960 843f 2d03 833f
000000d0: 77bf 7d3f dab6 803f 49aa 823f 2aaf 763f
000000e0: 2cff 803f 6eb6 753f c06e 703f 57d6 7f3f
000000f0: 59d0 7c3f 5fad 833f 22fa 803f c169 813f
00000100: 0a16 7f3f 553e 793f 7c3e 813f e248 7e3f
00000110: a59f 803f ad82 833f aa30 7e3f aff2 823f
00000120: 3693 813f 36f5 753f 8441 7d3f ab3f 853f
00000130: 68c6 833f 0938 813f 769e 833f 4202 853f
00000140: 45c1 7e3f c179 843f b1ed 843f 4b26 823f
00000150: 0466 713f 7535 803f 8632 833f 0b8b 7b3f
00000160: ec06 813f e8cf 803f acfa 7e3f 971b 753f
00000170: f539 853f c198 6d3f 3f35 7b3f 5794 803f
00000180: 7036 773f e547 803f 2f17 833f fb13 803f
00000190: 2e3b 7d3f ef76 843f db56 7f3f bcbb 843f
000001a0: 43d0 783f d4ca 7c3f c374 813f 040b 843f
000001b0: 2a0b 823f 3169 823f ab41 813f f594 7f3f
000001c0: 8ce9 7e3f 0925 813f f981 803f 12d8 813f
000001d0: 6799 843f ff3d 803f 1535 7b3f 49ea 7b3f
000001e0: db45 783f eedf 6f3f ccd3 833f a9d5 813f
000001f0: d063 7b3f 4957 6a3f 9fee 803f 5129 7e3f
1.0025249 1.0323673 1.0170922 0.9665864 0.9934229 0.9992101 1.0129118 0.95845664
1.0088834 0.970886 1.0279169 0.98953545 1.0008706 0.9877029 0.99730587 1.0015457
1.0394505 0.98770815 0.993855 1.0076121 1.0001783 0.9766169 1.0193012 0.999801
0.9953179 0.9937257 0.99759084 1.0057364 0.9777907 0.9894156 0.9923266 1.0082033
1.0386604 0.9925825 1.0156398 1.0183074 1.0112576 0.9800593 0.9977748 1.0237427
0.98785675 0.98526937 1.0176971 1.002746 0.98172283 1.0205436 0.9909838 0.99535245
1.0068291 1.0303656 1.0341998 1.0235344 0.9912028 1.0055802 1.0208217 0.9636103
1.0077872 0.9598149 0.9391899 0.9993643 0.98755413 1.0287284 1.0076334 1.0110399
0.99643004 0.97360736 1.0097194 0.9932996 1.004872 1.0274254 0.99293005 1.0230311
1.012305 0.9607729 0.98928094 1.0410055 1.0294924 1.0095226 1.0282733 1.0391314
0.99513656 1.0349656 1.0385038 1.0167936 0.9429629 1.0016314 1.0249794 0.9825904
1.0080237 1.0063448 0.99601245 0.95745224 1.0408312 0.9281121 0.9812812 1.004527
0.9656744 1.002194 1.024145 1.0006098 0.98918426 1.0348796 0.99741906 1.0369792
0.9719278 0.9874699 1.0113758 1.0315862 1.0159657 1.0188352 1.0098165 0.99836665
0.99575114 1.0089427 1.0039665 1.0144064 1.0359315 1.001892 0.9812787 0.98404366
0.9698159 0.93701065 1.029901 1.0143329 0.98199177 0.91539437 1.0072821 0.99281794

backbone.13.bias f4 [128]
00000000: 81ee 5e3c 81cd ceba f9d5 17bc f144 58bc
00000010: 44e9 613c b95a 08bc d4b6 fb3b c25a 22bc
00000020: 4551 5d3b 2f0f 333c 4dfa 183c e121 41bb
00000030: e116 1c3b c5ae 28bc 440e 7dbb 5f6a 583a
00000040: 4ac7 5c3d 46a2 7dba 229c 79bc 7c4c d33c
00000050: 7e76 853b baca 3abc 5969 5b3c 1cd9 b53a
00000060: 4bcb 173b 7c6b 453c 8954 3d3c 13e3 7e3b
00000070: d046 b7bc 1559 a03b ece8 8a3c b994 9f3b
00000080: a45e 213c b9d9 38bb 0fb2 583c 184c d63c
00000090: 8f11 8abc dc24 103d e30d 4f3c a3c8 4cbb
000000a0: 3e91 95bb ba6c 613c 3640 19bc 7f62 4ebb
000000b0: c266 b03a 779c e83c b01c a13a 492c 5f3c
000000c0: 542d dbbb e7c6 623c 4308 13bb 2337 6e3c
000000d0: b0f1 85bb 29f6 68bb 2049 cb3c 4a0e 8fbb
000000e0: f474 09bc 05cb 11bc 63ee 2b3c 54b2 763c
000000f0: 4890 443c 60aa bb3c 8560 66bb a698 c2bb
00000100: 031e df3c b33c fc3a 3e82 b03c 6a19 0abc
00000110: c4d7 263c 9725 793c 05dd a3bb 878d a9bb
00000120: 64a9 033c 38ad 383c 4319 a3bb 3768 a03c
00000130: c6d9 b73c d298 413c 37f6 713c b224 1e3d
00000140: efd7 65ba eb16 c23c 39d2 a33a 3a05 a53c
00000150: a75f 9e3c 9bd0 603b 36e0 403c 9e53 e5bc
00000160: 22ff aaba 54b8 9f3a 2c21 2cbc 8abc 54bc
00000170: 18b3 f339 42cc 043c 12a3 2dbb 17e6 e4ba
00000180: 221d 47bc b84f 063c 9802 083c c439 bbbb
00000190: ebe3 373b d0a0 863c 15b3 ceba bae5 9aba
000001a0: ea2d ee3b b199 203c 193a a4bb dffa 25ba
000001b0: 246c 63bc 0b31 3c3c 6a6f 5bbb 73d8 bdbb
000001c0: 28f3 4b3c 5300 8f3c 7468 e13a c309 db3b
000001d0: 2f21 c63b 0ea3 32bc f71b b73b 9840 22bc
000001e0: 9e7f 24bc c540 5a3c 45e7 233c ad59 d53b
000001f0: 0b9c 153c a687 40bc 06ab 053b 3ec3 3d3c
0.013606668 -0.0015777798 -0.009267324 -0.013200031 0.013788525 -0.008322411 0.007681707 -0.009909334
0.0033770364 0.010928913 0.00933702 -0.0029469656 0.0023817348 -0.010295575 -0.003861324 0.00082555966
0.053900994 -0.00096753647 -0.015234979 0.025793307 0.0040729633 -0.011400873 0.013391816 0.0013873908
0.0023161944 0.012049552 0.011555799 0.003889267 -0.022372633 0.004893432 0.016956769 0.004870024
0.009849224 -0.0028205945 0.013226046 0.026159331 -0.016854076 0.0351914 0.012637588 -0.0031247518
-0.0045644334 0.013758833 -0.009353688 -0.0031491814 0.0013458359 0.02839492 0.0012291875 0.013621398
-0.006688753 0.013841367 -0.0022435344 0.014539513 -0.0040876493 -0.0035547114 0.024815142 -0.004365717
-0.0083897 -0.008898501 0.010493848 0.015057165 0.01199729 0.02290839 -0.0035152745 -0.0059386073
0.02723599 0.0019244164 0.02154648 -0.008428911 0.0101832785 0.015206716 -0.005000713 -0.005174342
0.008035991 0.011271767 -0.0049773767 0.019580944 0.02244271 0.01181622 0.014768175 0.038609214
-0.00087678334 0.023692569 0.0012498564 0.020144094 0.01933272 0.0034304026 0.011772206 -0.027993973
-0.0013046006 0.0012185671 -0.010505956 -0.012984404 0.00046482007 0.0081053395 -0.0026494903 -0.0017463592
-0.012152942 0.008197717 0.0083014 -0.0057136733 0.0028059434 0.016434103 -0.0015769923 -0.0011817731
0.007268657 0.009802268 -0.0050118086 -0.0006331633 -0.013880763 0.011486302 -0.0033483156 -0.005793625
0.01244811 0.01745621 0.0017197267 0.0066845133 0.0060464363 -0.010903133 0.0055880505 -0.009903096
-0.010040192 0.013321106 0.010003869 0.0065109343 0.009131442 -0.011751091 0.0020396127 0.011582194
