models/osu_model_temp.pth (torch, 439117 bytes, 28 tensors)

backbone.0.weight f4 [16, 3, 3, 3]
00000000: dfcc 78bd 5f58 fc3d 3021 4bbe 705d dabd
00000010: d3d7 72bd 5d26 1f3e 40c2 8e3c a402 4fbe
00000020: 9375 903d 8dca cbbc b6df 27bd 6785 083e
00000030: 61ec b93b f5a7 9cbd 2833 8dbc 6fdc 87bd
00000040: 2aa2 58be f920 643a ad9c 283e dfa2 af3b
00000050: 1ff8 cfbb 8b03 64bd 65a6 aebd 3266 703c
00000060: d898 513d c95a 0d3e a6b5 763d f3b3 153c
00000070: 2484 053c f8bf 283d 526a 84bd f053 f3bb
00000080: e0b8 06be cac4 003e 80b3 1fbd 2dbe ba3c
00000090: e830 d03d 5240 113e 1abc 953c 04b6 0c3d
000000a0: 52f3 0fbb 3a2b 86bd fb91 38bd 9204 38bd
000000b0: a7e4 9a3d 80d1 95bd 48b8 a7bd 5342 1e3c
000000c0: b384 b3bc 290a dcbd af4c 96bd 1bd8 463d
000000d0: 6446 10be 94c1 3dbc 8253 2dbc 0e04 08bc
000000e0: 6393 b6bd da53 a03e 48a2 fd3d 8cb2 4e3d
000000f0: 8af4 523e 2b6f 1e3d ad69 aebd f2cc 3abc
00000100: 94fd e63d 6bcf bfbd 6c79 f5bd 6c3c 61bd
00000110: 0d39 a33d 844d 593d 474d 2cbe 9f3e 47be
00000120: 7a21 c83d bbf0 453c 4738 babd ce75 bb3d
00000130: 0048 36be da54 133d 69c6 6c3c 7429 cdbc
00000140: b22d 55be 9dbe 43bd c33d 143d 9f40 173d
00000150: a54e 3bbd 7aa1 94bd c0b5 393d 8424 883b
00000160: e33c 0abd 5e40 a7bd 410f dcbd 336e 80bd
00000170: 25e5 6ebc 4e76 01bd eece 8fbd 46f9 403d
00000180: 3b19 95bd 66c0 e63c def9 f33a 4eb0 bdbb
00000190: 5483 f53d bd56 9fbc e0ae 4ebd 0bfa 6abc
000001a0: d9bf 563c 34b7 febc 6410 f4bc 22a6 06bd
000001b0: a038 02be 5a42 1f3e fff6 2c3e 6adb 2f3e
000001c0: 0f89 d93b 923d 8c3d 5464 adbd bfca 973d
000001d0: e475 8bbd 20ed 933d 500e 453d cbc1 5abd
000001e0: c8b0 e0bd b88f aa3d d14b fbbb 9f2b 23be
000001f0: 643e 5cbc 43de 2c3d 9aff 603e ec53 ddbd
00000200: 5d1a ae3d d25c 0dbd 5f10 5dbd 419c a6bd
00000210: ebd9 77be 3bcc e6bd 5a71 1a3e e118 a3bc
00000220: c03f 223e 3d3b 893e f5ad 53be bff3 82ba
00000230: e20e 49be 1fa9 37bc 963a ecbc 5550 363e
00000240: b954 e0bd d35c 91bc 3350 77bd 9183 593d
00000250: 358c c83d 2017 243d f841 c8bd 39e7 91bc
00000260: 7e4f ed3d e3e3 9fbd 05cb 483d a895 0fbc
00000270: 6c9d d6bc 4663 f4bd 9053 423c 2d23 d5bd
00000280: d789 35bc 27f0 603e 83b1 07bd 61eb 2bbe
00000290: 0c22 0abe c004 a8bd d100 f23d fc08 aabd
000002a0: c2f2 563d fadb 733c 20f4 703d 73a5 af3e
000002b0: 598c f83d ec56 66be 57db 36be 544d 263d
000002c0: 9d4f abbd d5aa 7a3d 8fb1 503e 0997 143d
000002d0: 6bf1 8bbd 6b7b 52bb 0a45 d9bc 7cd5 513e
000002e0: 0d85 703d 784f 09be b746 c63d 20b4 73be
000002f0: c258 9e3d 1b2f 0d3e 7883 d9bc bc8e 9e3d
00000300: aed1 85bd 6a6d a93b 4329 9e3d ae62 44bd
00000310: 6d3c 55bd 7bad 7bbc f6d5 6f3e 9932 90bd
00000320: 211f 163e 176d 6d3c 4373 ec3c d98e 1fbd
00000330: e7a8 363c 4beb b3bd 8ac9 a13d dc64 f9bc
00000340: 269c 073e 7858 043d f999 d2bc 021b 143c
00000350: abe7 fc3d 1433 d3bd 0d3f 843d d89a ad3d
00000360: bc6c d13d ee4a 143c 61a9 0cbe 5b62 c03c
00000370: 585f 063e 8e12 99be bb50 7c3e 0f29 083e
00000380: 5721 dd3c 6546 be3c 452c 59be 07e2 05be
00000390: 43a8 1b3c 51a8 c83d 7c75 283e 508b 7dbd
000003a0: 335b 1cbd 7904 5abe 01b8 953d 6219 82be
000003b0: 0eb9 40be d25b 043d 13c1 273d 18ff 81bc
000003c0: ce08 e0bb e83d 1f3d 14b1 bf3d 6aca 133d
000003d0: bd45 61be 8eaa 443c 5cab 5b3d e8f0 ae3d
000003e0: b1c2 2cbe 98fc 713d 9ef8 eebd 8d15 f6bd
000003f0: fdde 013e 2b2c 263e b9f4 c33d 9809 013d
-0.060742255 0.12321543 -0.19836879 -0.10662353 -0.059287857 0.15541978 0.01742661 -0.20215851
0.070536755 -0.024876857 -0.04098483 0.13332139 0.0056739305 -0.07649223 -0.017236307 -0.06633841
-0.2115561 0.0008702423 0.16466017 0.005359992 -0.006346717 -0.05566744 -0.08527831 0.014672803
0.051171154 0.13804163 0.060231827 0.0091371415 0.008149181 0.0411987 -0.064655915 -0.0074257776
-0.13156462 0.12575069 -0.038989544 0.022795761 0.10165578 0.14184693 0.01827817 0.03435327
-0.0021965099 -0.065512136 -0.045061093 -0.044926234 0.07563143 -0.073153496 -0.08189446 0.009659368
-0.021913862 -0.107441254 -0.07338845 0.048545938 -0.14089352 -0.011581797 -0.010578992 -0.008301748
-0.089148305 0.31313974 0.12384468 0.050463244 0.20601097 0.038680237 -0.0851625 -0.011401402
0.11278835 -0.09365734 -0.1198605 -0.054989263 0.07969866 0.05305244 -0.16826354 -0.19457482
0.0977201 0.01208132 -0.09092765 0.09153329 -0.17800903 0.035969593 0.014451602 -0.02504418
-0.20818213 -0.047789205 0.036191713 0.03692686 -0.0457293 -0.07257362 0.045339346 0.0041547436
-0.033749472 -0.08166574 -0.10745097 -0.06271019 -0.0145809995 -0.031606965 -0.070218906 0.047112726
-0.07280203 0.028167915 0.0018613895 -0.0057888394 0.119879395 -0.01945054 -0.050459743 -0.014341841
0.0131072635 -0.031093217 -0.029792972 -0.03287328 -0.12716913 0.15552655 0.16891097 0.17173544
0.006638653 0.06847681 -0.08466402 0.074117176 -0.06809595 0.072229624 0.048109353 -0.05340747
-0.10971218 0.083281934 -0.00766895 -0.15934609 -0.013442609 0.042204153 0.21972504 -0.108070225
0.08501122 -0.03451235 -0.05397069 -0.08135272 -0.24204223 -0.112694226 0.15082303 -0.019909324
0.15844631 0.26803008 -0.20671828 -0.0009990855 -0.19634584 -0.011209755 -0.02883653 0.17804082
-0.109536596 -0.017744457 -0.06037922 0.053103987 0.09792367 0.040061116 -0.097782075 -0.01781045
0.115874276 -0.07807138 0.04902174 -0.008763708 -0.026198111 -0.119329974 0.011860743 -0.104071
-0.011080227 0.21966611 -0.033128273 -0.16789009 -0.1348955 -0.08204031 0.11816562 -0.08302495
0.052477606 0.0148839895 0.058826566 0.34305915 0.12136144 -0.22494096 -0.17857109 0.04060109
-0.083647944 0.061198074 0.20380233 0.03627685 -0.06833156 -0.003211702 -0.026522178 0.20491594
0.058720637 -0.13409221 0.096814565 -0.23799181 0.07731773 0.137875 -0.026551947 0.07742068
-0.06534134 0.005170514 0.07722714 -0.04794567 -0.05205958 -0.015361185 0.23421463 -0.07040901
0.14660312 0.014491341 0.028863555 -0.03895459 0.011148668 -0.08785113 0.07899769 -0.030443601
0.1324316 0.032310933 -0.025708186 0.009039642 0.12348875 -0.10312477 0.064573385 0.084768
0.102258176 0.009051068 -0.13736488 0.0234844 0.13122308 -0.2989697 0.24640171 0.13296913
0.026993437 0.023226926 -0.21208294 -0.13074504 0.009500566 0.09797729 0.16451067 -0.061900437
-0.03817291 -0.21290769 0.073104866 -0.2540999 -0.18820593 0.03231413 0.040955614 -0.015868708
-0.006836987 0.038877398 0.09359947 0.03608171 -0.2199926 0.012003554 0.053630218 0.08542043
-0.16871144 0.059078783 -0.11668514 -0.12015829 0.1268272 0.16227786 0.095681615 0.03150329

backbone.0.bias f4 [16]
00000000: dc4f 0fb4 4397 2eb4 a6e2 f4b3 d749 0b34
00000010: 7ab0 bf35 d86e c935 178c a435 d5b5 7ab4
00000020: 0c42 50b4 c5c0 f534 431f 13b5 beac 6033
00000030: 76bc 35b5 b6a6 ddb4 2953 cab5 f724 9cb4
-1.3346965e-07 -1.6260041e-07 -1.14033625e-07 1.2972247e-07 1.428197e-06 1.5007927e-06 1.2259724e-06 -2.3349214e-07
-1.9395537e-07 4.5775064e-07 -5.480726e-07 5.2311172e-08 -6.7702e-07 -4.1285756e-07 -1.5074376e-06 -2.908416e-07

backbone.1.weight f4 [16]
00000000: 6555 7e3f caa1 703f 5ec7 823f fb45 6c3f
00000010: 209b 7e3f 7e60 7c3f 4f3a 773f fec0 763f
00000020: 4090 7b3f 27c2 683f b517 6b3f 2fe3 8a3f
00000030: f4be 773f a430 733f 8ec7 673f e99c 6d3f
0.9934905 0.9399687 1.0217092 0.9229428 0.9945545 0.98584735 0.96573347 0.9638823
0.98266983 0.9092125 0.9183305 1.0850581 0.96775746 0.94996095 0.9053887 0.9281755

backbone.1.bias f4 [16]
00000000: 7a82 b23a 0091 d3bd 3a86 673d bb66 16bd
00000010: b912 7fba d849 3e3d 954e 5e3d 4711 233d
00000020: 71d5 27ba fe34 bc3b 6149 7c3b 75e1 563d
00000030: d327 df3c ac4c 82bd ada7 10bd c856 ec3c
0.0013619207 -0.10330391 0.056524493 -0.036719065 -0.0009730268 0.04645714 0.05427416 0.0398114
-0.00064023497 0.005743622 0.0038495886 0.052461106 0.02724067 -0.0636228 -0.035316158 0.028849974

backbone.1.running_mean f4 [16]
00000000: 2061 a73e 499b 0d3e 3c91 d0bc 011f d73e
00000010: 42c9 21be c432 c0bd 8cc9 b5bb badd 06bf
00000020: e3a9 433e ef87 fcbe ab58 0b3e df9e 6e3c
00000030: 8426 1ebf 2418 be3d 856a 44bc dd16 a9be
0.32691288 0.13828768 -0.025459878 0.42015842 -0.1579943 -0.09384683 -0.005547708 -0.5268208
0.19107775 -0.4932246 0.13608043 0.014564245 -0.6177752 0.09281948 -0.011988287 -0.33025256

backbone.1.running_var f4 [16]
00000000: 82e2 3a3e 2389 383e 4f17 433e 1b2f 083f
00000010: 5fa4 b23d dce9 183e eb02 d83d 1125 883f
00000020: f16a c43e 5ea4 893f 7d6f 4a3e 8833 a83e
00000030: 2800 d83f e128 843d 1f9e 1c3e f0ee 433e
0.18250468 0.18021064 0.1905186 0.5319688 0.087227575 0.1493296 0.105474316 1.0636312
0.3836284 1.0753286 0.19769092 0.32851815 1.6875048 0.064531095 0.15294693 0.19134116

backbone.4.weight f4 [32, 16, 3, 3]
00000000: e949 dd3b 0106 8d3d a502 db3c e877 073e
00000010: afa1 a0bd 902f 68bd 5017 ef3c 21f1 2e3d
00000020: 9d65 cbbd 12f9 ee3c 2ae7 9cbd 8a09 3ebb
00000030: 5c26 44bd 1fef f13d 6d6b b33d d0c6 613d
00000040: 05a2 8e3d 8b94 8c3d 2e77 9c3d f1bd 72bc
00000050: a10b 753c 22db ba3c 5020 db3c 4934 babd
00000060: 8dc8 9c3d eb57 63bd 3d23 d5bd 36d4 e6bd
00000070: 37ec 50bb 0067 d03d 9fad 14bd 68f3 cfbb
00000080: 2416 28bd 1d6b 193d 4a2e 85bd 9184 96bd
00000090: ae0a 4dbd 1a18 d2bd cd65 3c3d 9fb3 f23d
000000a0: 6a80 06be f499 d1bd 67c7 66bd aaee e1bd
000000b0: b379 fdbd c3aa 5e3d edf6 c43d 80ee 653c
000000c0: 4406 c13d fb8d 7ebd 46e1 e2bd f36d 10bd
000000d0: becd 1dbd a772 b2bd 7b1d dd3d e2c0 1a3c
000000e0: 60ed e93d c84d d33d 8fdf cebb faf9 d13c
000000f0: c6c3 0a3e 6e21 0fbe 3aac 19be 4caf b4bd
00000100: c9e1 193c bad1 c33d 1024 7e3d 57fb a63d
00000110: dcc0 cfbc 2d55 383d b0e5 713b 406f 883c
00000120: 3984 19be fffd db3b 0953 91bc 18c2 df3d
00000130: e17a 073d e7fd b1bd 3d76 bdbd e29b 883c
00000140: 9069 32bc ca98 3f3d d7c7 61bc 4e98 483d
00000150: 09ba 6dbb 684a 213c 036e 663d 6ada a3bd
00000160: be97 86bb 2905 eebd c30a 73bd 7fed a33c
00000170: b9d0 753d 0679 dcbd 2f56 34be 2e05 92bd
00000180: c77d efbd 38de 463d c857 1d3d 3094 b7bd
00000190: b1f4 92bc 1a9f 8bbc 178a f2bd ba6f e8bd
000001a0: bf7a 1dbe 28f5 02bd 17cc 2abd 73a9 34be
000001b0: 4366 6a3c ae3e f0bd 9433 b03d 0442 9cbd
000001c0: b05f de3d 73bb 943d 3c57 e53c 90f3 8dbc
000001d0: 1094 86bd 768b f03d 4dee 423c 3a86 6fbd
000001e0: 1672 043e ddf2 823d bc0a 9bbd 8cc7 233b
000001f0: 1a4d 693c ef17 f4bd edd3 09be e6a6 a0bd
00000200: 1c94 d2bb 4884 243d 27c6 303d ecc2 973d
00000210: 0b5c 64bd ba61 1abd a885 153d 90cd 3e3e
00000220: e87e 76bc 4c7e 6dbd 2069 0ebd b828 c1bd
00000230: f3cc 7b3c 0a6b 1abb 55fb cebd f3a3 a53c
00000240: acea a5bd ab19 1cbd a0b7 26be 6295 593d
00000250: d53e 573e d9d3 053b 7a43 d9bc 140a dcbd
00000260: 5272 4bbd 2ef5 d13c 5928 eb3b 3856 143d
00000270: 309d 0abe 14a5 3a3d 5694 473e 0f50 bebd
00000280: fbc0 043e dd89 293e 4597 22bd ba00 37bb
00000290: 5ddc a63d 3773 07be 91ad b83d 0ed8 b3bb
000002a0: 5a1d dd3d 7731 073e 59b6 633d 930d eebd
000002b0: 19e6 8c3d 15ae d1bb c121 3ebd 2576 ab3c
000002c0: b539 f7bc 4b23 343d e3f6 d6bc d89f d7bd
000002d0: 9531 ccbd 6a2b 63bd dada 55bd 3dee 25bd
000002e0: ee51 d0bd d2a6 c1bd bb52 b4bd 1fb9 0cbe
000002f0: 83a2 e43b 2ada a83d 06e0 a13d 8158 893d
00000300: 57ab a53d d0c9 e0bc 4bf1 21bd 5bf2 8c3c
00000310: 3232 2abd 122a 2dbd fae0 b6bd 2b5c 1dbe
00000320: 67c8 583c 662c dd3c 944a 3ebd de60 2bbe
00000330: 1f52 a03d a03c 343e 363c 0c3d 20e1 57ba
00000340: d57c 66bd baa3 3ebd 2470 8e3c 677e f33c
00000350: 7fa6 a9bd 2e2a 33bd 3dec 233d 5c4c b1bc
00000360: ddea 85bc 1de6 18ba 5912 04bd c36e b7bc
00000370: 5885 b93b 122d 633d e60e fcbc 8a3d 163d
00000380: 21e2 b53d ba5e b7bd 3d5b 72bd 96af c1bd
00000390: dc21 f4bd e6e6 98bb 9f94 aa3d e48c 0c3d
000003a0: 072c 733b f54e 9d3c a5a3 4fbb 2bce 413d
000003b0: 2a09 c13b 3f40 3b3d cd20 36bd 5a37 2ebc
000003c0: a961 513d 0b82 463b beb9 6e3d 87f4 713c
000003d0: 9213 d5bd c7d2 d0bd d879 fb3d a2e0 f13c
000003e0: 27b9 89bd 31d6 b63d 7350 c83c cf0c 9fbc
000003f0: 02ad e4bd a4d1 b43d 1268 913b 15ba dbbb
0.0067531955 0.06885911 0.02673466 0.13229334 -0.07843339 -0.056685984 0.029185921 0.042710427
-0.099314906 0.0291715 -0.076612785 -0.0028997385 -0.047888145 0.11813187 0.08760724 0.055121243
0.069644965 0.0686427 0.07639919 -0.014815793 0.014956386 0.022809569 0.026748806 -0.09092004
0.076554395 -0.055503767 -0.10407112 -0.11270945 -0.0031879076 0.10175896 -0.03629839 -0.006346155
-0.04103674 0.037455667 -0.065029696 -0.07349504 -0.050059013 -0.10258503 0.045995522 0.11850666
-0.13134924 -0.10234442 -0.05634251 -0.1103185 -0.12376728 0.05436207 0.0961741 0.014033914
0.09425023 -0.062147122 -0.11078124 -0.035261106 -0.03852629 -0.087132744 0.107966386 0.009445401
0.11422229 0.1031757 -0.0063132714 0.025631893 0.13551244 -0.13977596 -0.15007105 -0.08822498
0.00939221 0.095614865 0.06204611 0.08153408 -0.025360517 0.045003105 0.0036910586 0.01665461
-0.14991845 0.0067136283 -0.01773979 0.10925692 0.03307617 -0.08691006 -0.09251068 0.016675893
-0.010889426 0.04677657 -0.013780556 0.048973374 -0.0036274216 0.0098444 0.05625726 -0.080006436
-0.0041074445 -0.11622078 -0.059336435 0.020010708 0.060013507 -0.10765271 -0.17611001 -0.07129894
-0.11693912 0.048551768 0.038413793 -0.089638114 -0.017938944 -0.017043639 -0.11842745 -0.11349435
-0.15378855 -0.03197208 -0.04169854 -0.17642765 0.014306608 -0.11730705 0.08603588 -0.07629779
0.10858095 0.072623156 0.027995698 -0.017328054 -0.065712094 0.1174535 0.011897636 -0.058477618
0.12934145 0.06393979 -0.07570407 0.0024990765 0.014239574 -0.119186275 -0.1345975 -0.07844333
-0.0064263474 0.040165216 0.043157723 0.07410225 -0.05575184 -0.037690856 0.036504418 0.18633103
-0.015044905 -0.057981774 -0.034768224 -0.094315946 0.015368688 -0.0023562335 -0.101065315 0.020219779
-0.08101401 -0.038110416 -0.16280985 0.05312098 0.21020062 0.002042046 -0.026521433 -0.1074411
-0.04966957 0.025629606 0.0071764407 0.036215037 -0.13536525 0.045567587 0.1949018 -0.09292614
0.12964241 0.16556497 -0.039695043 -0.0027924017 0.081475 -0.13227545 0.0901748 -0.005488402
0.10796614 0.13202463 0.055593822 -0.11623683 0.06879825 -0.006398926 -0.04641891 0.02093036
-0.030178884 0.04397897 -0.026240772 -0.10528535 -0.099703945 -0.055461325 -0.052210666 -0.040510405
-0.10171877 -0.094556466 -0.08804842 -0.13742493 0.0069773807 0.082447365 0.07904057 0.06706334
0.08089321 -0.027439982 -0.039536756 0.017205408 -0.041551776 -0.04227645 -0.089296296 -0.1536719
0.013231373 0.02699871 -0.046457842 -0.1673617 0.07828163 0.17601252 0.03423711 -0.00082351454
-0.056271393 -0.04654286 0.017387457 0.02972336 -0.0828371 -0.043741398 0.040020216 -0.021642856
-0.016347343 -0.00058326294 -0.03224406 -0.022391682 0.0056616478 0.055462904 -0.030768823 0.036679782
0.08881021 -0.089536145 -0.059169043 -0.094573185 -0.11920521 -0.004666197 0.083291285 0.03431405
0.00371051 0.019202689 -0.0031683233 0.047315758 0.005890985 0.045715567 -0.044464875 -0.010633314
0.051118527 0.0030289914 0.058282606 0.0147677725 -0.10404123 -0.101964526 0.12279099 0.029526059
-0.06724768 0.089275725 0.024452424 -0.019415287 -0.11165811 0.08829048 0.004437455 -0.0067055323

backbone.4.bias f4 [32]
00000000: 4228 01b3 f996 0732 c5ee 98b1 4a3b 78b4
00000010: 5d6d 0430 0d4a 22b3 161f 5032 0578 ceb0
00000020: cec6 3933 5a94 4cb3 974e 1eb4 2b6b 5533
00000030: d691 8f33 c701 0734 1cb9 b633 48d9 7533
00000040: 1132 4034 0e3e c4b3 8c41 96b3 5b88 3cb3
00000050: 2950 74b4 5bf9 da32 61c0 66b2 e483 e431
00000060: 45c7 a432 4dea 5634 132e 1833 9c65 dcb1
00000070: ad11 3fb2 7268 4e32 a5b3 76b4 b89c c3b3
-3.0071767e-08 7.892361e-09 -4.450927e-09 -2.3118369e-07 4.8176735e-10 -3.7785913e-08 1.2114262e-08 -1.5022584e-09
4.325448e-08 -4.7632376e-08 -1.4743487e-07 4.9690396e-08 6.685484e-08 1.2573501e-07 8.5087066e-08 5.7241124e-08
1.7899607e-07 -9.138249e-08 -6.996842e-08 -4.3896176e-08 -2.2753433e-07 2.5491934e-08 -1.3431504e-08 6.6506676e-09
1.918273e-08 2.0015541e-07 3.5432162e-08 -6.4143943e-09 -1.1121682e-08 1.2014526e-08 -2.297589e-07 -9.108902e-08

backbone.5.weight f4 [32]
00000000: c2a7 793f db15 6f3f a262 6d3f 423f 7c3f
00000010: c9f2 763f 970a 783f dbdc 653f 895c 5e3f
00000020: 7113 783f 3eee 653f 5f87 713f cfa7 673f
00000030: 6a29 683f ed47 6c3f efff 643f f62f 653f
00000040: d77e 623f bda4 6a3f a0d8 7e3f 46b9 6f3f
00000050: 1f3c 7d3f 0b06 803f 7fdf 793f b011 803f
00000060: a796 703f 6400 813f 4967 843f 7c0b 4d3f
00000070: c352 723f 21f4 6f3f f1b7 763f 87ce 663f
0.97521603 0.93392724 0.92728627 0.98534024 0.9646421 0.9689116 0.89790124 0.8685995
0.96904665 0.89816654 0.94347185 0.9049043 0.9068819 0.9229725 0.89453024 0.8952631
0.8847479 0.9165762 0.99549294 0.9364208 0.9891986 1.0001844 0.9760665 1.0005398
0.9397988 1.0078244 1.034402 0.8009565 0.94657534 0.93731886 0.9637442 0.90158886

backbone.5.bias f4 [32]
00000000: 971c 873d 5e8c a1bc 6a2d 8dbd 58f6 073d
00000010: 9f47 233d 78a2 813d c7b2 86bd d4a8 8b3b
00000020: e4b6 1ebd 9d8c 86bd 6f0c 99bd d2aa 15bd
00000030: 7fd6 3bbd 7832 16bd 0a63 ebbc bb05 e4bc
00000040: 564d 0bbc 2d79 5dbd da55 863b f32f afbd
00000050: 3143 a83c 78d4 f1bc 504f babc bc48 133d
00000060: 1315 34bd 1633 053d f6aa 9b3d be5a 23bd
00000070: 4f47 adbd 678d 2f3d 26ec 3abd 1fa3 573b
0.0659725 -0.019720253 -0.06893428 0.033193916 0.039863225 0.063298166 -0.06577068 0.0042620692
-0.038748637 -0.065697886 -0.07473075 -0.03653986 -0.045858856 -0.036669225 -0.028733749 -0.027834764
-0.008502325 -0.05407064 0.00409959 -0.085540675 0.020539852 -0.029520258 -0.022742897 0.035958037
-0.04396541 0.032519422 0.076009676 -0.03988146 -0.08460867 0.04285946 -0.045635365 0.0032903624

backbone.5.running_mean f4 [32]
00000000: e274 21bf 913a c2be 2f61 a6bd 6008 71bf
00000010: 63d9 d3be 936a 44bf 0b8e 0dbf 173a 11bf
00000020: 24f4 00bf 90b5 2ebf bfe6 45be d53b b9be
00000030: d9ef 42bf 5de4 b4bf 88fa 0dbf eb2d c5be
00000040: cf7c e5be 0a86 cebe 165d 63be 53c3 d23f
00000050: 04e1 42be 5897 39bf a895 a93f b4fa b4be
00000060: 5e94 563f 0b34 5cbf d093 54bf ddf8 31bf
00000070: 0869 b3bf b99a bcbf c0f4 363f 83eb 2f3f
-0.63068974 -0.37935308 -0.08124005 -0.94153404 -0.4137679 -0.7672512 -0.55294865 -0.56729263
-0.5037253 -0.6824579 -0.19326304 -0.3617846 -0.7614723 -1.4132191 -0.55460405 -0.38511595
-0.44821784 -0.4033664 -0.22203478 1.6465858 -0.19031149 -0.7249656 1.3248796 -0.3534752
0.8382014 -0.8601691 -0.83038044 -0.6952036 -1.4016428 -1.4734718 0.7146721 0.6871874

backbone.5.running_var f4 [32]
00000000: f021 903f bf4e 453f f939 de3e 0d23 0f3f
00000010: ec4e 263f 76e0 ca3e 867f 253f 29c9 5e3f
00000020: b2f6 923f 5d2a 0e3f 3180 a03f 95f8 0d3f
00000030: 4fc5 823f 294f 433f 61b7 303f 971e 7b3f
00000040: 204e 003f 6c3d 273f c6a3 363f 016e 8c3f
00000050: d641 bc3e 9da3 0b3f 5b12 0040 f615 fc3e
00000060: 6ee0 233f b7d7 d83e ed2b 6b3f 1380 7c3f
00000070: 9247 f33f 6ebe fc3f 8720 813f c07d 6a3f
1.1260357 0.7707328 0.43403605 0.5591286 0.64964175 0.39624375 0.6464771 0.87025696
1.1481535 0.5553339 1.2539121 0.5545743 1.0216464 0.76292664 0.69029814 0.9809355
0.5011921 0.653281 0.7134365 1.097107 0.3676898 0.5454653 2.0011203 0.49235505
0.6401433 0.42352077 0.918639 0.98632926 1.9006217 1.9745615 1.0088052 0.9159813

backbone.8.weight f4 [64, 32, 3, 3]
00000000: 5913 e83c 9be8 c5bc 813f dbbb 4bed e23d
00000010: 1715 76bb e51f 7a3c 637c a1bb 3dff 573c
00000020: 94ac c33c 1b31 07bd 61d4 c33c 8752 e23c
00000030: 35fe 23bd 08e9 73bd 8601 f63c 74c8 cbbd
00000040: b940 093d 83ca b63c 0ccc 6c3d ba41 823c
00000050: 80d1 013d 6ed7 b6bd 3d6f 7a3c 8414 e6bd
00000060: e352 bcbd 4114 30bd 043a c6bd a16a ec3b
00000070: 6165 873d 7601 cf3c 9b05 84bd 5267 c7bb
00000080: 2d67 df3c 2eac 94bd 6df7 9abd b984 0b3d
00000090: 576a 2d3d 7c4d ae3c a0e1 74bd a782 983c
000000a0: e263 863c 2368 db39 f142 eebd 9362 9d3c
000000b0: c5e7 17bd 09ef 1f3e 30ae 013e 7e29 af3c
000000c0: fa27 ca3d 2e43 9e3c 4c10 163d 4a1e 81bc
000000d0: a48b ddbb f3b9 383d a9d2 213d 9d32 2bbd
000000e0: 1537 86bc 8864 afbc 1ee9 8bbd dd0f 4d3d
000000f0: eec0 9fbd be4b e6bd 2353 a8bc 44aa 09be
00000100: d5e8 143d e878 803c 8629 013d 9d2b 20bd
00000110: 4e32 51bb d747 3bbd 5ae9 443d d007 b13d
00000120: 1e6d 103c 0f44 c33d 2493 843d d724 06bd
00000130: 9bd1 f93a b695 6c3d 3e3e 6dbc 1425 0e3c
00000140: f483 733c dd9b 8bbc e194 a13d 8dba f13d
00000150: 0cc7 453d e0e0 dbbd 36dc acbd 4832 a93d
00000160: e06c a8bd 62a7 703c acc2 493b 154b 863b
00000170: 90cb 54bb 8dcf cb3c 7f27 1c3d 5681 6a3c
00000180: d87f 5a3d 7a5e 663d a9d1 67bc bd5b 59bb
00000190: e151 093b 7538 e7ba 4190 a3bd 0dab 683d
000001a0: 9785 b43d 32c3 e6bc 4632 69bd ce62 7d3c
000001b0: 58ee 9abd 547e 193d ef3f feba 9818 2e3d
000001c0: 8378 16bd 18a0 b8bd 8fed 1f3d 7bfd 463c
000001d0: 8aeb abbc ff2e 083e cc55 d839 ab7b 9bbc
000001e0: dcfc 143d 6c7a 23bd 97a0 85bd 8d3f 89bc
000001f0: b183 a93d ec5b 70bd 0a12 5b3d 8944 b33c
00000200: 6b88 21bd 64ff 433d c05b 8e3d e519 7d3c
00000210: a905 393d 9b22 ebbc a00d d43c d03f a7ba
00000220: 85e2 e93c 552c d3bc 3398 1c3d 6505 6fbd
00000230: eca2 60bd 4ad5 863d 7706 f2bc 715d 46bd
00000240: e0a4 5f3c 7dd5 0dbd 191a 1c3d 8bee 6abd
00000250: f146 673c 0823 8c3c 4cde 98bd acd0 c9bc
00000260: 864d edbb 8026 313d 5060 0bbd 38b4 9b3d
00000270: cd12 2cbd 3522 afbd f43c fdbc 206b 243d
00000280: 421b 15bd 7d3e 16bd 0426 bfbc 31a8 063d
00000290: a05b 723c d6aa 74bd 027f cb3d c060 f53b
000002a0: 4dbb f33c 63dc 303c 0ca5 55bd 458f a13c
000002b0: af55 b73d 4b63 5e3a 8cde 55bd 7f7b 223d
000002c0: 46ec 003d a4f9 51bb 9930 753d 5a02 abbd
000002d0: 09a5 953d e9a6 b9bd 9c4c e1bd 4f30 443c
000002e0: 2173 593d cc15 f5bd f6f5 a2bc 70d7 c6bd
000002f0: 7ac4 0a3c 3bbf 8f3d 15c3 adbc 9764 b8bc
00000300: cb66 1c3e 4817 c63d 9e5b c4bd 7918 903c
00000310: b176 643d f03e 033d cb23 9bbd 6437 74bd
00000320: 8086 f9bb c360 39bd cab7 29bd 68d5 1d3d
00000330: 5b95 3abd c97e 973c 0c89 8bba c400 983c
00000340: 47f1 57bc b8e2 28bd 488c d0bc 3482 a83d
00000350: ae87 e4bc 196f 863c 4d57 72bd b3d9 5cbd
00000360: 6d0f 3fbc 571b 7bbd 1441 763d 4ffe a5bd
00000370: e580 863b 2a32 0a3d fb6e a6bc 9e26 b3bb
00000380: dbcc f9bc 4947 2a3b 3c01 72bb 8db8 4bbd
00000390: 1878 edbd f62e be3c b432 63bd 0359 bcbd
000003a0: 301f cebd c382 e9bd 02c9 293b a2ef d7bc
000003b0: edea 443d 4b99 92bd f095 5abd dafb 27bd
000003c0: c4a9 a9b9 0246 6abc 765d 0d3d 1023 4b3d
000003d0: 21a0 cebb b28b 8fbc cefe 14bd b8f5 06bd
000003e0: 0ccc bbbc 5686 64bc feb4 073d e45e 25bd
000003f0: b689 5c3c 1579 83bd 4a36 24bd 07ab 3b3b
0.028329538 -0.024158766 -0.00669092 0.11080416 -0.0037549192 0.015266393 -0.004928158 0.013183412
0.023886003 -0.033005815 0.023904981 0.027627243 -0.040037353 -0.059548408 0.030030023 -0.09950343
0.03350899 0.022313362 0.05781178 0.015900481 0.031693935 -0.08927809 0.01528531 -0.11234382
-0.09195497 -0.042988066 -0.09679034 0.0072148596 0.06611133 0.025269251 -0.06446382 -0.006085315
0.027270878 -0.07259403 -0.07566724 0.03406212 0.04233774 0.021277182 -0.059785485 0.018616987
0.01640505 0.00041848523 -0.11633862 0.019212043 -0.037086267 0.15618528 0.12664104 0.02138209
0.09870906 0.019319143 0.036636636 -0.015761513 -0.006761031 0.04509921 0.03950754 -0.041796315
-0.016383687 -0.021410242 -0.06831573 0.050063957 -0.0780047 -0.112449154 -0.020547455 -0.13443857
0.03635486 0.015682653 0.03153374 -0.039104093 -0.0031920853 -0.04572281 0.048074104 0.08644068
0.008815078 0.095344655 0.06473377 -0.032749977 0.001905966 0.057759963 -0.014480172 0.008675832
0.014863003 -0.017042095 0.078897245 0.1180316 0.04828553 -0.10736251 -0.084404394 0.082615435
-0.08223891 0.014688345 0.00307862 0.004098306 -0.0032469966 0.024879241 0.038123604 0.014313063
0.053344578 0.056242444 -0.014149108 -0.0033166253 0.0020953345 -0.0017640727 -0.079864986 0.05680375
0.08814543 -0.028169248 -0.05693271 0.015465451 -0.07564992 0.03747399 -0.0019397716 0.042503923
-0.036736023 -0.090149105 0.039044913 0.012145395 -0.020986337 0.13299178 0.00041262654 -0.018979868
0.036373958 -0.039911672 -0.06524771 -0.016753936 0.08277071 -0.058681414 0.053484 0.021883266
-0.03943674 0.04785098 0.06951094 0.015448068 0.045171414 -0.028703025 0.025885403 -0.0012760106
0.028550396 -0.025777975 0.038231086 -0.058354754 -0.054842874 0.065836504 -0.029544098 -0.048428956
0.013650149 -0.034627426 0.038110826 -0.0573564 0.014116035 0.017106548 -0.07464275 -0.024635635
-0.0072419075 0.043249607 -0.034027398 0.076027334 -0.042010117 -0.08551446 -0.030912854 0.040141225
-0.03640295 -0.036680687 -0.023333557 0.032875244 0.014792353 -0.059733234 0.09936334 0.00748834
0.029752398 0.010794732 -0.052159354 0.019721637 0.0895189 0.0008483424 -0.05221419 0.039668556
0.031475328 -0.0032039667 0.0598608 -0.08350058 0.073068686 -0.09065039 -0.1100094 0.011974408
0.05308831 -0.11967048 -0.019892674 -0.0970906 0.008469695 0.07018896 -0.021211186 -0.022508902
0.15273587 0.09672409 -0.09587787 0.017589794 0.055777255 0.032042444 -0.07575186 -0.059623137
-0.0076149106 -0.045258295 -0.04143504 0.0385336 -0.045552593 0.018493073 -0.0010645702 0.018555053
-0.013180084 -0.04123184 -0.025457516 0.08227959 -0.027896728 0.016410397 -0.059165288 -0.05391855
-0.011661393 -0.06130537 0.060120657 -0.08105146 0.004104721 0.033739246 -0.020316591 -0.00546725
-0.03049319 0.002598243 -0.0036927005 -0.04973655 -0.11595172 0.023215752 -0.055468276 -0.09196665
-0.10064542 -0.11401894 0.0025907164 -0.026359383 0.048075605 -0.071581446 -0.053365648 -0.04101167
-0.00032360677 -0.014298918 0.03451296 0.049593985 -0.00630571 -0.017522667 -0.036375813 -0.03294918
-0.022924446 -0.013948044 0.033131592 -0.040373698 0.013460567 -0.06419579 -0.040090837 0.0028635876

backbone.8.bias f4 [64]
00000000: 1212 b430 4429 9e32 bffb 3833 a9fd d832
00000010: d308 18b2 2cfa 7430 2078 b330 2937 0b32
00000020: c811 56b3 cd80 4233 e494 4ab2 964a 6ab1
00000030: fdee a7b3 bc69 a9b3 edd3 0f33 241a 1fae
00000040: 3c1d 38b3 8195 c3b3 e19b eeb0 40cf cf31
00000050: 921d 6a32 6b78 2732 ff44 5db3 b72e bbb2
00000060: 18b8 01b3 a7b4 b232 be8f 3333 21e7 8032
00000070: 8569 c8b2 323a e0b3 4333 7033 c57b e832
00000080: 86da adb2 2f7b 5cb3 ddd0 65b2 ec3c 05ad
00000090: a7f0 fbb1 dc08 9131 77a8 9bb3 52b8 9932
000000a0: cfa5 0cb2 c019 2533 d709 9db0 ca89 12b3
000000b0: 9739 8cb3 1bd9 33b4 20ac e532 f82f fcb2
000000c0: b14f a432 20be 1433 5929 3332 8aa2 16b2
000000d0: ea67 a3b2 cbaa 3932 ad39 c131 13a7 d933
000000e0: a29d 5133 9b5d 8032 8711 41b2 0c45 b6b3
000000f0: 8819 d031 957e 89b3 8cea d2b1 0e79 92b1
1.310186e-09 1.8412386e-08 4.30698e-08 2.526106e-08 -8.849571e-09 8.91222e-10 1.3058106e-09 8.103407e-09
-4.984193e-08 4.528629e-08 -1.1791801e-08 -3.4093879e-09 -7.820015e-08 -7.888909e-08 3.3487527e-08 -3.6175632e-11
-4.2867427e-08 -9.10759e-08 -1.7361083e-09 6.0480545e-09 1.3627316e-08 9.748059e-09 -5.1518324e-08 -2.1790909e-08
-3.0202585e-08 2.0804078e-08 4.1807418e-08 1.5006266e-08 -2.3331049e-08 -1.04413985e-07 5.5925977e-08 2.7064639e-08
-2.0239224e-08 -5.1334776e-08 -1.3377044e-08 -7.573702e-12 -7.3324204e-09 4.2210626e-09 -7.2483935e-08 1.7895363e-08
-8.186773e-09 3.8440476e-08 -1.142605e-09 -3.4118592e-08 -6.5297336e-08 -1.6749657e-07 2.6737382e-08 -2.9358475e-08
1.9128352e-08 3.4631853e-08 1.0428573e-08 -8.768106e-09 -1.9022952e-08 1.0807251e-08 5.6235963e-09 1.01352406e-07
4.880497e-08 1.4943728e-08 -1.1238064e-08 -8.487595e-08 6.0564993e-09 -6.402585e-08 -6.1384693e-09 -4.2629216e-09

backbone.9.weight f4 [64]
00000000: 662b 6a3f 128b 413f 0efa 4c3f 276b 543f
00000010: 99bc 213f 6992 453f 9820 483f dc0a 7a3f
00000020: 26f0 7d3f dab5 623f d406 613f 600a 663f
00000030: f6a8 6c3f d5b0 7e3f 8e89 663f 754c 773f
00000040: b018 693f c541 773f 0aa1 703f adb3 473f
00000050: 42b4 313f 9938 3f3f 74fb 643f acd7 203f
00000060: 0e84 693f b748 3e3f 0171 583f 615b 6a3f
00000070: f91b 5d3f 1d38 703f 2a13 573f c1ac 543f
00000080: 7c19 5b3f 0a09 6c3f f23d 573f 7b97 583f
00000090: 8dac 283f b8f3 533f 07ed 763f 72ff 6d3f
000000a0: 2d60 603f 9d10 6d3f 28fc 633f da34 5a3f
000000b0: 8332 723f 8d7b 743f ba93 783f 7b09 583f
000000c0: 36df 4a3f e6e0 773f 5d9f 353f 6dfc 3b3f
000000d0: 0554 5b3f 113f 413f 3c00 3b3f 7599 773f
000000e0: e6a1 703f d50a 373f 7dc8 383f b804 6f3f
000000f0: ffbe 533f 3cf4 683f 5753 513f 5a2d 1b3f
0.9147247 0.7560283 0.80069053 0.82976 0.631784 0.7717653 0.78174734 0.9767282
0.9919456 0.88558733 0.87901044 0.8985958 0.92445314 0.99488574 0.9005364 0.9660104
0.91053295 0.9658473 0.93995726 0.7800854 0.69415677 0.74695736 0.89446187 0.6282909
0.91217124 0.74329704 0.8454743 0.91545683 0.8637081 0.9383562 0.8401362 0.830761
0.8558576 0.9220129 0.84078896 0.8460614 0.6588829 0.8279376 0.96455425 0.92967904
0.8764675 0.92603475 0.89056635 0.85236895 0.94608325 0.95501024 0.9710041 0.84389466
0.7924684 0.9682754 0.70946294 0.73432046 0.8567508 0.75486857 0.7304723 0.9671853
0.9399704 0.71500903 0.7218092 0.93366575 0.8271331 0.9099767 0.8176779 0.60616076

backbone.9.bias f4 [64]
00000000: 8fbd 85bd 4b17 82bd 1fdb cabd f302 99bd
00000010: 579b adbd 226f 7cbc ce2a acbd f91a bbbd
00000020: 28ce 45bd 4f2d f2bd ac00 6dbd e90c 08bd
00000030: f7e1 2dbc 1a78 3cbd 4828 9c3c 5a3d 03bd
00000040: 2f55 5ebb 65e9 2ebd 069f e9bd 6a90 e9bc
00000050: 08e2 ccbd f8d3 e4bc d3a7 bdbd 0871 a5bd
00000060: f59f b2bd faa9 cebd e388 e3bd 015c fbbd
00000070: 819e bfbd c221 20bd 555b bdbd 77b9 d6bc
00000080: f27e 5bbd 0c29 98bd 8acd 3cbd 0e69 51bd
00000090: 3b82 d9bd 95f1 8fbd 6d89 5abd 0a01 d2bc
000000a0: e5c2 4bbd 4543 13be 2b40 f83c 524e 8dbd
000000b0: 2a3d cbbd ca8d 83bd 137a 1cbe fb98 82bd
000000c0: 5a00 8bbd ab0c 3dbd 52c4 febc a891 91bd
000000d0: 1bfe 59bd 4e8c adbd 9c93 1ebd 34ba 11bd
000000e0: 9278 25bd 8950 dfbd a772 17be e55b 21bd
000000f0: e499 e0bc ae6b 9abd eef1 0abd ba38 ddbc
-0.06530296 -0.06352099 -0.09905075 -0.07471266 -0.08476894 -0.0154073555 -0.08406602 -0.09136004
-0.04829231 -0.11825048 -0.05786197 -0.033215437 -0.010612956 -0.046012975 0.019062176 -0.03204093
-0.0033925285 -0.04270305 -0.114072844 -0.028511245 -0.100040495 -0.027933106 -0.092605256 -0.080781996
-0.08721916 -0.10091014 -0.111100934 -0.12273408 -0.09356404 -0.039094694 -0.09245936 -0.026211483
-0.05358786 -0.07429704 -0.046094455 -0.05112558 -0.106205426 -0.070285 -0.053353716 -0.025635261
-0.049746413 -0.1438113 0.030304035 -0.06899704 -0.099237755 -0.064235285 -0.15280943 -0.06376835
-0.067871764 -0.04615466 -0.031099472 -0.0710786 -0.05322085 -0.084740266 -0.03871499 -0.035577968
-0.040398188 -0.10904033 -0.1478983 -0.039394278 -0.02741713 -0.075400695 -0.03392213 -0.027004588

backbone.9.running_mean f4 [64]
00000000: 9848 39bf f8a1 96bf 2ced 9f3d 2854 eabe
00000010: 2e9f ad3d 1bdc 6ebf 09fe 23be 1dda 1ebf
00000020: fc9a 75bf 38fc b5be ee8e fe3e 0e61 9ebf
00000030: c547 85bf 1678 26bf b1ad 15bf f5ca 14bf
00000040: 2c00 97bf 17a1 4fbe fe77 3cbe 2d58 d6bd
00000050: 1e99 29bf 18c5 93bf f260 9fbe a56e d4be
00000060: c2fc 04bf 667e eabe af73 b3be a995 383e
00000070: 819d 3dbf 63c6 49bf 62b5 97be 1160 e2be
00000080: dfbd 053e f7ba 25bf c0de 1bbf 16ad 483f
00000090: 8894 e3be 1707 d3be 36fe cebe 2f8a 4b3c
000000a0: 194b 80bf dc3e 9a3e 75cb 2abf 20ce d9be
000000b0: 1acf 2f3c 7216 9ebe 2554 96bc a404 a7be
000000c0: 0f2d 95bf 844e e83d 6430 14bf 7ab4 a1bf
000000d0: 9b39 2bbf 817e 86bf 2d8b 04bf 8112 983d
000000e0: aaa6 4d3e 8267 3bbe c493 b9be e205 20bf
000000f0: 382b a3bf 0df5 4c3e 833f e7be 0a53 44bf
-0.72376394 -1.1768179 0.07808909 -0.4576733 0.08477627 -0.93304604 -0.16014875 -0.62051564
-0.9593961 -0.3554399 0.49718422 -1.2373369 -1.0412527 -0.65026987 -0.5846816 -0.5812219
-1.1796927 -0.20276295 -0.18405148 -0.10466037 -0.66249263 -1.1544523 -0.3112865 -0.41490665
-0.5194818 -0.4579956 -0.35049197 0.18025841 -0.74068457 -0.7881834 -0.29630572 -0.44213918
0.13060711 -0.6473841 -0.60886765 0.7838911 -0.44449258 -0.41216347 -0.40428323 0.012423082
-1.0022918 0.30126083 -0.667167 -0.42540073 0.010730529 -0.308765 -0.01835067 -0.32620728
-1.1654376 0.11343101 -0.5788634 -1.2633202 -0.66884774 -1.0507356 -0.51774865 0.07425404
0.20083109 -0.18301204 -0.3624555 -0.62508976 -1.2747564 0.20015354 -0.45165643 -0.7668921

backbone.9.running_var f4 [64]
00000000: b254 433f 608a ea3f 204f 513f 84df 103f
00000010: 3413 753f 3419 8a3f 2b4d 3a3f b31a 723f
00000020: 1913 e33e 6462 fd3e 2aa7 a83f fca3 573f
00000030: 0274 913f d378 ca3e 3d08 823f a3e8 363f
00000040: 7ef3 633f 45b5 1a3f 32db 053f 6547 353f
00000050: c957 283f e8de c13f 1f42 2c3f cc41 223f
00000060: 886e ed3e 072d 083f 1916 183f 89e4 003f
00000070: 6d7f 8d3f d38e 5f3f 9329 003f 7f5c 1f3f
00000080: fde6 a03f 42ec 403f 5a6c 813f 4972 3e40
00000090: c523 2f3f 47e9 933f 1903 e23e 975a 0f3f
000000a0: 2392 933f 5345 393f 2c42 563f d304 2d3f
000000b0: c9be 2a3f 65c5 083f 15e6 6e3f 8104 233f
000000c0: dfde 2a3f 431f 333f ccdc 303f 8f5c 3a3f
000000d0: d75d f13e 9a92 d33e 962e 6e3f f620 553f
000000e0: 635e 8c3f 963a 6c3f 03df 833e 79c5 0d3f
000000f0: 6ca1 6e3f fdd9 a03f efcf 583f 4a9d 6e3f
0.7630111 1.8323479 0.8176136 0.5659106 0.95732427 1.0788941 0.72774 0.9457199
0.44350508 0.4948913 1.3176014 0.84234595 1.1363528 0.39545307 1.0158764 0.71448725
0.89043415 0.60432845 0.5228759 0.70812064 0.6575895 1.514615 0.6728839 0.6338165
0.4637339 0.53193706 0.5940872 0.50348717 1.1054512 0.8732731 0.5006344 0.6225051
1.2570492 0.753605 1.0111191 2.9757254 0.68413955 1.1555566 0.44142988 0.55997604
1.1528972 0.72371405 0.8369472 0.67585486 0.66697365 0.534262 0.9331983 0.6367875
0.66746324 0.69969577 0.6908691 0.72797483 0.47141907 0.41322786 0.93039834 0.8325342
1.0966305 0.92276895 0.25756082 0.55379444 0.9321506 1.2566525 0.8469228 0.93208754

backbone.12.weight f4 [128, 64, 3, 3]
00000000: 6869 0c3d 579e f63c 5608 f43c ec95 dcbb
00000010: d107 8f3c 22d7 99bc 3923 eebc 80bb 25bd
00000020: fe35 66bc b00a 1bbc 5ef9 983d dd83 c5bb
00000030: ef19 22bd cfe2 57bc 1356 9cbc 0feb f3bc
00000040: 393a 68bc 0bca 99bb 7939 33bc 461b ccbc
00000050: eeb5 a73c d81e d9bc 782f 113c b1e6 50bc
00000060: 4af3 17bd c3ae 043d d927 553c 83eb 4ebc
00000070: 4864 b039 8cda 82bc 5f90 6d3c 56ee 12bc
00000080: d555 a73d e892 4abd 7b9a a0bc ea9d c83c
00000090: a24d 393c dccc e6b9 9a9a 033d da20 87bb
000000a0: d89b 12bd 915b 37bc abed cd3b b6fd 293c
000000b0: 2ca6 c23c af47 183d d781 123d 9cd5 3d3d
000000c0: 5813 90bd 4e15 bebc cba0 39bd aeeb 93bd
000000d0: 2dc6 a8bc 15aa 50bd 3b0f b9bc 1ea2 f73c
000000e0: df36 4f3d 40d8 a53b 97a8 81bb b1cc dfbc
000000f0: 993f 463d 54eb 883c 2ed2 943c d672 bcbc
00000100: fe37 0dbd 531d c83d 5548 a93c 3d67 98bc
00000110: 1741 21bc f77a b1bc c1f5 3f3d 9a61 ea3c
00000120: 6c3e ab3d 8b35 033d abda ab3d 14cf b8bc
00000130: 0e2b 9ebd 0f01 1cbd 861e 79bd 3fe1 ddbd
00000140: 6437 e4bb 4f60 293c 9540 81bd 6c33 e4bc
00000150: 9b05 a9bb 8176 00bd f914 f0bb d067 073d
00000160: b3e2 9abd bf5c db3c 4b47 9ebb 26bb 913d
00000170: 1b75 593d a132 b13c 3ca9 c8bc a3c0 49bc
00000180: 1708 d83b f762 fa3b a088 6e3d 07e5 733b
00000190: 38db d83c 40ab 07bd f600 dfbb 2b15 c63c
000001a0: 8578 453c 5270 49bd 2153 b43c ec5d 923d
000001b0: 110f 9f3b adca 173c 6b81 31bd 4e7d 9ebc
000001c0: 9fa1 2dbd f841 12bc 304b d2bc 9209 f13b
000001d0: 3c8c 013d f832 e33b 0328 f8bc d1e9 953c
000001e0: e413 22bc f93b 5e3c 11e1 093c dda8 65bd
000001f0: 1de7 c5bc d363 b9bd 74c0 68bc 330c a4bc
00000200: ac90 243d d1b8 a73a 0509 5abd e0b6 533a
00000210: 1a18 98bd 01c8 b2bd 9891 863c dd3d e43c
00000220: 545f c3bb 8c29 8bbc 4da1 89bd 278c 14bd
00000230: e0a1 00bd 8311 7fbd 6d85 463c be56 603b
00000240: 3ab1 d83c 0fbd 093d ec29 403d 9804 b4ba
00000250: 7665 48bd b779 d73b 1493 e53d 78a5 e4bc
00000260: 3f64 2e3d bd13 56bd ae0f 22bc 3a9e 793d
00000270: 36ea efbc bb13 1bbd 6cda 9a3c b621 adbc
00000280: 4980 b0bd 2d0f 0bbc 9e94 4dbc cf44 f6bb
00000290: c1b1 c9bc ab41 81bc 2eb1 0d3c 6d97 2bbc
000002a0: 55da 4dbd 2d69 4b3d d795 3f3d f37d dcbb
000002b0: 0729 393c b11b 09bd e5f9 c53c 9f58 fd3c
000002c0: c519 223d f9d4 9f3a 0fbb 803c 6248 3a3d
000002d0: d1db a83c 44bb 78bb 7e07 0f3b 7aa1 073c
000002e0: 54ef f73b ef2d 363d 613f 663d 2bfc debb
000002f0: 147c 0d3d 853b a43b 30ee febc 4842 4f3b
00000300: d21e a1bc 1576 46bc 091a 473d c2ca b4bb
00000310: f70e babb ae32 d1bc cacc 1bbd 27f6 8a3c
00000320: 58c3 f538 53f0 33bd 8b54 833b a926 e3ba
00000330: 9ed6 2ebc 0744 583c d1a0 06bc 168f a3bc
00000340: 4903 1a3c 6e87 80bc 2788 133d 3e34 0a3d
00000350: 7684 44bc c02b 863b 080b 0f3d 34e8 58bd
00000360: 65aa 09bd ce4d cdbc 1fd4 62bd 43f0 3abd
00000370: 803f ea3a 070e 933a 42f0 02bc b120 643b
00000380: 8571 17bd cdd1 173c 7851 623d 8c2b 8d3d
00000390: e42f 543c daf2 203d 359a 4d3c b59a f73c
000003a0: 9a04 86bb 390f d43b 22f4 133d 7b62 0a3c
000003b0: c8d9 083d c235 52bb ad06 363c 5048 83bc
000003c0: fc2d b13b dc40 71bc 2dfa 043d cbb7 0b3d
000003d0: d523 cb3c 1ea3 53bc b753 073d c8e6 da3b
000003e0: 3a40 a53a e242 9a3c 3b10 973c 143c 713c
000003f0: 01ad 26bc 8a3b 0cbd e361 08bc 2e1d c8bc
0.03428021 0.0301048 0.029789131 -0.0067317393 0.017459782 -0.018779341 -0.02906953 -0.040462017
-0.014050959 -0.009462997 0.07469438 -0.006027682 -0.039575513 -0.013176634 -0.019084012 -0.02977517
-0.014174038 -0.004693275 -0.0109389955 -0.024915349 0.020472493 -0.026503965 0.008861415 -0.012750314
-0.037097253 0.03239323 0.013009989 -0.012629393 0.0003364405 -0.015973352 0.014499753 -0.0089679565
0.08170668 -0.049456507 -0.019604912 0.024489362 0.011310013 -0.0004402165 0.03212986 -0.0041237893
-0.035793155 -0.011191265 0.0062844357 0.010375431 0.023760878 0.037177738 0.035768356 0.046346292
-0.070349395 -0.023203518 -0.04531936 -0.07222687 -0.02060231 -0.050943453 -0.02259027 0.03022867
0.05058944 0.0050611794 -0.003956865 -0.027319284 0.048400495 0.016713776 0.018166628 -0.023003977
-0.034477226 0.09771218 0.020664373 -0.018603915 -0.009842179 -0.02166508 0.04686523 0.028610993
0.083615154 0.032033484 0.08391317 -0.02255968 -0.07723056 -0.038086947 -0.060820125 -0.10833978
-0.006964611 0.010337903 -0.06311146 -0.027856551 -0.005158139 -0.031363014 -0.007326719 0.033057988
-0.07562771 0.026777623 -0.004830276 0.07115774 0.053090196 0.021630587 -0.02449476 -0.012313995
0.0065927613 0.007641192 0.058235765 0.0037215368 0.02647172 -0.0331223 -0.0068055345 0.024180016
0.01205266 -0.049179383 0.022012295 0.071468204 0.004854091 0.00926463 -0.043336313 -0.01934686
-0.042390462 -0.008926861 -0.025670618 0.007355877 0.03162788 0.006933566 -0.030292517 0.018299969
-0.009892438 0.013564103 0.008415476 -0.056069244 -0.024158055 -0.09052243 -0.014206041 -0.020025348
0.040177032 0.0012796168 -0.053231258 0.0008076262 -0.07426472 -0.08729554 0.016426846 0.02786153
-0.0059622917 -0.016987585 -0.06720219 -0.036266472 -0.031404376 -0.06227256 0.012116772 0.003423139
0.026451696 0.033627566 0.04691498 -0.0013734279 -0.048924886 0.006575789 0.112096936 -0.027910933
0.04257607 -0.052264918 -0.009891434 0.060941912 -0.029286485 -0.037860613 0.01890298 -0.021134239
-0.086182185 -0.008487505 -0.01254764 -0.007515527 -0.024620892 -0.015778383 0.0086482 -0.010473114
-0.050257046 0.04966085 0.046773758 -0.0067288815 0.011301286 -0.033473674 0.02416701 0.030926047
0.039575357 0.0012194208 0.015714196 0.045479186 0.02061263 -0.0037953416 0.0021824534 0.008278245
0.007566372 0.0444774 0.056212787 -0.006804963 0.03454216 0.005011978 -0.031119436 0.00316252
-0.019668017 -0.012113114 0.048608813 -0.0055173347 -0.0056780535 -0.025536861 -0.0380371 0.016963078
0.00011718896 -0.043930363 0.004007881 -0.0017330247 -0.010671286 0.013199813 -0.008217053 -0.01996569
0.009400197 -0.015689578 0.036018517 0.03374123 -0.011994472 0.004094571 0.03492263 -0.05295582
-0.033609767 -0.025061514 -0.055378076 -0.045639288 0.0017871708 0.001121939 -0.007991852 0.0034809525
-0.036973495 0.009266329 0.055253476 0.068930715 0.012950871 0.0392941 0.012548973 0.030225137
-0.004089904 0.0064715412 0.036121495 0.008446331 0.033410817 -0.00320755 0.01110999 -0.016025692
0.005407093 -0.014724936 0.03246515 0.034110826 0.02479736 -0.012917308 0.03303882 0.0066803433
0.0012607642 0.01883072 0.018440356 0.014723796 -0.010173083 -0.03423647 -0.008324119 -0.024427976

backbone.12.bias f4 [128]
00000000: 2c0b c531 1510 dc31 55ff a531 d215 a332
00000010: ce20 f432 3c49 6ab2 3fd7 5931 c585 5a32
00000020: 82ba 08b3 8228 c531 cc14 9632 f307 b832
00000030: 5cf8 b6b2 7525 5433 5ddd 8431 a7d6 adb1
00000040: f93d 1eb1 0e18 bb31 bd27 6332 0c51 61b3
00000050: 3c64 41b2 57d7 cc32 0cd6 4d32 d0ef b632
00000060: 68d7 3932 9d65 0b32 b546 ff31 1d0c 7ab2
00000070: 94c5 8cb2 83e4 08b2 72e0 c9b1 1cd9 f332
00000080: fc71 45b3 0a5f 1bb2 c43d f732 9519 34b2
00000090: cdcd 9130 7fb2 15b3 d87f 1eb2 c2d2 71b2
000000a0: ac08 8232 4bdd 56b2 20cb 8eb1 5299 dcaf
000000b0: c19c a1b2 d138 c832 f954 9cb0 42b7 e230
000000c0: 09d0 aab2 652b de30 b05f 8532 f208 5cb3
000000d0: 9efc b0b2 bc6f 13b2 d8cc 6332 d574 fe31
000000e0: ae92 1a32 69d9 38b1 a354 0a32 1a2c 2732
000000f0: adfe cdb1 23db ceb0 d955 6c2f 82e0 5c32
00000100: 9790 9a31 d56d 1931 1a6c 0f33 1d48 9b31
00000110: 2b19 db30 dcd7 47b1 e904 8231 b7ee bfb1
00000120: a729 9d31 1c7d 4632 98df 32b2 540a 28b2
00000130: 515a 40b2 fa97 8eb2 ae00 9bb1 d06c 4d2f
00000140: 176d f6b2 cb30 3632 007f eb32 1f9d 2fb2
00000150: aa0c 4133 35cf d831 cfec e830 b7a9 f8b0
00000160: b2c7 dcb2 0681 8eb1 a270 dab2 8f7b 1c32
00000170: 366a c9b1 a6af 1db3 0c8d 82b3 9b99 9db0
00000180: e4e2 2d30 b265 0930 7b27 f831 518f 1632
00000190: f28b c732 7039 4db1 8e68 bbb2 fd5e 1f32
000001a0: 0694 4db3 9c9a 18b1 e8ca 3931 86da bc31
000001b0: b1c9 8d30 6da9 06b2 7f4f fc32 4630 85b2
000001c0: 4648 4eb2 6bbe f931 8061 4b33 5e3d 9b32
000001d0: 8f36 b1b1 aac6 bf32 802c d731 a261 d332
000001e0: b0ae b9b1 1a54 7d32 b825 bcb1 4db2 3b32
000001f0: d9b8 37b4 c477 3032 7e0c 38b1 a351 8332
5.7347247e-09 6.404671e-09 4.83116e-09 1.898562e-08 2.8420256e-08 -1.3637244e-08 3.170001e-09 1.2719686e-08
-3.1834595e-08 5.73806e-09 1.7471756e-08 2.1424034e-08 -2.130053e-08 4.9394163e-08 3.8668717e-09 -5.059366e-09
-2.3027253e-09 5.445151e-09 1.32221745e-08 -5.2460607e-08 -1.1256869e-08 2.384665e-08 1.1981239e-08 2.1296643e-08
1.0817395e-08 8.113969e-09 7.4295152e-09 -1.45546695e-08 -1.6387993e-08 -7.968199e-09 -5.8753864e-09 2.8387653e-08
-4.5971305e-08 -9.043797e-09 2.8782672e-08 -1.0483196e-08 1.0608631e-09 -3.4854107e-08 -9.225879e-09 -1.4075967e-08
1.5137935e-08 -1.2506756e-08 -4.1558366e-09 -4.0126708e-10 -1.881415e-08 2.3308901e-08 -1.1374645e-09 1.6495749e-09
-1.9885208e-08 1.6164959e-09 1.5526751e-08 -5.1230877e-08 -2.0603974e-08 -8.581932e-09 1.3259715e-08 7.405655e-09
8.997331e-09 -2.6899107e-09 8.051901e-09 9.730707e-09 -5.9952385e-09 -1.5050755e-09 2.1494574e-10 1.2856733e-08
4.498428e-09 2.2326863e-09 3.33931e-08 4.519292e-09 1.59415e-09 -2.9081013e-09 3.784056e-09 -5.5859704e-09
4.5740367e-09 1.1553563e-08 -1.0411803e-08 -9.781235e-09 -1.11964065e-08 -1.6600087e-08 -4.511171e-09 1.86833e-10
-2.8687777e-08 1.06048885e-08 2.7415354e-08 -1.0222066e-08 4.4947832e-08 6.309984e-09 1.6947527e-09 -1.8092611e-09
-2.5702182e-08 -4.147412e-09 -2.542976e-08 9.108489e-09 -5.8619447e-09 -3.6714162e-08 -6.079253e-08 -1.1466911e-09
6.3259464e-10 4.998483e-10 7.2222384e-09 8.7637355e-09 2.3230289e-08 -2.9864076e-09 -2.1817211e-08 9.276616e-09
-4.786491e-08 -2.2206796e-09 2.7036382e-09 5.4963634e-09 1.0316424e-09 -7.8383495e-09 2.9372812e-08 -1.550519e-08
-1.2007211e-08 7.268502e-09 4.7353296e-08 1.8072281e-08 -5.1575806e-09 2.2325668e-08 6.2623826e-09 2.4608031e-08
-5.4040683e-09 1.4745661e-08 -5.4758083e-09 1.09253735e-08 -1.711045e-07 1.027178e-08 -2.6782625e-09 1.5287531e-08

backbone.13.weight f4 [128]
00000000: 655d 803f 6c9b 5d3f c700 693f 0254 773f
00000010: 7148 823f f06f 6d3f d16e 6a3f f16a 783f
00000020: f5ef 7c3f 7fae 683f 1da3 763f add6 823f
00000030: 5869 7a3f 942f 733f 13b2 7d3f 0f73 533f
00000040: 4ef0 6a3f b422 4d3f cbda 7f3f 88d1 6b3f
00000050: 6ff1 5d3f aa7a 683f ae62 713f c904 633f
00000060: acaa 723f af01 853f bb4a 7a3f f1b8 5a3f
00000070: 3d36 5a3f a001 393f ce6f 713f cbcc 703f
00000080: 4d0e 7e3f b98d 493f f68a 803f f5b6 773f
00000090: 6aa6 653f 63e3 773f 6bc3 6b3f ccf8 863f
000000a0: d0f3 763f 5e16 753f 3456 633f f439 803f
000000b0: 4aa5 873f 9045 743f d5ed 7f3f ba35 803f
000000c0: ad41 803f 7d60 643f ba0d 7d3f a997 7a3f
000000d0: 7bd8 633f b3bc 743f 1ba6 4b3f 86fb 583f
000000e0: 25bf 7d3f d609 573f 2d1f 633f 547b 3b3f
000000f0: c008 743f cc0d 603f a1ec 783f 5aa7 743f
00000100: 1149 703f 5e85 713f 47a7 793f 05dc 693f
00000110: 4ebd 403f 638e 703f d20b 703f 98f2 6a3f
00000120: ddf9 4d3f a38e 833f 439f 783f 74d1 7b3f
00000130: a0c9 633f be28 7b3f 7581 1a3f 1fab 603f
00000140: c817 803f 05c8 773f 6868 7b3f f8cd 6e3f
00000150: de97 6d3f c2e1 6f3f 4c79 753f f622 4e3f
00000160: 2a8d 7a3f 31f9 763f bb39 583f 4fbd 753f
00000170: d26d 583f d1fd 5f3f a98d 7a3f b277 5b3f
00000180: c22f 7d3f 9cd0 733f 8a9e 6e3f c8d2 813f
00000190: b0e6 5e3f bbe0 403f 4ac2 6c3f c1a0 733f
000001a0: ab68 6d3f de7f 493f 7dea 843f 092b 5d3f
000001b0: ec73 673f 2dc9 7b3f 07b5 723f 36e7 5d3f
000001c0: 5f00 623f 2f30 653f ce57 6b3f c4f2 833f
000001d0: cfab 6e3f e043 713f 6122 753f 6e72 7d3f
000001e0: 2d88 5e3f 2ea5 5a3f abef 393f 09d3 663f
000001f0: 04ff 843f 4e77 7c3f d811 843f 5d9c 843f
1.0028502 0.8656528 0.9101681 0.9661256 1.0178357 0.9274893 0.9157534 0.9703818
0.98803645 0.9089126 0.9634264 1.0221764 0.9781699 0.94994473 0.99099845 0.8259744
0.91772926 0.8013108 0.99943227 0.92116594 0.86696523 0.9081217 0.942912 0.88679177
0.94791675 1.0391139 0.9777028 0.8543845 0.8523901 0.72268105 0.94311225 0.9406249
0.9924057 0.78731877 1.0042408 0.96763545 0.8970705 0.9683134 0.9209506 1.0544677
0.9646578 0.95737255 0.8880341 1.0017686 1.0597317 0.95418644 0.9997228 1.0016396
1.0020043 0.8920973 0.9884907 0.97887665 0.890022 0.9560043 0.7955033 0.84758794
0.9911979 0.83999383 0.88719445 0.7323506 0.9532585 0.8752105 0.9723607 0.9556786
0.9386149 0.9434413 0.9752087 0.9135135 0.75288856 0.93967265 0.93768036 0.9177642
0.80459386 1.0277904 0.97118014 0.98366475 0.8897953 0.9810904 0.60353786 0.8776111
1.0007257 0.9678958 0.98206186 0.93283033 0.92809856 0.93703854 0.9588821 0.80522096
0.9787165 0.96473986 0.8446309 0.95991987 0.8454257 0.8749667 0.97872406 0.85729516
0.98901 0.9524019 0.9321066 1.014245 0.8707075 0.7534291 0.9248396 0.95167166
0.92737836 0.78710735 1.038406 0.8639379 0.9041126 0.98353845 0.94807476 0.86680925
0.88281816 0.8952665 0.91930854 1.0308461 0.9323091 0.94244194 0.95755583 0.9900273
0.8692654 0.85408294 0.7263133 0.90165764 1.0390325 0.98619545 1.0317945 1.0360218

backbone.13.bias f4 [128]
00000000: 6452 283c 0759 e83c adf0 373c 6d6d 0a3c
00000010: 5787 2dba ac5f 3a3d e755 2dbc 728d 773c
00000020: 4c02 403d 01a3 4e3c 58ae d0bc a885 893c
00000030: 92f7 05bd a976 11bd b2fd 7e3c be07 2e3a
00000040: 84aa 073d 2194 2bbd b81c 3d3b ce96 3e3c
00000050: ce48 1b3b 8471 2fbc 1750 3e3d be0d b2bc
00000060: c558 05bd c2df 8cbc c5e8 183d 91cc d3bc
00000070: ea19 583d fb83 ae3c 5060 d83c bee3 05bd
00000080: 88c1 5e3d 0f31 b33c 41a8 a93b eec9 dc3b
00000090: 7375 173c 0be7 073d 9af1 52bc e639 593c
000000a0: 1733 483c 5a63 e7ba 2617 7e3c 99e1 453c
000000b0: 77a2 7b3d a9ae ee3a 24aa 1a3d 77ca 153c
000000c0: 2781 613c bee2 cb3c d08f 22bc 7d42 093c
000000d0: 57b7 ed3c cb78 efbb 2b39 00bd ebfb 38bc
000000e0: b723 4b3a 8d19 083b c51a 303c 0d70 003c
000000f0: 89e5 263d 0f2f f1bc 16dd 323c 64d2 f93c
00000100: 20c2 fc3a a6b4 3d3d 9316 42bd 172b df3c
00000110: a045 82bc ea24 ea3c 292d 84bc 17aa c63c
00000120: 47f4 22bc c540 d5bc 5367 fc3c 4e8a e4bc
00000130: 9df3 383d ead5 523d 3eda 7e3c 204d 9dbb
00000140: a352 d0bc 9bd7 d5bc 1c69 edbc 9350 c73c
00000150: f492 4ebd 3978 4d3c 33cb d03b 12a9 f53c
00000160: 1be2 123d 95dc 643d d130 93bc 3e9f cbbc
00000170: c340 563d da8d d03c 9627 bbbb 5a2f 813c
00000180: 5f2d a43d 66fd d13c beff 6c3c 266d 7b3d
00000190: f11c 01bd 0f52 cfbc dfc2 80bc c522 f03c
000001a0: db77 4d3c d242 453c 3e42 8dbc db82 163c
000001b0: 0f33 693c 2a7d b3bb f9e7 4f3c 8a42 d33c
000001c0: f4f7 9a3c c1c1 edbc 7ce4 0dbd 9c30 abbc
000001d0: d87a 183d 4754 03bb e990 49bd 1adf 29bd
000001e0: ab20 a73b c9cc 873b ee27 8c3c 305d 6f3c
000001f0: 7ce8 4e3d 76f8 fd3c 34e0 c0bc 1294 f2bc
0.01027355 0.028362764 0.011226815 0.008448941 -0.00066195935 0.045501396 -0.010579563 0.015109407
0.04687719 0.012612105 -0.025473759 0.016787365 -0.032706805 -0.035513554 0.015563415 0.0006638727
0.0331216 -0.041889314 0.002885623 0.011632634 0.0023694518 -0.010708217 0.0464631 -0.021735068
-0.03255536 -0.01719654 0.03733136 -0.02585438 0.05275909 0.021303168 0.026413113 -0.032687895
0.054383785 0.021873979 0.005177528 0.006737939 0.009244311 0.033179324 -0.012874985 0.013258433
0.012219212 -0.001765351 0.015508449 0.012077712 0.061434235 0.0018210012 0.037759915 0.00914251
0.0137637025 0.024888393 -0.009921983 0.008377668 0.029018087 -0.007308101 -0.03130452 -0.011290531
0.00077491574 0.0020767183 0.01074857 0.007839215 0.040746246 -0.029441385 0.010916969 0.03049583
0.0019283928 0.046314858 -0.04738481 0.027242227 -0.01590234 0.028582055 -0.016134815 0.024251027
-0.009945936 -0.026031861 0.030810988 -0.02789798 0.045154203 0.051473536 0.015554963 -0.004800454
-0.02543003 -0.026103785 -0.028980784 0.024330413 -0.050433114 0.01254087 0.0063718795 0.029987846
0.035860162 0.055874426 -0.017967613 -0.024856206 0.052307855 0.025458265 -0.005711506 0.01576965
0.08016466 0.025633525 0.014465271 0.06138339 -0.03152174 -0.025307683 -0.015717922 0.029313454
0.012540783 0.012039857 -0.0172435 0.009186472 0.014233365 -0.005477567 0.012689584 0.025788564
0.018917061 -0.029023053 -0.034641728 -0.020897202 0.037226528 -0.0020039247 -0.049210463 -0.04147253
0.00510033 0.0041442853 0.017108884 0.01460962 0.050514683 0.031002264 -0.023544408 -0.029611621
