models/osu_model.pth (torch, 438927 bytes, 28 tensors)

backbone.0.weight f4 [16, 3, 3, 3]
-0.1374441 0.010367147 -0.14022273 -0.09627815 -0.14357466 -0.026183344 -0.12183478 0.16567259
-0.05764921 -0.011934143 -0.2798378 -0.09756754 -0.15434328 -0.043360047 0.02768865 -0.10610357
0.032509394 0.041002445 -0.06378921 -0.14729941 -0.08486893 0.13145223 0.05138827 9.227211e-05
0.08046886 0.046345156 0.019592615 -0.15457092 -0.17709279 0.005579989 -0.22576946 -0.035428077
0.07957035 -0.00043094385 -0.048393115 0.12720942 0.17092742 -0.033080913 0.0010407727 -0.0006857848
-0.022142053 -0.06695512 0.050827336 0.17945021 0.0934252 0.27579197 0.14384995 -0.03679762
0.01928141 0.14438564 0.007753672 0.03337857 0.095446125 0.13587637 0.02228912 0.13658305
0.04691244 -0.044931132 0.107286505 -0.00031281065 -0.014541409 0.2861547 -0.00092706655 -0.08356691
0.0021256572 -0.071702704 -0.05504139 -0.18021125 0.040764898 -0.00027400677 -0.14763193 0.08359423
0.00042450608 -0.021423673 0.10270877 -0.05285977 0.012756327 -0.019099802 -0.08231823 0.08027626
0.0002506669 -0.16861923 -0.024542712 -0.06365841 -0.0003244597 0.014989943 0.012180504 -0.017892731
0.029053055 -0.06136376 -0.013292373 -0.0013066038 0.023935704 0.13265567 -0.00019736236 0.053271532
-0.004963184 0.119647525 -0.054626286 0.15440612 -0.15669833 -0.087578475 0.053777143 0.017040338
0.016276808 0.09078376 0.053373843 0.0033464883 0.14905532 -0.011642833 -0.18260808 -0.13216221
0.017391236 -0.17962 0.10431268 0.18730508 0.054396823 -0.0077375895 -0.0154087795 -0.15844132
-0.0941688 0.06987535 0.09817763 -0.15869385 0.16612549 -0.0013531771 0.034430075 0.00571312
0.26964697 0.04552272 -0.0036766739 -0.018734856 -0.1172046 -0.020503296 0.11598536 0.026805226
-0.04941712 -0.097840786 -0.22801596 0.024647156 0.173508 0.05361288 -0.00019079642 -0.032118235
-0.06954498 0.14706688 0.06877945 0.011911384 -0.016446797 -0.15265281 -0.12613796 0.18666597
-0.17523785 -0.10053641 0.17044167 0.0103601385 -0.16240937 -0.000282714 0.078928895 0.00019605817
0.08563984 -0.019247692 0.12715231 -0.122634605 0.077916674 0.027625749 0.107921675 -0.03048917
0.11797409 0.0142884785 0.00033439646 -0.12066649 0.0009827736 0.19547668 0.24096875 -0.1287288
-0.108549386 -0.15755743 0.0527515 -0.12519656 -0.11733512 -0.10338096 -0.123846345 -0.040308848
0.018028485 -0.00919776 0.06506847 0.059646565 -0.09716275 0.07206997 0.022893548 -0.022998473
0.14300735 -0.052148912 -0.09216005 -0.042605404 -0.052593157 -0.021606667 -0.017348155 0.14168796
0.004512674 0.12766661 -0.0013742843 -0.0075967656 -0.0011235246 -0.018774156 -0.055050354 -0.14506212
0.023636743 0.0035025452 -0.073689945 -0.14051889 0.00029663762 0.119460166 -0.105964154 -0.04405067
-0.05417136 -0.36847597 -0.046525333 0.16095617 0.0077305688 0.017102722 -0.093820624 -0.00048735263
-0.23075077 0.050021622 0.016824612 -0.03921691 0.10417682 -0.32494536 0.10476851 0.05588102
0.04571846 -0.0011561068 0.13704652 -0.111890934 0.045007344 0.20935631 -0.096238606 0.04832109
-0.18689865 -0.039220463 0.035741888 0.04060351 0.06712762 -0.09921806 0.07826917 0.13486478
-0.21367916 0.11037683 0.068585895 -0.077373095 0.005317309 0.10459595 -0.0002692135 -0.11536294
00000000: 25be 0cbe f7da 293c 8c96 0fbe 7b2d c5bd
00000010: 3c05 13be 747e d6bc 8384 f9bd 13a6 293e
00000020: 9421 6cbd 6c87 43bc e646 8fbe 7ed1 c7bd
00000030: 2a0c 1ebe 4e9a 31bd 4fd3 e23c d44c d9bd
00000040: 9228 053d 2ef2 273d eba3 82bd a8d5 16be
00000050: c3cf adbd 6a9b 063e 827c 523d 3682 c138
00000060: dccc a43d 6bd4 3d3d b180 a03c d747 1ebe
00000070: d057 35be 57d8 b63b 1c30 67be 081d 11bd
00000080: c8f5 a23d 4ef0 e1b9 dc37 46bd 3043 023e
00000090: 9907 2f3e da7f 07bd 896a 883a 3dc6 33ba
000000a0: 4063 b5bc c41f 89bd 5330 503d ccc1 373e
000000b0: b655 bf3d 9b34 8d3e 674d 133e 1ab9 16bd
000000c0: 0cf4 9d3c d4d9 133e 8412 fe3b f8b7 083d
000000d0: 4279 c33d 2d23 0b3e ac97 b63c 6ddc 0b3e
000000e0: 4227 403d b509 38bd 07b9 db3d bc00 a4b9
000000f0: 173f 6ebc de82 923e 6206 73ba 2125 abbd
00000100: 9c4e 0b3b ded8 92bd 1573 61bd 4c89 38be
00000110: 18f9 263d 91a8 8fb9 d32c 17be 7433 ab3d
00000120: 3e90 de39 b380 afbc fa58 d23d 7c83 58bd
00000130: eaff 503c 3077 9cbc 7696 a8bd e167 a43d
00000140: f16b 8339 85aa 2cbe cc0d c9bc 575f 82bd
00000150: 3e1c aab9 6198 753c bd90 473c c793 92bc
00000160: ac00 ee3c 9158 7bbd 41c8 59bc 5942 abba
00000170: cf14 c43c e3d6 073e 0ef3 4eb9 4033 5a3d
00000180: 34a2 a2bb c309 f53d d0bf 5fbd a31c 1e3e
00000190: 8775 20be 585c b3bd 6c45 5c3d 2e98 8b3c
000001a0: f156 853c d6ec b93d 889e 5a3d c250 5b3b
000001b0: f5a1 183e 95c1 3ebc 9dfd 3abe 8855 07be
000001c0: 1178 8e3c 4eee 37be e3a1 d53d e7cc 3f3e
000001d0: 34cf 5e3d 9b8b fdbb 1b75 7cbc 713e 22be
000001e0: 92db c0bd cf1a 8f3d 5a11 c93d a480 22be
000001f0: cd1c 2a3e 175d b1ba 8d06 0d3d 2035 bb3b
00000200: 2b0f 8a3e 0876 3a3d 5af4 70bb d779 99bc
00000210: f708 f0bd 87f6 a7bc bc89 ed3d a296 db3c
00000220: 9b69 4abd c060 c8bd 047d 69be d5e8 c93c
00000230: 15ac 313e 2e99 5b3d 8610 48b9 698e 03bd
00000240: 996d 8ebd b398 163e 3edc 8c3d f727 433c
00000250: 6fbb 86bc 0551 1cbe 4f2a 01be 5d25 3f3e
00000260: 8d71 33be 09e6 cdbd 4388 2e3e 92bd 293c
00000270: a44e 26be 3b39 94b9 79a5 a13d f794 4d39
00000280: f163 af3d 56ad 9dbc 3734 023e da27 fbbd
00000290: c792 9f3d 654f e23c 0a06 dd3d 6dc4 f9bc
000002a0: 669c f13d 391a 6a3c ef51 af39 fe1f f7bd
000002b0: 69d0 803a 0a2b 483e 83c0 763e 7cd1 03be
000002c0: 244f debd bc56 21be f511 583d 8733 00be
000002d0: 654d f0bd 66b9 d3bd 27a3 fdbd e41a 25bd
000002e0: 79b0 933c 34b2 16bc 9e42 853d f54f 743d
000002f0: 44fd c6bd 6c99 933d 408b bb3c 4b67 bcbc
00000300: 8570 123e 199a 55bd 69be bcbd 0183 2ebd
00000310: ec6b 57bd 7700 b1bc b81d 8ebc a616 113e
00000320: 0edf 933b 09bb 023e 5421 b4ba 4aee f8bb
00000330: 3b43 93ba 42cc 99bc 7b7c 61bd 2a8b 14be
00000340: d8a1 c13c f58a 653b c1ea 96bd 2fe4 0fbe
00000350: 0786 9b39 88a7 f43d bc03 d9bd 7a6e 34bd
00000360: cae2 5dbd e2a8 bcbe 5991 3ebd b2d1 243e
00000370: b650 fd3b 021b 8c3c 0725 c0bd 5d83 ffb9
00000380: ee49 6cbe 79e3 4c3d c5d3 893c e9a1 20bd
00000390: a85a d53d 3d5f a6be df90 d63d 7fe3 643d
000003a0: 4843 3b3d 8288 97ba ec55 0c3e 1327 e5bd
000003b0: 9f59 383d 8061 563e bf18 c5bd 56ec 453d
000003c0: 5c62 3fbe a3a5 20bd 1666 123d de4f 263d
000003d0: 357a 893d d732 cbbd 964b a03d fe19 0a3e
000003e0: b6ce 5abe 3f0d e23d c376 8c3d c975 9ebd
000003f0: d23c ae3b 6736 d63d 3925 8db9 6843 ecbd

backbone.0.bias f4 [16]
0.0010421495 -0.00012320909 0.00012975876 -0.00017271494 0.00026469724 -0.004443627 0.00014770817 0.0001389255
-0.0001810246 -0.0059156856 -0.0063996646 -0.00075589836 -0.006204461 -0.0001744066 -0.00014565449 -0.0025785924
00000000: bc98 883a b031 01b9 da0f 0839 d01a 35b9
00000010: 10c7 8a39 d89b 91bb 1ce2 1a39 88ac 1139
00000020: 6cd1 3db9 5ed8 c1bb 47b4 d1bb 7b27 46ba
00000030: cb4e cbbb eae0 36b9 d4ba 18b9 9afd 28bb

backbone.1.weight f4 [16]
0.9883956 0.9140527 0.9644146 0.9340638 0.9853474 0.942308 0.9543198 0.9249604
0.9235312 1.1463615 0.9705124 0.9474672 1.0337081 0.91666585 1.0520422 1.0544956
00000000: 7e07 7d3f 5cff 693f e0e3 763f ce1e 6f3f
00000010: ba3f 7c3f 193b 713f 4d4e 743f 34ca 6c3f
00000020: 8a6c 6c3f f9bb 923f 8073 783f 368d 723f
00000030: 8c50 843f 9daa 6a3f 52a9 863f b6f9 863f

backbone.1.bias f4 [16]
0.012866843 -0.042195443 -0.02679302 -0.024107575 0.030356288 0.018618463 -0.0108002955 -0.02080176
-0.02927526 0.018139094 0.046675492 0.028333742 0.12752068 -0.0240007 -0.014005484 -0.0026720872
00000000: 73cf 523c 21d5 2cbd 097d dbbc 407d c5bc
00000010: c0ad f83c bf85 983c b9f3 30bc 7468 aabc
00000020: acd2 efbc 7098 943c cd2e 3f3d 2a1c e83c
00000030: c894 023e 1e9d c4bc 4277 65bc 2f1e 2fbb

backbone.1.running_mean f4 [16]
-0.3503559 0.3134651 0.026537757 0.07851775 0.08754609 -0.048065703 -0.0861473 -0.10850412
-0.14790237 -0.0058827843 -0.1489091 0.005654878 -0.06060056 0.33151895 -0.0005422453 -0.06658719
00000000: d961 b3be 7f7e a03e b665 d93c eacd a03d
00000010: 5d4b b33d 8be0 44bd ff6d b0bd 6837 debd
00000020: b873 17be 5fc4 c0bb a17b 18be 8e4c b93b
00000030: 4b38 78bd dabc a93e 7725 0eba dd5e 88bd

backbone.1.running_var f4 [16]
0.42005506 0.20604885 0.009661543 0.016167557 0.017746907 0.013969357 0.01314825 0.030183434
0.0890568 0.0101292 0.07060577 0.009532224 0.011893882 0.30801502 0.0048141265 0.021076582
00000000: 7511 d73e 78fe 523e 734b 1e3c d371 843c
00000010: f661 913c bbdf 643c c26b 573c 4043 f73c
00000020: 6963 b63d f2f4 253c c299 903d 0c2d 1c3c
00000030: 8fde 423c 25b4 9d3e d2bf 9d3b cca8 ac3c

backbone.4.weight f4 [32, 16, 3, 3]
0.00024813478 -0.0021764464 0.057246897 0.026420204 0.0339487 -0.13736616 0.19139057 -0.0127634015
-0.09711248 0.007470015 -0.015688308 0.07268065 -0.0085046245 0.050549127 -0.03651804 -0.07559526
-0.0340864 0.08679744 0.026261898 -0.062232856 -0.1010855 0.041716132 -0.0004450806 0.090020835
0.08460416 0.11649162 -0.0007924045 0.0039092605 -0.04112832 0.038118124 0.030253842 -0.11163236
-0.010887362 0.18885346 -0.036692046 0.0005702501 -0.031514227 0.02365217 -0.006134069 0.074322745
-0.055489834 -0.13947265 0.07070097 0.031093124 -0.103578806 0.05362205 -0.02170624 0.033838723
-0.0472193 0.023152174 -0.003506727 0.02536618 -0.022284944 -0.16238128 -0.002308036 0.057598427
0.04711777 -0.012827692 -0.051295146 0.00091985596 0.08094105 -0.10055867 -0.075457655 0.018644743
-0.15212248 0.006576632 -0.0034285833 -0.07260693 -0.05698685 -0.06894976 -0.0839221 -0.01965979
0.09104061 -0.07399245 -0.00017955204 0.00284662 0.013431121 4.41629e-05 0.051105753 -0.0010858894
-0.055748157 0.07000349 0.028810278 -0.09157856 -0.125612 0.009854821 0.010174576 -0.04198224
0.04731437 0.047396306 -0.07289693 0.07492951 -0.01337471 0.0048495075 0.00013019676 -0.12692752
0.0872457 -0.0010670016 -0.047296613 0.00565145 0.05344238 -0.03444636 -0.07217498 -0.09592761
0.050561953 0.050671294 -0.21743855 0.12009914 0.088643245 0.14092822 0.05521994 0.14742386
0.0011734626 0.0682835 0.07243271 0.06431001 -0.037286207 0.16603799 -0.01676026 -0.07330163
-0.040535696 -0.024304673 -0.084184736 0.1591069 -0.0050122403 0.021027515 -0.14746891 0.01594546
-0.0006115087 0.08234499 0.16368072 0.07031404 0.061349463 0.017661035 -0.11415595 -0.04582706
0.03944609 -0.001403105 0.068235144 0.0190728 -0.079010986 0.09115879 0.0155594805 -0.004880114
-0.04516997 -0.12846728 -0.006649873 0.054456234 0.09900417 0.0519065 -0.123819105 0.114849254
0.03699839 -0.00085212 -0.08071489 -0.026661139 0.010625573 0.03398352 -0.00020639358 0.10046196
-0.002310873 1.191316e-05 -0.120716 -3.0799583e-07 -0.026028339 -0.019098772 0.041502167 -0.0024395315
-0.042340804 0.078190096 -0.12990455 0.00028976687 0.008101705 -0.040909912 0.0005866854 -0.048167087
-0.0013350918 0.021830952 -0.019436939 -0.06820847 0.0927232 -0.14862546 -0.15956202 0.074135594
-0.017784664 -0.0015372899 0.08018568 -0.09145018 -0.03359582 -0.033002526 -0.10859276 -0.018138455
-0.029560937 0.1166843 0.02603695 -0.06020212 -0.053956203 0.13021675 -0.012101703 -0.08717253
-0.12494257 0.18179995 -0.00033750496 0.00036027958 -0.12453913 -0.09929754 -0.06401133 -0.08388367
-0.041147668 0.00072567695 -0.032509804 0.03442597 0.0720738 0.053971343 -0.00082257716 0.00016607561
-0.00043096612 0.0048546907 0.00018755988 -0.06828565 0.01591618 0.0567854 -0.0550326 -0.018118858
0.18009254 -0.033912294 0.1363848 0.0055189207 -0.06199023 0.18851556 0.0018074173 -0.041141503
-0.058528896 -0.008311198 -0.10412669 -0.08799074 -0.012248673 -0.052983914 -0.0031651412 -0.03155741
-0.15743588 -0.031371538 0.016397169 0.021067278 0.010121413 0.0032595904 0.083807915 -0.021454474
0.010285113 -0.08354284 0.102068685 0.13277929 0.08676415 0.07107889 0.042627934 0.0448867
00000000: 1618 8239 b6a2 0ebb b97b 6a3d 2f6f d83c
00000010: cb0d 0b3d b7a9 0cbe e4fb 433e 961d 51bc
00000020: e8e2 c6bd 07c7 f43b c484 80bc 98d9 943d
00000030: fb56 0bbc 9a0c 4f3d f193 15bd b0d1 9abd
00000040: 2e9e 0bbd dbc2 b13d 3123 d73c e1e7 7ebd
00000050: ea05 cfbd 89de 2a3d b559 e9b9 d85c b83d
00000060: f244 ad3d 2993 ee3d 5eb9 4fba 4119 803b
00000070: 2b76 28bd c021 1c3d e8d6 f73c 829f e4bd
00000080: e860 32bc cd62 413e 664a 16bd d67c 153a
00000090: 1015 01bd 32c2 c13c 4d00 c9bb 8636 983d
000000a0: 4f49 63bd ebd1 0ebe accb 903d 02b7 fe3c
000000b0: 2021 d4bd cba2 5b3d 49d1 b1bc 799a 0a3d
000000c0: 0669 41bd a1a9 bd3c 1ed1 65bb bccc cf3c
000000d0: ea8e b6bc 4747 26be 6b42 17bb 54ec 6b3d
000000e0: 90fe 403d 3d2b 52bc dc1a 52bd 7d22 713a
000000f0: 6cc4 a53d b4f1 cdbd 8b89 9abd dcbc 983c
00000100: ffc5 1bbe ca80 d73b 15b2 60bb f1b2 94bd
00000110: 0b6b 69bd 8835 8dbd 5adf abbd 910d a1bc
00000120: 8073 ba3d 5b89 97bd 2246 3cb9 5c8e 3a3b
00000130: 340e 5c3c 8e3b 3938 4454 513d 6754 8eba
00000140: 2e58 64bd fd5d 8f3d 8803 ec3c 8a8d bbbd
00000150: 6fa0 00be 1d76 213c 44b3 263c 92f5 2bbd
00000160: b6cc 413d a122 423d fc4a 95bd a574 993d
00000170: 9a21 5bbc 9ee8 9e3b 6d85 0839 4af9 01be
00000180: e0ad b23d a2da 8bba 18ba 41bd cc2f b93b
00000190: 66e6 5a3d a017 0dbd 7ad0 93bd b275 c4bd
000001a0: 0d1a 4f3d b48c 4f3d 36a8 5ebe 8af6 f53d
000001b0: 978a b53d 7d4f 103e 4e2e 623d 48f6 163e
000001c0: dfce 993a 38d8 8b3d 9a57 943d f7b4 833d
000001d0: 6cb9 18bd dd05 2a3e d04c 89bc 2a1f 96bd
000001e0: c208 26bd 981a c7bc 0c69 acbd ebec 223e
000001f0: b83d a4bb e541 ac3c 1702 17be 0ea0 823c
00000200: a74d 20ba 7da4 a83d eb9b 273e cf00 903d
00000210: 9349 7b3d e0ad 903c 98ca e9bd 28b5 3bbd
00000220: 3992 213d 64e8 b7ba debe 8b3d 903e 9c3c
00000230: 83d0 a1bd 76b1 ba3d 31ed 7e3c 5de9 9fbb
00000240: 2504 39bd ed8c 03be 2ee7 d9bb 800d 5f3d
00000250: b3c2 ca3d e99b 543d df94 fdbd 1636 eb3d
00000260: a08b 173d ce60 5fba d94d a5bd 7668 dabc
00000270: e216 2e3c 4e32 0b3d 5b6b 58b9 00bf cd3d
00000280: 0472 17bb a2de 4737 f339 f7bd a05a a5b4
00000290: 6239 d5bc 0775 9cbc 2dfe 293d 8ce0 1fbb
000002a0: 8d6d 2dbd 2122 a03d b305 05be daeb 9739
000002b0: 04bd 043c 2791 27bd cacb 193a da4a 45bd
000002c0: 3ffe aeba d3d6 b23c 373a 9fbc e2b0 8bbd
000002d0: a9e5 bd3d 4631 18be 3a64 23be 67d4 973d
000002e0: 25b1 91bc e47e c9ba 6438 a43d 3b4a bbbd
000002f0: c59b 09bd a82d 07bd e265 debd 1997 94bc
00000300: c729 f2bc 2ef8 ee3d 714b d53c 8096 76bd
00000310: 2e01 5dbd 8a57 053e 3946 46bc 8387 b2bd
00000320: e4e1 ffbd c429 3a3e 26f3 b0b9 e8e3 bc39
00000330: 5f0e ffbd 825c cbbd 5f18 83bd 34cb abbd
00000340: 758a 28bd 5b3b 3e3a 0029 05bd 3f02 0d3d
00000350: 6e9b 933d 0e11 5d3d 38a2 57ba 9524 2e39
00000360: 4bf3 e1b9 1914 9f3b b9ab 4439 59d9 8bbd
00000370: a662 823c cf97 683d dd69 61bd 006e 94bc
00000380: 2e6a 383e 9ee7 0abd 75a8 0b3e 10d8 b43b
00000390: 78e9 7dbd 390a 413e dce6 ec3a fe83 28bd
000003a0: ffbb 6fbd b12b 08bc 6040 d5bd 7d34 b4bd
000003b0: a8ae 48bc a905 59bd 426e 4fbb 5842 01bd
000003c0: df36 21be 717f 00bd 5b53 863c 4995 ac3c
000003d0: 48d4 253c da9e 553b 7ca3 ab3d 4bc1 afbc
000003e0: e482 283c 8218 abbd 6309 d13d 4bf7 073e
000003f0: 67b1 b13d cf91 913d a19a 2e3d 1edb 373d

backbone.4.bias f4 [32]
-0.001377708 -0.0012327378 -0.0005789209 -4.7944515e-05 0.0011945129 0.0013443144 0.00060021755 -0.0013554353
-0.0011859034 0.0013208712 -0.0012724736 -0.0005042587 -0.0005028429 0.0006059192 0.0011112589 -0.0009350694
0.0009123094 0.0011914299 -0.00052758143 -0.0013737917 -0.00043149476 0.00077818154 0.00061517686 0.00033870243
0.0013820771 -0.00036236894 0.0006426506 -1.5517127e-05 0.000561394 -0.0010967666 0.0011196639 -0.0010563269
00000000: 3694 b4ba d193 a1ba b9c2 17ba 0818 49b8
00000010: 3491 9c3a b533 b03a eb57 1d3a dda8 b1ba
00000020: 5170 9bba 1521 ad3a 21c9 a6ba 3b30 04ba
00000030: 37d1 03ba 8dd6 1e3a a9a7 913a 721f 75ba
00000040: 0c28 6f3a c129 9c3a 644d 0aba cd10 b4ba
00000050: 3f3a e2b9 e1fe 4b3a d243 213a df93 b139
00000060: d026 b53a 56fc bdb9 8d77 283a c72a 82b7
00000070: 832a 133a 61c1 8fba b0c1 923a 7374 8aba

backbone.5.weight f4 [32]
0.96775514 0.93840575 1.0333393 0.9871856 1.0434217 0.93216884 0.9974878 1.0855429
0.95253134 1.0076829 0.9172037 0.96843463 0.94650865 0.8961978 0.98900807 0.9308074
0.9270587 1.0457222 1.0198151 1.0137495 0.99848497 0.95849246 0.9353249 0.9997023
1.0244147 1.0834484 0.9698102 0.89347374 0.9779741 0.96433115 0.94155914 1.0221444
00000000: cdbe 773f 5c3b 703f 7644 843f 32b8 7c3f
00000010: d88e 853f 9ea2 6e3f 5c5b 7f3f 12f3 8a3f
00000020: 18d9 733f c1fb 803f ddcd 6a3f 55eb 773f
00000030: 644e 723f 386d 653f a22f 7d3f 6549 6e3f
00000040: b853 6d3f 3ada 853f 4d89 823f 8bc2 813f
00000050: b69c 7f3f c35f 753f 7471 6f3f 7dec 7f3f
00000060: 0520 833f 70ae 8a3f 7b45 783f b2ba 643f
00000070: 835c 7a3f 68de 763f 050a 713f a1d5 823f

backbone.5.bias f4 [32]
0.019739894 0.022514585 -0.024205565 0.0015784872 0.00800531 -0.049241018 -0.011329189 0.0055192127
-0.03870805 0.105578706 -0.058541324 0.005450452 -0.060855348 -0.020058803 0.09125229 -0.06748187
0.009714544 0.052477624 0.089770205 1.1500111e-05 0.0050984467 -0.075280756 0.023529934 -0.07355729
-0.05109869 0.041281335 -0.026643105 -0.11099029 0.017296307 0.011787737 -0.02744509 0.07355981
00000000: 8fb5 a13c 8270 b83c c04a c6bc 3ee5 ce3a
00000010: b428 033c f3b0 49bd 109e 39bc 83da b43b
00000020: 558c 1ebd a639 d83d 07c9 6fbd b599 b23b
00000030: 7543 79bd 5c52 a4bc 7be2 ba3d ef33 8abd
00000040: c029 1f3c c7f2 563d 71d9 b73d 9af0 4037
00000050: df10 a73b cc2c 9abd d9c1 c03c 34a5 96bd
00000060: dc4c 51bd 9e16 293d a442 dabc e14e e3bd
00000070: fcb0 8d3c 5a21 413c 86d4 e0bc 87a6 963d

backbone.5.running_mean f4 [32]
0.07639989 -0.011229862 -0.02313385 0.09689077 -0.079399824 -0.03320161 -0.006947331 -0.012537216
0.07403935 -0.36923733 -0.010650397 0.24630216 -0.010654818 -0.00630089 -0.15253955 0.0061080954
-0.13571502 -0.06886881 -0.013188271 -0.07185224 -0.07828957 0.2021948 -0.1772316 0.23202133
-0.03374385 -0.06261491 -0.013784725 -0.13654417 -0.095805004 -0.20631409 0.07253885 -0.12144357
00000000: 8c77 9c3d 75fd 37bc 3383 bdbc ab6e c63d
00000010: 609c a2bd 69fe 07bd 70a6 e3bb e568 4dbc
00000020: f1a1 973d ad0c bdbe 017f 2ebc a236 7c3e
00000030: 8c91 2ebc b277 cebb 5433 1cbe 6b26 c83b
00000040: e1f8 0abe 170b 8dbd 9e13 58bc 4427 93bd
00000050: 4856 a0bd 270c 4f3e 337c 35be 0097 6d3e
00000060: fe36 0abd 3f3c 80bd 54d9 61bc 3cd2 0bbe
00000070: 6a35 c4bd 0044 53be 408f 943d 68b7 f8bd

backbone.5.running_var f4 [32]
0.15021744 0.1556109 0.057831742 0.2810624 0.16684005 0.11599166 0.21111314 0.12652785
0.14518096 0.6857024 0.1211706 0.34167483 0.12351798 0.076469876 0.22003022 0.14514124
0.13661614 0.11031508 0.12178209 0.108067535 0.11664912 0.17968702 0.28876734 0.21326207
0.111121655 0.11928347 0.119955726 0.21608712 0.187657 0.1898219 0.115285546 0.23443067
00000000: 9ad2 193e 7758 1f3e fae0 6c3d 69e7 8f3e
00000010: 1ed8 2a3e 098d ed3d 0b2e 583e 8490 013e
00000020: 51aa 143e 318a 2f3f 4b28 f83d 01f0 ae3e
00000030: fff6 fc3d 3d9c 9c3d 9a4f 613e e89f 143e
00000040: 1ae5 0b3e dfec e13d e368 f93d 8352 dd3d
00000050: bce5 ee3d e0ff 373e 50d9 933e 5f61 5a3e
00000060: c093 e33d e44a f43d 59ab f53d f145 5d3e
00000070: 2829 403e ac60 423e d41a ec3d 980e 703e

backbone.8.weight f4 [64, 32, 3, 3]
0.06334115 -0.05265551 -0.0064186985 -0.0029537044 -0.021346139 0.017063927 -0.047249094 -0.05175754
0.12179789 0.04130264 0.09253029 0.06855981 -0.00497199 0.03079312 0.07994442 -0.041444562
0.008366694 -0.066804454 -0.05641288 -0.042677816 0.015121532 0.11355582 0.052771285 0.0038308813
0.08011812 0.032666687 0.033698 0.1535101 -0.00037307708 -0.012850243 0.033591166 0.013311412
-0.0007510076 -0.053209312 0.033405356 -0.029351642 -0.039560094 0.023722671 -0.013063262 -0.08028787
0.08505961 -0.034592275 -0.065236315 -0.032185566 0.0361925 -0.028161421 0.08530485 0.07074916
-0.031037888 -0.0124867065 0.046096638 0.0053443485 0.029845899 -0.012358364 -0.057140924 0.011372905
-0.03108943 -0.05517425 0.10689666 -0.015489781 -0.030194135 0.0007090147 0.08264752 -0.026307972
0.026883295 -0.007869438 -0.048064657 0.08564587 0.031138534 -0.004758229 0.033435676 0.04514153
-0.038745772 0.043755088 -0.04323033 -0.0013632682 0.049340796 -0.057730254 0.06491047 0.03292018
-0.023720074 0.01821874 0.012117739 0.0074956566 -0.023767123 -0.08528493 -0.005581605 0.0110644195
-0.03318565 0.023210736 -0.04648436 0.03120204 0.012804585 -0.07097906 0.018397914 0.08086226
-0.030871233 -0.037834313 -0.023579106 -0.12990479 -0.05294094 0.028454136 -0.08492013 0.0028109045
-0.010894521 -0.14673983 -0.00586104 -0.06823479 0.02224401 -0.011234734 -0.053610854 -0.0053644064
0.0033204658 -0.040066123 -0.0012987675 -0.05462205 -0.019525098 0.04867776 0.028276684 -0.061015137
-0.0049325125 -0.048898045 -0.057211656 -0.03402879 0.01531137 -0.048049707 -0.04833633 -3.9118577e-06
-0.040232424 -0.019536734 0.01841697 -0.047171146 0.02322378 -0.08760972 -0.024689645 -0.11837219
-0.024544535 0.021064466 -0.0025450536 0.099369764 0.03658398 0.0012952585 -0.08058689 0.041673444
-0.0014547461 -0.02914132 -0.0012867555 -0.050347675 0.05113641 -0.012457474 -0.04427261 0.07968991
-0.10593286 -0.05543407 0.04685885 0.047297496 -0.051627602 -0.105941094 -0.08938773 -0.0075217653
-0.13899739 -0.038183257 -0.011914398 0.12101913 0.04734781 0.046330668 -0.024557786 0.06876779
-0.049845066 -0.045244113 0.043671686 -0.0033951565 -0.023915617 0.0143427225 0.09450935 0.019168738
0.090181 0.0083723925 -0.0054721166 -0.0029052552 0.021230945 -0.06273756 0.0047390014 0.08560009
0.1609266 0.033525214 0.04341336 -0.011180242 -0.00011559431 0.12450127 -0.010145333 -0.000720427
-0.0345766 -0.023913037 -0.017603843 0.0013776405 -0.03380766 -0.020370655 -0.020519836 0.085701436
-0.020414341 -0.0131299365 -0.0031185974 -0.005775588 0.016828295 0.035370074 -0.016721133 0.12042011
0.0035534385 0.035959996 0.06667348 -0.02348377 0.009509605 -0.036187705 -0.007973245 -0.07912301
0.09042338 -0.067911714 -0.037011787 0.021977395 -0.0030865795 0.011662832 -0.032705694 0.1179175
-0.021605108 -0.009466384 0.13901633 -0.039067358 0.029434556 0.055026438 -0.117394224 0.06174466
0.044635385 0.093875505 0.031151503 -0.0022941865 0.045237448 -0.05280049 0.07281022 0.035177328
-0.040298175 -0.031367563 -0.10156563 -0.024582118 0.020747334 0.09514339 0.06755218 0.0060755685
-0.040757958 -0.05439246 -0.083824985 0.061905317 0.06417832 0.05277862 7.4339325e-05 0.118018925
00000000: 01b9 813d 4ead 57bd f253 d2bb f092 41bb
00000010: 19de aebc a6c9 8b3c 4488 41bd b7ff 53bd
00000020: 2c71 f93d f52c 293d 8580 bd3d 1669 8c3d
00000030: 13ec a2bb da41 fc3c e6b9 a33d c6c1 29bd
00000040: 7514 093c c6d0 88bd 3111 67bd efce 2ebd
00000050: 4dc0 773c f48f e83d b426 583d 860f 7b3b
00000060: f814 a43d 81cd 053d ea06 0a3d c031 1d3e
00000070: 8f99 c3b9 d389 52bc e496 093d 1c18 5a3c
00000080: 44df 44ba 02f2 59bd 0ed4 083d db72 f0bc
00000090: c409 22bd 0c56 c23c 4b07 56bc f76d a4bd
000000a0: bc33 ae3d a1b0 0dbd 9e9a 85bd 03d5 03bd
000000b0: 963e 143d c8b2 e6bc 4fb4 ae3d f0e4 903d
000000c0: 2b43 febc 0b95 4cbc d4cf 3c3d a51f af3b
000000d0: 637f f43c bc7a 4abc 9a0c 6abd 6c55 3a3c
000000e0: 43af febc 65fe 61bd a3ec da3d dac8 7dbc
000000f0: b159 f7bc 2cdd 393a 1a43 a93d d183 d7bc
00000100: 5b3a dc3c d1ee 00bc 72df 44bd 1a67 af3d
00000110: 3d16 ff3c ebea 9bbb d9f3 083d 53e6 383d
00000120: e3b3 1ebd 8938 333d 4912 31bd b1af b2ba
00000130: 9319 4a3d 8f76 6cbd c8ef 843d 50d7 063d
00000140: 9a50 c2bc 783f 953c 7b89 463c 209e f53b
00000150: 45b3 c2bc dea9 aebd e5e5 b6bb 8a47 353c
00000160: aded 07bd 7124 be3c 6266 3ebd 6c9b ff3c
00000170: 52ca 513c 785d 91bd 39b7 963c 1d9b a53d
00000180: abe5 fcbc 27f8 1abd f828 c1bc c305 05be
00000190: 99d8 58bd a618 e93c 9bea adbd 2737 383b
000001a0: ef7e 32bc f742 16be f80d c0bb aebe 8bbd
000001b0: 1239 b63c e411 38bc 0e97 5bbd e7c7 afbb
000001c0: 2c9c 593b 601c 24bd 683b aaba 5fbb 5fbd
000001d0: 19f3 9fbc 5562 473d 81a4 e73c 02eb 79bd
000001e0: eaa0 a1bb 5149 48bd c556 6abd c661 0bbd
000001f0: 8adc 7a3c c5cf 44bd 51fc 45bd 9a42 83b6
00000200: c1ca 24bd 800b a0bc 2fdf 963c 8836 41bd
00000210: cc3f be3c ba6c b3bd f041 cabc 1e6d f2bd
00000220: 9f11 c9bc 638f ac3c eaca 26bb 6082 cb3d
00000230: 15d9 153d aac5 a93a bd0a a5bd c6b1 2a3d
00000240: 2ead beba c7b9 eebc 5aa8 a8ba 5d39 4ebd
00000250: 6a74 513d 6f1a 4cbc 3257 35bd 7734 a33d
00000260: 54f3 d8bd d60e 63bd 11ef 3f3d 05bb 413d
00000270: 7777 53bd a5f7 d8bd ea10 b7bd 2479 f6bb
00000280: 5555 0ebe 0c66 1cbd 9b34 43bc e1d8 f73d
00000290: c7ef 413d 3ac5 3d3d 692d c9bc 21d6 8c3d
000002a0: 572a 4cbd e451 39bd 15e1 323d 4681 5ebb
000002b0: afea c3bc bdfd 6a3c 1e8e c13d c207 9d3c
000002c0: d1b0 b83d 5c2c 093c 714f b3bb 1866 3ebb
000002d0: 85ec ad3c 8d7c 80bd a049 9b3b 1a4f af3d
000002e0: f1c9 243e bc51 093d 35d2 313d 552d 37bc
000002f0: 396b f2b8 86fa fe3d 9c38 26bc 0adb 3cba
00000300: 31a0 0dbd 46e5 c3bc ef35 90bc f291 b43a
00000310: e779 0abd 5ce0 a6bc 3719 a8bc 3c84 af3d
00000320: fa3b a7bc f21e 57bc 6261 4cbb 2541 bdbb
00000330: 7edb 893c 36e0 103d c2fa 88bc d29e f63d
00000340: cee0 683b ca4a 133d 1b8c 883d 0961 c0bc
00000350: 2dce 1b3c 8f39 14bd 37a2 02bc 3f0b a2bd
00000360: e52f b93d 4c15 8bbd ac99 17bd f009 b43c
00000370: 3648 4abb 7715 3f3c 68f6 05bd bb7e f13d
00000380: 32fd b0bc e418 1bbc 4c5a 0e3e 1805 20bd
00000390: bd20 f13c 6763 613d 626c f0bd f8e7 7c3d
000003a0: 98d3 363d cd41 c03d 7031 ff3c 105a 16bb
000003b0: e74a 393d 5445 58bd 861d 953d 1a16 103d
000003c0: b30f 25bd 467b 00bd a401 d0bd 7060 c9bc
000003d0: 50f6 a93c 8ada c23d cc58 8a3d 9015 c73b
000003e0: d1f1 26bd a1ca 5ebd 6fac abbd 6e90 7d3d
000003f0: ec6f 833d 652e 583d 9fe6 9b38 e8b3 f13d

backbone.8.bias f4 [64]
-7.5446537e-06 0.0003570824 -0.00034105347 -0.00019259841 -0.00010123231 -0.00018445634 -0.00035992262 -3.2821354e-05
-0.00028209147 0.0003422437 0.0002040161 0.00019790935 1.4915033e-05 -0.00023841311 0.00032389426 -0.0002505502
0.00018376965 -7.799145e-05 0.00032604346 0.00036232348 -1.3759928e-05 -0.00013695656 -0.00013755493 -0.00036082283
0.00024997804 -0.00025633644 0.0003083196 1.559487e-05 -0.00031805134 0.0003616193 0.00035136275 0.00012959752
0.00015534606 -0.00031233038 -0.00036187505 -0.00033011427 0.0001592686 -0.0002984153 -0.00029944204 -0.00035581467
0.00028732835 0.00013360148 0.00036232115 -6.9077156e-05 -0.0003400165 -0.0001805006 3.226039e-05 0.00035684236
-0.00015142036 7.902885e-05 -0.00035331256 -0.00029488045 0.00028623172 -0.000116480885 -7.045103e-05 0.00032951217
1.6552742e-05 0.00031822463 -0.00020729662 -1.6987271e-05 -7.2622985e-05 -0.00010828642 -0.00012034678 0.0003185329
00000000: 1528 fdb6 ca36 bb39 6ccf b2b9 3ef4 49b9
00000010: af4c d4b8 9f6a 41b9 ffb3 bcb9 a9a9 09b8
00000020: ade5 93b9 2c6f b339 28ed 5539 e385 4f39
00000030: 943b 7a37 88fe 79b9 5ad0 a939 475c 83b9
00000040: 4ab2 4039 578f a3b8 d0f0 aa39 3cf6 bd39
00000050: 71da 66b7 ff9b 0fb9 9f3c 10b9 d22c bdb9
00000060: 7c0f 8339 e564 86b9 f5a5 a139 bad1 8237
00000070: 21c0 a6b9 b997 bd39 1c37 b839 92e4 0739
00000080: 64e4 2239 46c0 a3b9 0cba bdb9 3013 adb9
00000090: 5701 2739 a074 9cb9 6efe 9cb9 a38c bab9
000000a0: 8fa4 9639 6017 0c39 ecf5 bd39 84dd 90b8
000000b0: 3e44 b2b9 c344 3db9 544f 0738 9216 bb39
000000c0: 98c6 1eb9 4abc a538 cf3c b9b9 2f9a 9ab9
000000d0: 5f11 9639 3347 f4b8 1cbf 93b8 60c2 ac39
000000e0: beda 8a37 63d7 a639 c35d 59b9 e37f 8eb7
000000f0: 2b4d 98b8 d417 e3b8 af62 fcb8 c300 a739

backbone.9.weight f4 [64]
0.9141138 0.96287245 1.0088336 1.0066923 1.0030046 0.9795177 0.9997801 0.9249498
0.8681621 1.041699 0.90893465 0.9779403 0.98659545 0.9795633 0.9522727 0.89354074
0.9612176 1.0204755 0.979453 0.9439016 1.0148534 0.9764929 1.0334547 0.9542629
0.942166 0.86885834 1.0254511 0.97277117 0.9743714 0.9540292 1.0333284 1.0164033
1.0062853 1.0387819 0.969803 0.9453435 0.9109544 0.93073 0.86416936 0.95119995
0.98885435 0.89423287 0.9793227 0.97458833 0.9913904 1.071743 0.9832579 0.85264724
1.0179844 0.94590485 0.99455774 0.9353756 0.93037075 0.92742866 1.0610946 0.9367334
0.9041478 1.0229177 0.9903062 1.0781081 0.9123624 1.0175147 0.9405382 0.99145216
00000000: 5d03 6a3f cf7e 763f 7621 813f 4bdb 803f
00000010: 7462 803f acc1 7a3f 97f1 7f3f 83c9 6c3f
00000020: df3f 5e3f 6556 853f f1af 683f 4c5a 7a3f
00000030: 8591 7c3f a9c4 7a3f 25c8 733f 16bf 643f
00000040: 5b12 763f f19e 823f 6fbd 7a3f 89a3 713f
00000050: b7e6 813f 70fb 793f 3e48 843f 934a 743f
00000060: ca31 713f 806d 5e3f fb41 833f 8807 793f
00000070: 6770 793f 423b 743f 1b44 843f 8119 823f
00000080: f5cd 803f cef6 843f 0245 783f 0802 723f
00000090: 4f34 693f 5244 6e3f 343a 5d3f d781 733f
000000a0: 8f25 7d3f 72ec 643f e4b4 7a3f 9f7e 793f
000000b0: c3cb 7d3f e02e 893f cab6 7b3f 1747 5a3f
000000c0: 504d 823f d226 723f 569b 7e3f c674 6f3f
000000d0: c72c 6e3f f76b 6d3f f3d1 873f c3cd 6f3f
000000e0: 3b76 673f f8ee 823f b584 7d3f 72ff 893f
000000f0: 9590 693f ec3d 823f 1dc7 703f cfcf 7d3f

backbone.9.bias f4 [64]
-0.06968554 -0.053329512 -0.016462557 -0.01771683 -0.035777647 0.0047984407 -0.06133816 -0.04216139
-0.089282535 -0.10456498 -0.11513674 -0.1256732 -0.08185435 -0.0669341 -0.028001998 -0.12054658
-0.09032648 -0.062132362 -0.066154 -0.18191297 -0.08980009 -0.028406225 0.0073918086 -0.082052045
-0.069581136 -0.068508506 -0.060342073 0.008264004 -0.06415554 -0.0533015 -0.07578071 -0.027939795
-0.08089812 -0.119024575 -0.05996831 -0.06334025 -0.026203088 -0.03448546 -0.12874687 -0.038020484
-0.07556021 -0.08704956 0.009585751 -0.10784754 -0.061750114 -0.09491939 -0.11774093 -0.08402345
-0.04249753 -0.10053335 -0.11477731 -0.1343002 -0.0071004187 -0.10410701 -0.06811857 -0.07757756
-0.119833775 -0.040433202 -0.060118414 -0.021237066 -0.10896933 -0.040636502 -0.07843386 -0.11490495
00000000: 4bb7 8ebd 0c70 5abd 7cdc 86bc e322 91bc
00000010: 958b 12bd 3d3c 9d3b b93d 7bbd 6cb1 2cbd
00000020: c3d9 b6bd 2a26 d6bd d0cc ebbd 7ab0 00be
00000030: 41a3 a7bd bf14 89bd 7264 e5bc 20e1 f6bd
00000040: 17fd b8bd 817e 7ebd c07b 87bd 6547 3abe
00000050: 1ce9 b7bd 2cb4 e8bc fc36 f23b e70a a8bd
00000060: 8e80 8ebd 304e 8cbd 4029 77bd bf65 073c
00000070: fb63 83bd ac52 5abd eb32 9bbd ffe1 e4bc
00000080: eaad a5bd 28c3 f3bd 55a1 75bd 88b8 81bd
00000090: dca7 d6bc a040 0dbd 38d6 03be 5ebb 1bbd
000000a0: 50bf 9abd 0a47 b2bd 8e0d 1d3c 2cdf dcbd
000000b0: b0ed 7cbd 1965 c2bd 2822 f1bd 7d14 acbd
000000c0: e411 2ebd 6ee4 cdbd 5e10 ebbd fe85 09be
000000d0: a1aa e8bb 0e36 d5bd c081 8bbd fce0 9ebd
000000e0: 696b f5bd 499d 25bd ba3e 76bd 5bf9 adbc
000000f0: 502b dfbd 7672 26bd eea1 a0bd 4953 ebbd

backbone.9.running_mean f4 [64]
0.12968968 -0.38968322 0.29843193 -0.5491658 -0.15035765 -0.62090707 -0.31008163 0.61953187
0.050371237 -0.4385006 -0.21804728 0.81438243 0.2662601 -0.0014700649 -0.3572789 0.46306214
-0.3978984 -0.33846614 0.097740516 -0.8591907 -0.2688714 0.09398942 -0.096437894 -0.015265267
-0.4254727 -0.032126375 -0.060750015 -0.56023043 0.08819479 -0.4934276 -0.16591269 -0.14279711
0.30769724 -0.06677952 -0.24435596 -0.108265765 -0.4625811 -0.47800905 -0.43345535 -0.17792957
-0.15403776 -0.010980853 -0.59613127 0.28729075 -0.06990165 -0.008746359 0.21494389 -0.22057275
-0.33827007 -0.06276369 -0.5097786 -0.029330967 -0.9773414 -0.53438073 -0.0047502113 0.5324972
0.2682321 -0.3887251 0.01645601 -0.22946408 0.014280095 -0.21776177 0.20108113 -0.14703438
00000000: 5fcd 043e 8f84 c7be 12cc 983e 2196 0cbf
00000010: 5bf7 19be c4f3 1ebf 05c3 9ebe a499 1e3f
00000020: 1252 4e3d 2783 e0be c947 5fbe 5e7b 503f
00000030: 3e53 883e 31af c0ba 43ed b6be 7b16 ed3e
00000040: 57b9 cbbe 6f4b adbe 2e2c c83d ecf3 5bbf
00000050: 83a9 89be 867d c03d 3b81 c5bd 2c1b 7abc
00000060: 8fd7 d9be f296 03bd 02d5 78bd 436b 0fbf
00000070: 789f b43d 8ba2 fcbe 04e5 29be 6839 12be
00000080: 7e8a 9d3e b3c3 88bd 7338 7abe 71ba ddbd
00000090: 6ed7 ecbe 9abd f4be dced ddbe 2b33 36be
000000a0: 13bc 1dbe 09e9 33bc 0f9c 18bf c617 933e
000000b0: 9928 8fbd e34c 0fbc 401a 5c3e d3dd 61be
000000c0: bc31 adbe 408a 80bd da80 02bf 7f47 f0bc
000000d0: 0c33 7abf 2dcd 08bf a9a7 9bbb bd51 083f
000000e0: b855 893e fa06 c7be c1ce 863c a2f8 6abe
000000f0: 0ff7 693c f1fc 5ebe 36e8 4d3e 2e90 16be

backbone.9.running_var f4 [64]
0.68729216 0.8910835 0.94227284 0.9740381 0.5736881 1.0925589 0.8490948 1.1803019
0.8185176 0.85762155 0.712735 1.2869295 0.8181716 0.35402507 0.5625623 1.0362264
0.36300197 0.6968676 0.46329919 1.3125962 0.582174 0.5728017 1.2374085 0.44501746
0.8000882 0.81186616 0.3146823 0.8765126 0.79777586 0.83268666 0.6211086 0.39562735
1.0181987 0.56044495 0.3283413 0.3185319 0.78271854 1.6914886 1.0220284 0.45147496
0.46714428 0.5138671 1.1799805 0.66553766 0.3875867 0.5242292 1.2479423 0.74001014
0.9686857 0.30510956 0.8994152 0.6634324 1.3563174 0.5631131 0.7595952 1.1309209
0.72608274 1.128353 0.68653804 0.95805776 0.6711477 0.64962703 0.7010017 0.6927216
00000000: 61f2 2f3f 0c1e 643f cb38 713f 905a 793f
00000010: 39dd 123f f8d8 8b3f 475e 593f 2214 973f
00000020: 5f8a 513f 168d 5b3f cd75 363f 1bba a43f
00000030: b273 513f c642 b53e 1504 103f 11a3 843f
00000040: 65db b93e ea65 323f 8d35 ed3e 2703 a83f
00000050: 5b09 153f 22a3 123f 6763 9e3f 54d9 e33e
00000060: 95d2 4c3f 76d6 4f3f 0a1e a13e 2163 603f
00000070: 0a3b 4c3f f42a 553f f900 1f3f ab8f ca3e
00000080: 5654 823f 5279 0f3f 5a1c a83e 9d16 a33e
00000090: 3e60 483f b382 d83f d4d1 823f ba27 e73e
000000a0: 892d ef3e cb8c 033f 9a09 973f ad60 2a3f
000000b0: c471 c63e e333 063f 93bc 9f3f 4e71 3d3f
000000c0: c9fb 773f 5237 9c3e 1340 663f b5d6 293f
000000d0: cf9b ad3f 2e28 103f d574 423f 04c2 903f
000000e0: 8fe0 393f df6d 903f f5c0 2f3f 4643 753f
000000f0: 56d0 2b3f f54d 263f d974 333f 3456 313f

backbone.12.weight f4 [128, 64, 3, 3]
-0.04661324 -0.01542054 0.04160542 0.032316655 -8.942192e-05 0.038735196 -0.018894693 0.018374283
0.010322343 -0.050260365 0.03356384 0.076993614 0.0021042628 0.03308288 0.0013864773 0.04291017
0.025655637 -0.039060153 0.0098075755 -0.015723735 -0.03438531 0.016765906 -0.007396251 0.065463975
0.02408508 -0.018369686 -0.004864726 -0.011809594 0.008112317 -0.061345518 -0.05187161 0.021384947
-0.046314407 -0.029635102 0.015522248 -0.08054366 -0.086606435 0.034983456 0.00969469 -0.007700908
0.026397489 -0.043358296 0.00036686874 -0.00064692163 -0.016235903 -0.0066455053 0.039905306 -0.049963765
0.0001789955 0.028349135 0.007207263 -0.004046973 -0.0119555015 -0.03277016 -0.09632732 -0.098739445
-0.011365317 -0.0345632 -0.04977147 -0.011532797 0.0041367062 -0.034684267 0.049243964 0.029054774
-0.036667965 -0.054333124 0.028980993 -0.0058455174 -0.015800958 0.061152466 -0.047973655 0.00978351
-0.011074317 -0.029485494 -0.041875582 0.021658912 0.0071609286 0.007589446 0.044774845 -0.025419578
-0.017634587 0.0031362746 -0.0057276 0.0177687 0.044604897 0.01202462 0.017035924 0.054826166
0.017933924 -0.0012860864 0.023382902 0.034804784 -0.058820155 0.02176969 -0.009156911 -0.02929483
-0.008097842 0.001408261 -0.026624333 0.07383058 -0.036786824 -0.039395932 0.08263203 0.093131155
0.0842915 0.0013113336 -0.015448976 0.009915567 0.0027298522 -0.007374932 0.032550193 -0.021568174
-0.021872848 -0.027582565 0.032541763 -0.042493816 -0.030741598 -0.0404419 0.046653785 -0.10692756
-0.02175153 -0.001440935 0.013260517 -0.027058497 -0.016972803 -0.0245466 0.008455738 0.048911106
-0.005491846 -0.015412047 0.060423564 -0.013305249 0.03890057 0.05871896 -0.03691511 0.03139845
-0.00246594 0.011883878 0.01969585 0.010528448 0.054268565 -0.0033856097 -0.0059467745 0.016693743
-0.028449927 0.015812732 0.04264326 0.0073153214 -0.040971126 -0.023390325 0.017428473 0.019394847
-0.025228178 -0.007016561 0.0062746373 0.010914224 0.03955613 -0.017496321 -0.020137966 -0.012702757
-0.015104743 -0.036851253 0.008495721 -0.021851433 -0.013207278 0.033352375 0.033045415 -0.0648692
0.025248475 0.031690218 -0.0031579956 -0.04710196 0.06000839 -0.02525731 -0.020569995 0.034916505
0.013043775 0.06108616 0.0033432401 0.06748186 -0.06159238 -0.015612588 -0.06750196 -0.0535405
-0.03416762 -0.019398792 -0.105891205 -0.053668004 -0.09411643 -0.020139901 -0.030273654 -0.043377284
0.04173749 -0.044852804 -0.011070687 0.0071735997 0.029893903 0.0032304002 0.00273017 -0.0021937008
-0.06613312 -0.022801923 0.03391058 -0.054657128 0.060155004 -0.031186547 -0.07493309 -0.030543739
0.025156425 -0.10287181 0.023154221 0.049317773 0.0009301153 0.008877455 0.009537241 -0.050266303
0.012747551 0.04614654 -0.0041820477 -0.015741166 -0.069355875 -0.018014798 0.001526632 -0.0011913182
0.008470673 -0.005431757 0.025110744 -0.026074875 0.014642385 -0.02883307 0.030427713 -0.048127968
0.0012940661 -0.03206747 -0.0020485928 0.0613893 -0.029624835 0.01166377 -0.006981638 0.004558732
0.013543325 0.069529556 0.026190288 -0.03970399 -0.0015780359 -0.0034640948 0.032025218 0.026665479
0.035777777 0.056148987 0.034469403 -0.01635559 0.05033816 0.0049486044 0.03093973 0.022803886
00000000: 86ed 3ebd 6fa6 7cbc 726a 2a3d 785e 043d
00000010: 0788 bbb8 cca8 1e3d 0bc9 9abc aa85 963c
00000020: 0b1f 293c d0dd 4dbd 3d7a 093d d4ae 9d3d
00000030: ace7 093b ea81 073d 75ba b53a 93c2 2f3d
00000040: c52b d23c 8afd 1fbd f4af 203c 10cf 80bc
00000050: 9cd7 0cbd a758 893c 405c f2bb fa11 863d
00000060: 134e c53c 067c 96bc 4868 9fbb 077d 41bc
00000070: 86e9 043c 7045 7bbd 5377 54bd 7c2f af3c
00000080: 2db4 3dbd 50c5 f2bc 0751 7e3c 13f4 a4bd
00000090: b75e b1bd d04a 0f3d 7ad6 1e3c e657 fcbb
000000a0: 8c3f d83c 7898 31bd 4a58 c039 2d96 29ba
000000b0: 2801 85bc 8ac2 d9bb bf73 233d cea6 4cbd
000000c0: bdb0 3b39 723c e83c e72a ec3b 789c 84bb
000000d0: 02e1 43bc 013a 06bd 4247 c5bd e837 cabd
000000e0: 9835 3abc 2492 0dbd 2bdd 4bbd 0ef4 3cbc
000000f0: 358d 873b 1711 0ebd 0ab4 493d 4704 ee3c
00000100: 2631 16bd 698c 5ebd 8c69 ed3c c18b bfbb
00000110: 0371 81bc 027b 7a3d 0680 44bd 044b 203c
00000120: 0d71 35bc 908b f1bc bb85 2bbd 086e b13c
00000130: 39a6 ea3b e3b0 f83b d465 373d b83c d0bc
00000140: 6976 90bc f589 4d3b 97ae bbbb aa8f 913c
00000150: a0b3 363d e902 453c ec8e 8b3c 6791 603d
00000160: 2aea 923c e691 a8ba 808d bf3c 768f 0e3d
00000170: 67ed 70bd 5956 b23c de06 16bc b6fb efbc
00000180: d0ac 04bc 6695 b83a 461b dabc 7d34 973d
00000190: c8ad 16bd a15d 21bd fb3a a93d 8cbb be3d
000001a0: 06a1 ac3d 0ee1 ab3a b41d 7dbc e774 223c
000001b0: 52e7 323b 6aa9 f1bb 5a53 053d bdaf b0bc
000001c0: b02e b3bc d5f4 e1bc 834a 053d ff0d 2ebd
000001d0: ced5 fbbc 68a6 25bd 0a18 3f3d d6fc dabd
000001e0: 4430 b2bc c1dd bcba a442 593c c8a9 ddbc
000001f0: 8c0a 8bbc f415 c9bc f089 0a3c 0357 483d
00000200: f1f4 b3bb cf82 7cbc b37e 773d 42fe 59bc
00000210: 3456 1f3d 4b83 703d 4c34 17bd a99b 003d
00000220: 9c9b 21bb 99b4 423c 3159 a13c 837f 2c3c
00000230: b748 5e3d 1be1 5dbb 29dd c2bb 51c1 883c
00000240: d20f e9bc b489 813c b3aa 2e3d 5db5 ef3b
00000250: 57d1 27bd 119d bfbc 28c6 8e3c f1e1 9e3c
00000260: 53ab cebc 2eeb e5bb 799b cd3b 93d1 323c
00000270: 9c05 223d 7254 8fbc 60f8 a4bc 391f 50bc
00000280: e279 77bc 57f1 16bd a331 0b3c c701 b3bc
00000290: 5763 58bc 809c 083d a15a 073d 25da 84bd
000002a0: e4d5 ce3c 9acd 013d 60f6 4ebb fced 40bd
000002b0: 5ccb 753d 6be8 cebc 6882 a8bc 9c04 0f3d
000002c0: 8fb5 553c 7b35 7a3d 431a 5b3b ee33 8a3d
000002d0: 4b48 7cbd f1cb 7fbc 783e 8abd 494d 5bbd
000002e0: 59f3 0bbd 37ea 9ebc 7ddd d8bd fbd2 5bbd
000002f0: 1dc0 c0bd 6ffc a4bc 7400 f8bc 61ac 31bd
00000300: eef4 2a3d 93b7 37bd d461 35bc 8410 eb3b
00000310: 0fe4 f43c 1fb5 533b a7ec 323b 31c4 0fbb
00000320: cd70 87bd 19cb babc d2e5 0a3d 27e0 5fbd
00000330: 1865 763d ee7a ffbc 8576 99bd dd36 fabc
00000340: d914 ce3c 75ae d2bd ecad bd3c 6f01 4a3d
00000350: fbd2 733a bf72 113c 1742 1c3c 0ae4 4dbd
00000360: 1bdb 503c 2804 3d3d 8f09 89bb 9ef3 80bc
00000370: 740a 8ebd c593 93bc 4519 c83a 0126 9cba
00000380: 94c8 0a3c e1fc b1bb 0cb5 cd3c fa9a d5bc
00000390: 9de6 6f3c 5533 ecbc 8a43 f93c d521 45bd
000003a0: a79d a93a 2e59 03bd af41 06bb 5973 7b3d
000003b0: c8af f2bc 6619 3f3c 39c6 e4bb 6a61 953b
000003c0: d2e4 5d3c 8365 8e3d 048d d63c a7a0 22bd
000003d0: 19d6 ceba de05 63bb e02c 033d 9071 da3c
000003e0: b88b 123d 7bfc 653d ca2f 0d3d 29fc 85bc
000003f0: 632f 4e3d e727 a23b 5175 fd3c 37cf ba3c

backbone.12.bias f4 [128]
2.7289858e-05 0.00012851706 0.00019796635 0.00027528877 -0.0001867025 -0.00014201706 4.3648964e-05 -7.340965e-05
-7.5484363e-06 3.2943437e-05 -0.000199762 -0.00030828273 0.0003002429 -0.00032147692 0.000118252625 -0.00015934772
-2.6457155e-05 0.00017122377 0.0001156604 -0.00016809494 -8.054038e-05 0.00019058523 2.0993333e-05 -7.801903e-05
-8.8503155e-05 0.00028712908 -0.0003586166 -0.00023241332 -0.00033724558 -4.3651304e-05 -0.00014003053 -4.2837877e-05
-2.2924161e-05 -4.1526564e-05 0.00011546723 -0.00019276832 0.00019729303 -0.0001227262 -6.427952e-05 -6.3069005e-05
6.506122e-05 -9.994171e-05 3.481401e-05 -6.602772e-05 0.00015524757 -5.195079e-05 0.00014420213 -2.873435e-05
-9.176722e-05 0.00034280567 3.771941e-05 0.00017794852 -0.00026872224 -0.00019520488 9.232115e-05 -0.000107682594
-0.000115218434 -0.0001996094 0.0001303845 -0.00013894119 9.667298e-05 0.00018900452 0.00018904223 -0.00013317689
-5.221781e-05 4.591013e-05 0.00019971665 5.5844575e-05 -1.8864792e-05 -7.4529344e-05 0.00015139217 0.0001729188
-0.0003474336 0.00026559352 -0.0001773024 -3.3187633e-05 -0.000347641 0.0001952029 0.00020854443 0.00019359539
-0.00023361712 -0.00011613178 -7.201854e-05 7.2049945e-05 7.927413e-05 -0.00019194001 0.00013138952 -0.00019398065
-0.00019389561 0.00019030127 0.00012931325 7.368523e-05 -0.00015956072 -0.00012828043 -6.531895e-05 1.8508348e-05
-9.9506535e-05 7.883194e-05 -7.52852e-05 0.00025172217 -0.00012959733 0.00013956966 -9.492439e-05 -0.00015856604
-8.399818e-05 0.00019325179 1.9783913e-05 -3.6346548e-05 -0.00014843317 -0.00019999233 0.00014111552 0.00017762458
-4.102872e-05 -3.691483e-05 7.235478e-05 -0.00011834038 -0.00016045317 -0.00036135546 0.00025492522 0.00031302747
0.00020021519 -0.00033187165 -5.6352463e-05 -8.695291e-05 -0.00029221916 -5.6855833e-06 -0.00015480074 4.7762554e-05
00000000: 86ec e437 89c2 0639 3095 4f39 a254 9039
00000010: 92c5 43b9 6aea 14b9 b813 3738 81f3 99b8
00000020: 9348 fdb6 bf2c 0a38 3477 51b9 02a1 a1b9
00000030: eb69 9d39 e78b a8b9 65fe f738 9416 27b9
00000040: 4ff0 ddb7 888a 3339 b48e f238 a442 30b9
00000050: cae7 a8b8 d5d7 4739 d71a b037 269e a3b8
00000060: c59a b9b8 d089 9639 b504 bcb9 fab3 73b9
00000070: 56d0 b0b9 3b16 37b8 29d5 12b9 d2ac 33b8
00000080: 434d c0b7 cf2c 2eb8 ff26 f238 da21 4ab9
00000090: 72e0 4e39 10b0 00b9 cecd 86b8 ea43 84b8
000000a0: 7a71 8838 cc97 d1b8 4205 1238 5d78 8ab8
000000b0: f4c9 2239 bce5 59b8 f734 1739 8c0a f1b7
000000c0: 2773 c0b8 99ba b339 e834 1e38 b197 3a39
000000d0: 4ae3 8cb9 e9af 4cb9 8a9c c138 a7d3 e1b8
000000e0: 6da1 f1b8 3e4e 51b9 d3b7 0839 beb0 11b9
000000f0: e9bc ca38 842f 4639 a339 4639 66a5 0bb9
00000100: 7204 5bb8 a08f 4038 086b 5139 a83a 6a38
00000110: d53f 9eb7 a34c 9cb8 07bf 1e39 8951 3539
00000120: c027 b6b9 5c3f 8b39 40ea 39b9 f332 0bb8
00000130: 9643 b6b9 61af 4c39 b8ac 5a39 deff 4a39
00000140: 1ef7 74b9 c68b f3b8 a908 97b8 8519 9738
00000150: f93f a638 8143 49b9 9bc5 0939 4967 4bb9
00000160: 7550 4bb9 9c8b 4739 4398 0739 7587 9a38
00000170: c14f 27b9 0483 06b9 d8fb 88b8 6042 9b37
00000180: 2aae d0b8 9352 a538 6fe2 9db8 94f9 8339
00000190: 85e4 07b9 7259 1239 2512 c7b8 bf44 26b9
000001a0: 2e28 b0b8 a2a3 4a39 a1f5 a537 cf72 18b8
000001b0: baa4 1bb9 08b5 51b9 69f8 1339 bc40 3a39
000001c0: 4116 2cb8 ffd4 1ab8 2dbd 9738 822d f8b8
000001d0: 523f 28b9 4f74 bdb9 7ca7 8539 d61d a439
000001e0: dbf0 5139 0fff adb9 ff5b 6cb8 7d5a b6b8
000001f0: fe34 99b9 cac6 beb6 0252 22b9 a754 4838

backbone.13.weight f4 [128]
1.0363173 1.001969 1.1233686 1.0489918 1.0704538 1.0267961 1.0548406 0.98833835
0.9847363 1.036721 1.0441808 1.0615635 0.97794706 1.0904082 1.0596492 1.0481477
1.0545628 1.0271703 0.98885727 0.9858184 1.1617737 1.0018986 1.0829387 1.0376453
1.0652941 1.1013564 1.0788894 1.174312 1.0716708 1.0538453 0.984155 1.004323
1.0517486 1.0325234 1.0544115 1.044927 1.038765 1.030551 1.0343086 0.9890002
1.0559263 1.0331995 1.1016691 1.0454866 1.1467179 1.06791 1.0403259 1.0408853
0.983443 1.0986302 1.0039669 1.0482373 1.0784523 0.98290926 1.0463755 1.0534196
1.0591282 0.9875417 1.0535688 1.0533367 1.0360526 1.1788021 1.067005 1.1277628
1.0907141 1.0889114 1.0392264 1.0563774 0.9954378 1.0453115 1.0436108 1.0474292
1.0190519 1.0783759 1.0188192 1.0808352 1.1110147 1.0728933 1.056384 1.0195786
1.0965266 1.1165308 1.1304765 1.104981 1.1245207 1.0362928 1.1695853 1.1303799
1.0153583 1.0412953 1.0170106 1.0489547 0.9224222 1.0423269 1.0643821 1.075617
0.9703151 1.0363383 1.0197486 1.0539104 0.99407876 1.0575505 1.0343071 1.0266031
1.0355294 1.030198 1.0291833 1.0493854 1.0334806 1.050011 1.0215113 1.0732931
1.0055958 1.08837 1.0291513 1.1191938 1.0104038 1.0971226 1.131876 1.0782077
1.0549372 1.0131971 1.1795092 1.0119662 1.0420977 1.0552789 1.0404778 1.031137
00000000: 0ca6 843f 8540 803f 8bca 8f3f 5d45 863f
00000010: a104 893f 0e6e 833f 0405 873f be03 7d3f
00000020: ae17 7c3f 46b3 843f b7a7 853f 50e1 873f
00000030: bd5a 7a3f 7f92 8b3f 96a2 873f b429 863f
00000040: eafb 863f 517a 833f c025 7d3f 985e 7c3f
00000050: 00b5 943f 373e 803f bc9d 8a3f 90d1 843f
00000060: 8f5b 883f 3ff9 8c3f 0c19 8a3f db4f 963f
00000070: 822c 893f 67e4 863f 95f1 7b3f a88d 803f
00000080: b39f 863f ba29 843f f5f6 863f 2bc0 853f
00000090: 40f6 843f 18e9 833f 3964 843f 1e2f 7d3f
000000a0: 9828 873f e23f 843f 7e03 8d3f 81d2 853f
000000b0: a7c7 923f 46b1 883f 6629 853f bb3b 853f
000000c0: ecc2 7b3f ea9f 8c3f fd81 803f a42c 863f
000000d0: ba0a 8a3f f19f 7b3f a2ef 853f 74d6 863f
000000e0: 8391 873f 88cf 7c3f 58db 863f bdd3 863f
000000f0: 5f9d 843f fde2 963f 9f93 883f 885a 903f
00000100: 859c 8b3f 7361 8b3f 5f05 853f 6037 873f
00000110: 03d5 7e3f c4cc 853f 0a95 853f 2912 863f
00000120: 4b70 823f 3908 8a3f ab68 823f cf58 8a3f
00000130: bb35 8e3f 9154 893f 9737 873f 8d81 823f
00000140: fc5a 8c3f 7bea 8e3f 74b3 903f 0470 8d3f
00000150: 4bf0 8f3f 3ea5 843f f9b4 953f 4ab0 903f
00000160: 43f7 813f 2a49 853f 672d 823f 2644 863f
00000170: dc23 6c3f f86a 853f ac3d 883f d1ad 893f
00000180: 9266 783f bca6 843f 1f87 823f 89e6 863f
00000190: f27b 7e3f d15d 873f 2d64 843f bb67 833f
000001a0: 3a8c 843f 87dd 833f 47bc 833f 4352 863f
000001b0: 1849 843f c366 863f e2c0 823f ab61 893f
000001c0: 5db7 803f b54f 8b3f 3bbb 833f be41 8f3f
000001d0: e954 813f 836e 8c3f 50e1 903f b602 8a3f
000001e0: 2f08 873f 71b0 813f 28fa 963f 1c88 813f
000001f0: 7563 853f 6113 873f 602e 853f 4cfc 833f

backbone.13.bias f4 [128]
-0.063466564 0.0007008514 -0.03914032 -0.020391528 -0.000892719 0.0015919001 -0.024914335 -0.024241883
0.041227493 0.063563876 -0.040499702 -0.050655603 -0.012693523 -0.070704 -0.018938543 0.034569792
-0.028914962 -0.030506117 0.030945893 0.03225929 -0.07865797 0.025976509 -0.05052367 -0.04614288
-0.031185515 -0.048613854 -0.04081397 -0.06718678 -0.040812142 0.09934831 0.050679203 0.037519824
-0.051746126 0.023288682 -0.043728016 -0.0009251743 0.059577588 0.011686443 -0.028564468 0.0046102465
0.1002605 -0.002275916 -0.056316897 0.057169735 -0.03912675 -0.06356568 -0.021974124 0.041135646
-0.06351314 -0.008324992 -0.025915567 0.004315481 -0.049226735 0.013652087 -0.047666166 0.085240334
-0.09190729 -0.034194566 -0.011807118 0.006489093 -0.018348237 -0.049506646 -0.016229965 -0.03680953
-0.030097838 -0.060396735 -0.034208592 0.087871745 0.023073405 -0.031793848 -0.01522982 -0.03457543
0.038107038 -0.07128299 0.08488621 -0.039079145 -0.090085216 -0.00022998125 -0.039436143 0.020402942
-0.047834076 -0.04020874 -0.053177804 -0.05182602 -0.07451828 0.039888937 -0.043925628 -0.07409239
-0.031700466 0.006976583 -0.030760044 0.016910454 -0.01704536 0.003824017 -0.039747838 -0.09215429
0.00693554 -0.020041002 0.0060128425 -0.0535373 0.05710062 -0.050778877 -0.060775306 -0.022110345
0.05857097 0.070310615 0.059655264 0.026676452 0.070934325 0.022742998 0.06301658 0.023696672
-0.030065903 -0.05324564 -0.03630436 -0.05477919 -0.030098679 -0.066038094 -0.06574252 -0.04487484
-0.034918316 -0.0142737 -0.048730515 -0.010218694 -0.0528365 -0.049563155 -0.0053989426 0.12963058
00000000: c2fa 81bd 57b9 373a 9a51 20bd 220c a7bc
00000010: 5c05 6aba 4ea7 d03a 2619 ccbc ea96 c6bc
00000020: 29de 283d c72d 823d 04e3 25bd 407c 4fbd
00000030: 7ff8 4fbc 42cd 90bd 0125 9bbc 0e99 0d3d
00000040: 12df ecbc f7e7 f9bc 3e82 fd3c 5122 043d
00000050: 6e17 a1bd b0cc d43c e8f1 4ebd 5100 3dbd
00000060: c478 ffbc 521f 47bd 8d2c 27bd 3999 89bd
00000070: a22a 27bd 2077 cb3d ff94 4f3d 63ae 193d
00000080: bff3 53bd e8c7 be3c 261c 33bd 6587 72ba
00000090: a107 743d 7f78 3f3c 0800 eabc 8d11 973b
000000a0: 6155 cd3d 8927 15bb 8cac 66bd d02a 6a3d
000000b0: 5f43 20bd b92e 82bd 1403 b4bc da7d 283d
000000c0: 2d13 82bd 8c65 08bc e24c d4bc e168 8d3b
000000d0: f9a1 49bd 01ad 5f3c 993d 43bd 7c92 ae3d
000000e0: e439 bcbd 9a0f 0cbd a472 41bc 75a2 d43b
000000f0: 0b4f 96bc 7bc7 4abd b4f4 84bc 97c5 16bd
00000100: be8f f6bc 9162 77bd 4f1e 0cbd 1af6 b33d
00000110: 7004 bd3c 443a 02bd 7f86 79bc f79e 0dbd
00000120: 2016 1c3d d1fc 91bd d2d8 ad3d 7411 20bd
00000130: 997e b8bd 1f27 71b9 cb87 21bd 1224 a73c
00000140: aaed 43bd ebb1 24bd f8d0 59bd 8547 54bd
00000150: 0a9d 98bd 9562 233d 5ceb 33bd c0bd 97bd
00000160: 59d8 01bd d29b e43b 7dfc fbbc cb87 8a3c
00000170: b6a2 8bbc 5c9c 7a3b a1ce 22bd 63bb bcbd
00000180: 8743 e33b 072d a4bc 6107 c53b ee49 5bbd
00000190: 57e2 693d 83fd 4fbd 87ef 78bd c120 b5bc
000001a0: 1de8 6f3d 03ff 8f3d 1459 743d 9388 da3c
000001b0: 0446 913d 864f ba3c d60e 813d 861f c23c
000001c0: c54c f6bc 1a18 5abd e1b3 14bd 2560 60bd
000001d0: 8191 f6bc fb3e 87bd 04a4 86bd aece 37bd
000001e0: 8206 0fbd 3ddc 69bc a699 47bd 4f6c 27bc
000001f0: 166b 58bd bc02 4bbd 9de9 b0bb e1bd 043e
